{
  "storage" : "model.espresso.weights",
  "analyses" : {

  },
  "properties" : {

  },
  "format_version" : 200,
  "metadata_in_weights" : [

  ],
  "layers" : [
    {
      "top" : "InceptionResnetV1\/Repeat\/block35_1\/mul\/x",
      "w" : 1,
      "h" : 1,
      "name" : "InceptionResnetV1\/Repeat\/block35_1\/mul\/x",
      "nd_rank" : 1,
      "type" : "load_constant",
      "k" : 1,
      "bottom" : "",
      "debug_info" : "InceptionResnetV1\/Repeat\/block35_1\/mul\/x",
      "n" : 1,
      "weights" : {

      },
      "constant_blob" : 1
    },
    {
      "top" : "InceptionResnetV1\/Repeat\/block35_2\/mul\/x",
      "w" : 1,
      "h" : 1,
      "name" : "InceptionResnetV1\/Repeat\/block35_2\/mul\/x",
      "nd_rank" : 1,
      "type" : "load_constant",
      "k" : 1,
      "bottom" : "",
      "debug_info" : "InceptionResnetV1\/Repeat\/block35_2\/mul\/x",
      "n" : 1,
      "weights" : {

      },
      "constant_blob" : 3
    },
    {
      "top" : "InceptionResnetV1\/Repeat\/block35_3\/mul\/x",
      "w" : 1,
      "h" : 1,
      "name" : "InceptionResnetV1\/Repeat\/block35_3\/mul\/x",
      "nd_rank" : 1,
      "type" : "load_constant",
      "k" : 1,
      "bottom" : "",
      "debug_info" : "InceptionResnetV1\/Repeat\/block35_3\/mul\/x",
      "n" : 1,
      "weights" : {

      },
      "constant_blob" : 5
    },
    {
      "top" : "InceptionResnetV1\/Repeat\/block35_4\/mul\/x",
      "w" : 1,
      "h" : 1,
      "name" : "InceptionResnetV1\/Repeat\/block35_4\/mul\/x",
      "nd_rank" : 1,
      "type" : "load_constant",
      "k" : 1,
      "bottom" : "",
      "debug_info" : "InceptionResnetV1\/Repeat\/block35_4\/mul\/x",
      "n" : 1,
      "weights" : {

      },
      "constant_blob" : 7
    },
    {
      "top" : "InceptionResnetV1\/Repeat\/block35_5\/mul\/x",
      "w" : 1,
      "h" : 1,
      "name" : "InceptionResnetV1\/Repeat\/block35_5\/mul\/x",
      "nd_rank" : 1,
      "type" : "load_constant",
      "k" : 1,
      "bottom" : "",
      "debug_info" : "InceptionResnetV1\/Repeat\/block35_5\/mul\/x",
      "n" : 1,
      "weights" : {

      },
      "constant_blob" : 9
    },
    {
      "top" : "InceptionResnetV1\/Repeat_1\/block17_1\/mul\/x",
      "w" : 1,
      "h" : 1,
      "name" : "InceptionResnetV1\/Repeat_1\/block17_1\/mul\/x",
      "nd_rank" : 1,
      "type" : "load_constant",
      "k" : 1,
      "bottom" : "",
      "debug_info" : "InceptionResnetV1\/Repeat_1\/block17_1\/mul\/x",
      "n" : 1,
      "weights" : {

      },
      "constant_blob" : 11
    },
    {
      "top" : "InceptionResnetV1\/Repeat_1\/block17_2\/mul\/x",
      "w" : 1,
      "h" : 1,
      "name" : "InceptionResnetV1\/Repeat_1\/block17_2\/mul\/x",
      "nd_rank" : 1,
      "type" : "load_constant",
      "k" : 1,
      "bottom" : "",
      "debug_info" : "InceptionResnetV1\/Repeat_1\/block17_2\/mul\/x",
      "n" : 1,
      "weights" : {

      },
      "constant_blob" : 13
    },
    {
      "top" : "InceptionResnetV1\/Repeat_1\/block17_3\/mul\/x",
      "w" : 1,
      "h" : 1,
      "name" : "InceptionResnetV1\/Repeat_1\/block17_3\/mul\/x",
      "nd_rank" : 1,
      "type" : "load_constant",
      "k" : 1,
      "bottom" : "",
      "debug_info" : "InceptionResnetV1\/Repeat_1\/block17_3\/mul\/x",
      "n" : 1,
      "weights" : {

      },
      "constant_blob" : 15
    },
    {
      "top" : "InceptionResnetV1\/Repeat_1\/block17_4\/mul\/x",
      "w" : 1,
      "h" : 1,
      "name" : "InceptionResnetV1\/Repeat_1\/block17_4\/mul\/x",
      "nd_rank" : 1,
      "type" : "load_constant",
      "k" : 1,
      "bottom" : "",
      "debug_info" : "InceptionResnetV1\/Repeat_1\/block17_4\/mul\/x",
      "n" : 1,
      "weights" : {

      },
      "constant_blob" : 17
    },
    {
      "top" : "InceptionResnetV1\/Repeat_1\/block17_5\/mul\/x",
      "w" : 1,
      "h" : 1,
      "name" : "InceptionResnetV1\/Repeat_1\/block17_5\/mul\/x",
      "nd_rank" : 1,
      "type" : "load_constant",
      "k" : 1,
      "bottom" : "",
      "debug_info" : "InceptionResnetV1\/Repeat_1\/block17_5\/mul\/x",
      "n" : 1,
      "weights" : {

      },
      "constant_blob" : 19
    },
    {
      "top" : "InceptionResnetV1\/Repeat_1\/block17_6\/mul\/x",
      "w" : 1,
      "h" : 1,
      "name" : "InceptionResnetV1\/Repeat_1\/block17_6\/mul\/x",
      "nd_rank" : 1,
      "type" : "load_constant",
      "k" : 1,
      "bottom" : "",
      "debug_info" : "InceptionResnetV1\/Repeat_1\/block17_6\/mul\/x",
      "n" : 1,
      "weights" : {

      },
      "constant_blob" : 21
    },
    {
      "top" : "InceptionResnetV1\/Repeat_1\/block17_7\/mul\/x",
      "w" : 1,
      "h" : 1,
      "name" : "InceptionResnetV1\/Repeat_1\/block17_7\/mul\/x",
      "nd_rank" : 1,
      "type" : "load_constant",
      "k" : 1,
      "bottom" : "",
      "debug_info" : "InceptionResnetV1\/Repeat_1\/block17_7\/mul\/x",
      "n" : 1,
      "weights" : {

      },
      "constant_blob" : 23
    },
    {
      "top" : "InceptionResnetV1\/Repeat_1\/block17_8\/mul\/x",
      "w" : 1,
      "h" : 1,
      "name" : "InceptionResnetV1\/Repeat_1\/block17_8\/mul\/x",
      "nd_rank" : 1,
      "type" : "load_constant",
      "k" : 1,
      "bottom" : "",
      "debug_info" : "InceptionResnetV1\/Repeat_1\/block17_8\/mul\/x",
      "n" : 1,
      "weights" : {

      },
      "constant_blob" : 25
    },
    {
      "top" : "InceptionResnetV1\/Repeat_1\/block17_9\/mul\/x",
      "w" : 1,
      "h" : 1,
      "name" : "InceptionResnetV1\/Repeat_1\/block17_9\/mul\/x",
      "nd_rank" : 1,
      "type" : "load_constant",
      "k" : 1,
      "bottom" : "",
      "debug_info" : "InceptionResnetV1\/Repeat_1\/block17_9\/mul\/x",
      "n" : 1,
      "weights" : {

      },
      "constant_blob" : 27
    },
    {
      "top" : "InceptionResnetV1\/Repeat_1\/block17_10\/mul\/x",
      "w" : 1,
      "h" : 1,
      "name" : "InceptionResnetV1\/Repeat_1\/block17_10\/mul\/x",
      "nd_rank" : 1,
      "type" : "load_constant",
      "k" : 1,
      "bottom" : "",
      "debug_info" : "InceptionResnetV1\/Repeat_1\/block17_10\/mul\/x",
      "n" : 1,
      "weights" : {

      },
      "constant_blob" : 29
    },
    {
      "top" : "InceptionResnetV1\/Repeat_2\/block8_1\/mul\/x",
      "w" : 1,
      "h" : 1,
      "name" : "InceptionResnetV1\/Repeat_2\/block8_1\/mul\/x",
      "nd_rank" : 1,
      "type" : "load_constant",
      "k" : 1,
      "bottom" : "",
      "debug_info" : "InceptionResnetV1\/Repeat_2\/block8_1\/mul\/x",
      "n" : 1,
      "weights" : {

      },
      "constant_blob" : 31
    },
    {
      "top" : "InceptionResnetV1\/Repeat_2\/block8_2\/mul\/x",
      "w" : 1,
      "h" : 1,
      "name" : "InceptionResnetV1\/Repeat_2\/block8_2\/mul\/x",
      "nd_rank" : 1,
      "type" : "load_constant",
      "k" : 1,
      "bottom" : "",
      "debug_info" : "InceptionResnetV1\/Repeat_2\/block8_2\/mul\/x",
      "n" : 1,
      "weights" : {

      },
      "constant_blob" : 33
    },
    {
      "top" : "InceptionResnetV1\/Repeat_2\/block8_3\/mul\/x",
      "w" : 1,
      "h" : 1,
      "name" : "InceptionResnetV1\/Repeat_2\/block8_3\/mul\/x",
      "nd_rank" : 1,
      "type" : "load_constant",
      "k" : 1,
      "bottom" : "",
      "debug_info" : "InceptionResnetV1\/Repeat_2\/block8_3\/mul\/x",
      "n" : 1,
      "weights" : {

      },
      "constant_blob" : 35
    },
    {
      "top" : "InceptionResnetV1\/Repeat_2\/block8_4\/mul\/x",
      "w" : 1,
      "h" : 1,
      "name" : "InceptionResnetV1\/Repeat_2\/block8_4\/mul\/x",
      "nd_rank" : 1,
      "type" : "load_constant",
      "k" : 1,
      "bottom" : "",
      "debug_info" : "InceptionResnetV1\/Repeat_2\/block8_4\/mul\/x",
      "n" : 1,
      "weights" : {

      },
      "constant_blob" : 37
    },
    {
      "top" : "InceptionResnetV1\/Repeat_2\/block8_5\/mul\/x",
      "w" : 1,
      "h" : 1,
      "name" : "InceptionResnetV1\/Repeat_2\/block8_5\/mul\/x",
      "nd_rank" : 1,
      "type" : "load_constant",
      "k" : 1,
      "bottom" : "",
      "debug_info" : "InceptionResnetV1\/Repeat_2\/block8_5\/mul\/x",
      "n" : 1,
      "weights" : {

      },
      "constant_blob" : 39
    },
    {
      "top" : "InceptionResnetV1\/Block8\/mul\/x",
      "w" : 1,
      "h" : 1,
      "name" : "InceptionResnetV1\/Block8\/mul\/x",
      "nd_rank" : 1,
      "type" : "load_constant",
      "k" : 1,
      "bottom" : "",
      "debug_info" : "InceptionResnetV1\/Block8\/mul\/x",
      "n" : 1,
      "weights" : {

      },
      "constant_blob" : 41
    },
    {
      "top" : "InceptionResnetV1\/Bottleneck\/BatchNorm\/beta\/read",
      "w" : 512,
      "h" : 1,
      "name" : "InceptionResnetV1\/Bottleneck\/BatchNorm\/beta\/read",
      "nd_rank" : 1,
      "type" : "load_constant",
      "k" : 1,
      "bottom" : "",
      "debug_info" : "InceptionResnetV1\/Bottleneck\/BatchNorm\/beta\/read",
      "n" : 1,
      "weights" : {

      },
      "constant_blob" : 43
    },
    {
      "top" : "InceptionResnetV1\/Bottleneck\/BatchNorm\/moving_mean\/read",
      "w" : 512,
      "h" : 1,
      "name" : "InceptionResnetV1\/Bottleneck\/BatchNorm\/moving_mean\/read",
      "nd_rank" : 1,
      "type" : "load_constant",
      "k" : 1,
      "bottom" : "",
      "debug_info" : "InceptionResnetV1\/Bottleneck\/BatchNorm\/moving_mean\/read",
      "n" : 1,
      "weights" : {

      },
      "constant_blob" : 45
    },
    {
      "top" : "InceptionResnetV1\/Bottleneck\/BatchNorm\/FusedBatchNorm\/Mul",
      "w" : 512,
      "h" : 1,
      "name" : "InceptionResnetV1\/Bottleneck\/BatchNorm\/FusedBatchNorm\/Mul",
      "nd_rank" : 1,
      "type" : "load_constant",
      "k" : 1,
      "bottom" : "",
      "debug_info" : "InceptionResnetV1\/Bottleneck\/BatchNorm\/FusedBatchNorm\/Mul",
      "n" : 1,
      "weights" : {

      },
      "constant_blob" : 47
    },
    {
      "axis_h" : 2,
      "axis_w" : 1,
      "bottom" : "input",
      "axis_k" : 0,
      "axis_n" : 3,
      "axis_seq" : 4,
      "weights" : {

      },
      "debug_info" : "input_to_nchw",
      "top" : "input_to_nchw",
      "type" : "transpose",
      "name" : "input_to_nchw"
    },
    {
      "pad_r" : 0,
      "fused_relu" : 1,
      "fused_tanh" : 0,
      "debug_info" : "InceptionResnetV1\/Conv2d_1a_3x3\/Conv2D",
      "pad_fill_mode" : 0,
      "pad_b" : 0,
      "pad_l" : 0,
      "top" : "InceptionResnetV1\/Conv2d_1a_3x3\/Relu",
      "K" : 3,
      "blob_biases" : 49,
      "stride_x" : 2,
      "name" : "InceptionResnetV1\/Conv2d_1a_3x3\/Conv2D",
      "has_batch_norm" : 0,
      "type" : "convolution",
      "n_groups" : 1,
      "pad_t" : 0,
      "stride_y" : 2,
      "has_biases" : 1,
      "C" : 32,
      "bottom" : "input_to_nchw",
      "weights" : {
        "per_ch_qbias" : 53,
        "per_ch_qscale" : 55,
        "W_U6" : 51
      },
      "Nx" : 3,
      "pad_mode" : 0,
      "pad_value" : 0,
      "Ny" : 3,
      "n_parallel" : 1
    },
    {
      "pad_r" : 0,
      "fused_relu" : 1,
      "fused_tanh" : 0,
      "debug_info" : "InceptionResnetV1\/Conv2d_2a_3x3\/Conv2D",
      "pad_fill_mode" : 0,
      "pad_b" : 0,
      "pad_l" : 0,
      "top" : "InceptionResnetV1\/Conv2d_2a_3x3\/Relu",
      "K" : 32,
      "blob_biases" : 57,
      "name" : "InceptionResnetV1\/Conv2d_2a_3x3\/Conv2D",
      "has_batch_norm" : 0,
      "type" : "convolution",
      "n_groups" : 1,
      "pad_t" : 0,
      "has_biases" : 1,
      "C" : 32,
      "bottom" : "InceptionResnetV1\/Conv2d_1a_3x3\/Relu",
      "weights" : {
        "per_ch_qbias" : 61,
        "per_ch_qscale" : 63,
        "W_U6" : 59
      },
      "Nx" : 3,
      "pad_mode" : 0,
      "pad_value" : 0,
      "Ny" : 3,
      "n_parallel" : 1
    },
    {
      "pad_r" : 0,
      "fused_relu" : 1,
      "fused_tanh" : 0,
      "debug_info" : "InceptionResnetV1\/Conv2d_2b_3x3\/Conv2D",
      "pad_fill_mode" : 0,
      "pad_b" : 0,
      "pad_l" : 0,
      "top" : "InceptionResnetV1\/Conv2d_2b_3x3\/Relu",
      "K" : 32,
      "blob_biases" : 65,
      "name" : "InceptionResnetV1\/Conv2d_2b_3x3\/Conv2D",
      "has_batch_norm" : 0,
      "type" : "convolution",
      "n_groups" : 1,
      "pad_t" : 0,
      "has_biases" : 1,
      "C" : 64,
      "bottom" : "InceptionResnetV1\/Conv2d_2a_3x3\/Relu",
      "weights" : {
        "per_ch_qbias" : 69,
        "per_ch_qscale" : 71,
        "W_U6" : 67
      },
      "Nx" : 3,
      "pad_mode" : 1,
      "pad_value" : 0,
      "Ny" : 3,
      "n_parallel" : 1
    },
    {
      "pad_r" : 0,
      "debug_info" : "InceptionResnetV1\/MaxPool_3a_3x3\/MaxPool",
      "pad_fill_mode" : 0,
      "pad_b" : 0,
      "pad_l" : 0,
      "size_x" : 3,
      "top" : "InceptionResnetV1\/MaxPool_3a_3x3\/MaxPool",
      "top_shape_style" : 0,
      "stride_x" : 2,
      "avg_or_max" : 1,
      "average_count_exclude_padding" : 1,
      "type" : "pool",
      "name" : "InceptionResnetV1\/MaxPool_3a_3x3\/MaxPool",
      "pad_t" : 0,
      "stride_y" : 2,
      "bottom" : "InceptionResnetV1\/Conv2d_2b_3x3\/Relu",
      "weights" : {

      },
      "pad_mode" : 2,
      "size_y" : 3,
      "pad_value" : 0
    },
    {
      "pad_r" : 0,
      "fused_relu" : 1,
      "fused_tanh" : 0,
      "debug_info" : "InceptionResnetV1\/Conv2d_3b_1x1\/Conv2D",
      "pad_fill_mode" : 0,
      "pad_b" : 0,
      "pad_l" : 0,
      "top" : "InceptionResnetV1\/Conv2d_3b_1x1\/Relu",
      "K" : 64,
      "blob_biases" : 73,
      "name" : "InceptionResnetV1\/Conv2d_3b_1x1\/Conv2D",
      "has_batch_norm" : 0,
      "type" : "convolution",
      "n_groups" : 1,
      "pad_t" : 0,
      "has_biases" : 1,
      "C" : 80,
      "bottom" : "InceptionResnetV1\/MaxPool_3a_3x3\/MaxPool",
      "weights" : {
        "per_ch_qbias" : 77,
        "per_ch_qscale" : 79,
        "W_U6" : 75
      },
      "Nx" : 1,
      "pad_mode" : 0,
      "pad_value" : 0,
      "Ny" : 1,
      "n_parallel" : 1
    },
    {
      "pad_r" : 0,
      "fused_relu" : 1,
      "fused_tanh" : 0,
      "debug_info" : "InceptionResnetV1\/Conv2d_4a_3x3\/Conv2D",
      "pad_fill_mode" : 0,
      "pad_b" : 0,
      "pad_l" : 0,
      "top" : "InceptionResnetV1\/Conv2d_4a_3x3\/Relu",
      "K" : 80,
      "blob_biases" : 81,
      "name" : "InceptionResnetV1\/Conv2d_4a_3x3\/Conv2D",
      "has_batch_norm" : 0,
      "type" : "convolution",
      "n_groups" : 1,
      "pad_t" : 0,
      "has_biases" : 1,
      "C" : 192,
      "bottom" : "InceptionResnetV1\/Conv2d_3b_1x1\/Relu",
      "weights" : {
        "per_ch_qbias" : 85,
        "per_ch_qscale" : 87,
        "W_U6" : 83
      },
      "Nx" : 3,
      "pad_mode" : 0,
      "pad_value" : 0,
      "Ny" : 3,
      "n_parallel" : 1
    },
    {
      "pad_r" : 0,
      "fused_relu" : 1,
      "fused_tanh" : 0,
      "debug_info" : "InceptionResnetV1\/Conv2d_4b_3x3\/Conv2D",
      "pad_fill_mode" : 0,
      "pad_b" : 0,
      "pad_l" : 0,
      "top" : "InceptionResnetV1\/Conv2d_4b_3x3\/Relu",
      "K" : 192,
      "blob_biases" : 89,
      "stride_x" : 2,
      "name" : "InceptionResnetV1\/Conv2d_4b_3x3\/Conv2D",
      "has_batch_norm" : 0,
      "type" : "convolution",
      "n_groups" : 1,
      "pad_t" : 0,
      "stride_y" : 2,
      "has_biases" : 1,
      "C" : 256,
      "bottom" : "InceptionResnetV1\/Conv2d_4a_3x3\/Relu",
      "weights" : {
        "per_ch_qbias" : 93,
        "per_ch_qscale" : 95,
        "W_U6" : 91
      },
      "Nx" : 3,
      "pad_mode" : 0,
      "pad_value" : 0,
      "Ny" : 3,
      "n_parallel" : 1
    },
    {
      "pad_r" : 0,
      "fused_relu" : 1,
      "fused_tanh" : 0,
      "debug_info" : "InceptionResnetV1\/Repeat\/block35_1\/Branch_0\/Conv2d_1x1\/Conv2D",
      "pad_fill_mode" : 0,
      "pad_b" : 0,
      "pad_l" : 0,
      "top" : "InceptionResnetV1\/Repeat\/block35_1\/Branch_0\/Conv2d_1x1\/Relu",
      "K" : 256,
      "blob_biases" : 97,
      "name" : "InceptionResnetV1\/Repeat\/block35_1\/Branch_0\/Conv2d_1x1\/Conv2D",
      "has_batch_norm" : 0,
      "type" : "convolution",
      "n_groups" : 1,
      "pad_t" : 0,
      "has_biases" : 1,
      "C" : 32,
      "bottom" : "InceptionResnetV1\/Conv2d_4b_3x3\/Relu",
      "weights" : {
        "per_ch_qbias" : 101,
        "per_ch_qscale" : 103,
        "W_U6" : 99
      },
      "Nx" : 1,
      "pad_mode" : 1,
      "pad_value" : 0,
      "Ny" : 1,
      "n_parallel" : 1
    },
    {
      "pad_r" : 0,
      "fused_relu" : 1,
      "fused_tanh" : 0,
      "debug_info" : "InceptionResnetV1\/Repeat\/block35_1\/Branch_1\/Conv2d_0a_1x1\/Conv2D",
      "pad_fill_mode" : 0,
      "pad_b" : 0,
      "pad_l" : 0,
      "top" : "InceptionResnetV1\/Repeat\/block35_1\/Branch_1\/Conv2d_0a_1x1\/Relu",
      "K" : 256,
      "blob_biases" : 105,
      "name" : "InceptionResnetV1\/Repeat\/block35_1\/Branch_1\/Conv2d_0a_1x1\/Conv2D",
      "has_batch_norm" : 0,
      "type" : "convolution",
      "n_groups" : 1,
      "pad_t" : 0,
      "has_biases" : 1,
      "C" : 32,
      "bottom" : "InceptionResnetV1\/Conv2d_4b_3x3\/Relu",
      "weights" : {
        "per_ch_qbias" : 109,
        "per_ch_qscale" : 111,
        "W_U6" : 107
      },
      "Nx" : 1,
      "pad_mode" : 1,
      "pad_value" : 0,
      "Ny" : 1,
      "n_parallel" : 1
    },
    {
      "pad_r" : 0,
      "fused_relu" : 1,
      "fused_tanh" : 0,
      "debug_info" : "InceptionResnetV1\/Repeat\/block35_1\/Branch_2\/Conv2d_0a_1x1\/Conv2D",
      "pad_fill_mode" : 0,
      "pad_b" : 0,
      "pad_l" : 0,
      "top" : "InceptionResnetV1\/Repeat\/block35_1\/Branch_2\/Conv2d_0a_1x1\/Relu",
      "K" : 256,
      "blob_biases" : 113,
      "name" : "InceptionResnetV1\/Repeat\/block35_1\/Branch_2\/Conv2d_0a_1x1\/Conv2D",
      "has_batch_norm" : 0,
      "type" : "convolution",
      "n_groups" : 1,
      "pad_t" : 0,
      "has_biases" : 1,
      "C" : 32,
      "bottom" : "InceptionResnetV1\/Conv2d_4b_3x3\/Relu",
      "weights" : {
        "per_ch_qbias" : 117,
        "per_ch_qscale" : 119,
        "W_U6" : 115
      },
      "Nx" : 1,
      "pad_mode" : 1,
      "pad_value" : 0,
      "Ny" : 1,
      "n_parallel" : 1
    },
    {
      "pad_r" : 0,
      "fused_relu" : 1,
      "fused_tanh" : 0,
      "debug_info" : "InceptionResnetV1\/Repeat\/block35_1\/Branch_1\/Conv2d_0b_3x3\/Conv2D",
      "pad_fill_mode" : 0,
      "pad_b" : 0,
      "pad_l" : 0,
      "top" : "InceptionResnetV1\/Repeat\/block35_1\/Branch_1\/Conv2d_0b_3x3\/Relu",
      "K" : 32,
      "blob_biases" : 121,
      "name" : "InceptionResnetV1\/Repeat\/block35_1\/Branch_1\/Conv2d_0b_3x3\/Conv2D",
      "has_batch_norm" : 0,
      "type" : "convolution",
      "n_groups" : 1,
      "pad_t" : 0,
      "has_biases" : 1,
      "C" : 32,
      "bottom" : "InceptionResnetV1\/Repeat\/block35_1\/Branch_1\/Conv2d_0a_1x1\/Relu",
      "weights" : {
        "per_ch_qbias" : 125,
        "per_ch_qscale" : 127,
        "W_U6" : 123
      },
      "Nx" : 3,
      "pad_mode" : 1,
      "pad_value" : 0,
      "Ny" : 3,
      "n_parallel" : 1
    },
    {
      "pad_r" : 0,
      "fused_relu" : 1,
      "fused_tanh" : 0,
      "debug_info" : "InceptionResnetV1\/Repeat\/block35_1\/Branch_2\/Conv2d_0b_3x3\/Conv2D",
      "pad_fill_mode" : 0,
      "pad_b" : 0,
      "pad_l" : 0,
      "top" : "InceptionResnetV1\/Repeat\/block35_1\/Branch_2\/Conv2d_0b_3x3\/Relu",
      "K" : 32,
      "blob_biases" : 129,
      "name" : "InceptionResnetV1\/Repeat\/block35_1\/Branch_2\/Conv2d_0b_3x3\/Conv2D",
      "has_batch_norm" : 0,
      "type" : "convolution",
      "n_groups" : 1,
      "pad_t" : 0,
      "has_biases" : 1,
      "C" : 32,
      "bottom" : "InceptionResnetV1\/Repeat\/block35_1\/Branch_2\/Conv2d_0a_1x1\/Relu",
      "weights" : {
        "per_ch_qbias" : 133,
        "per_ch_qscale" : 135,
        "W_U6" : 131
      },
      "Nx" : 3,
      "pad_mode" : 1,
      "pad_value" : 0,
      "Ny" : 3,
      "n_parallel" : 1
    },
    {
      "pad_r" : 0,
      "fused_relu" : 1,
      "fused_tanh" : 0,
      "debug_info" : "InceptionResnetV1\/Repeat\/block35_1\/Branch_2\/Conv2d_0c_3x3\/Conv2D",
      "pad_fill_mode" : 0,
      "pad_b" : 0,
      "pad_l" : 0,
      "top" : "InceptionResnetV1\/Repeat\/block35_1\/Branch_2\/Conv2d_0c_3x3\/Relu",
      "K" : 32,
      "blob_biases" : 137,
      "name" : "InceptionResnetV1\/Repeat\/block35_1\/Branch_2\/Conv2d_0c_3x3\/Conv2D",
      "has_batch_norm" : 0,
      "type" : "convolution",
      "n_groups" : 1,
      "pad_t" : 0,
      "has_biases" : 1,
      "C" : 32,
      "bottom" : "InceptionResnetV1\/Repeat\/block35_1\/Branch_2\/Conv2d_0b_3x3\/Relu",
      "weights" : {
        "per_ch_qbias" : 141,
        "per_ch_qscale" : 143,
        "W_U6" : 139
      },
      "Nx" : 3,
      "pad_mode" : 1,
      "pad_value" : 0,
      "Ny" : 3,
      "n_parallel" : 1
    },
    {
      "weights" : {

      },
      "debug_info" : "InceptionResnetV1\/Repeat\/block35_1\/concat",
      "top" : "InceptionResnetV1\/Repeat\/block35_1\/concat",
      "type" : "concat",
      "name" : "InceptionResnetV1\/Repeat\/block35_1\/concat",
      "bottom" : "InceptionResnetV1\/Repeat\/block35_1\/Branch_0\/Conv2d_1x1\/Relu,InceptionResnetV1\/Repeat\/block35_1\/Branch_1\/Conv2d_0b_3x3\/Relu,InceptionResnetV1\/Repeat\/block35_1\/Branch_2\/Conv2d_0c_3x3\/Relu"
    },
    {
      "pad_r" : 0,
      "fused_relu" : 0,
      "fused_tanh" : 0,
      "debug_info" : "InceptionResnetV1\/Repeat\/block35_1\/Conv2d_1x1\/Conv2D",
      "pad_fill_mode" : 0,
      "pad_b" : 0,
      "pad_l" : 0,
      "top" : "InceptionResnetV1\/Repeat\/block35_1\/Conv2d_1x1\/Conv2D",
      "K" : 96,
      "blob_biases" : 145,
      "name" : "InceptionResnetV1\/Repeat\/block35_1\/Conv2d_1x1\/Conv2D",
      "has_batch_norm" : 0,
      "type" : "convolution",
      "n_groups" : 1,
      "pad_t" : 0,
      "has_biases" : 1,
      "C" : 256,
      "bottom" : "InceptionResnetV1\/Repeat\/block35_1\/concat",
      "weights" : {
        "per_ch_qbias" : 149,
        "per_ch_qscale" : 151,
        "W_U6" : 147
      },
      "Nx" : 1,
      "pad_mode" : 1,
      "pad_value" : 0,
      "Ny" : 1,
      "n_parallel" : 1
    },
    {
      "bottom" : "InceptionResnetV1\/Repeat\/block35_1\/mul\/x,InceptionResnetV1\/Repeat\/block35_1\/Conv2d_1x1\/Conv2D",
      "alpha" : 1,
      "operation" : 1,
      "weights" : {

      },
      "fused_relu" : 0,
      "debug_info" : "InceptionResnetV1\/Repeat\/block35_1\/mul",
      "nd_mode" : true,
      "top" : "InceptionResnetV1\/Repeat\/block35_1\/mul",
      "type" : "elementwise",
      "name" : "InceptionResnetV1\/Repeat\/block35_1\/mul",
      "beta" : 0
    },
    {
      "bottom" : "InceptionResnetV1\/Conv2d_4b_3x3\/Relu,InceptionResnetV1\/Repeat\/block35_1\/mul",
      "alpha" : 1,
      "operation" : 0,
      "weights" : {

      },
      "fused_relu" : 0,
      "debug_info" : "InceptionResnetV1\/Repeat\/block35_1\/add",
      "nd_mode" : true,
      "top" : "InceptionResnetV1\/Repeat\/block35_1\/add",
      "type" : "elementwise",
      "name" : "InceptionResnetV1\/Repeat\/block35_1\/add",
      "beta" : 0
    },
    {
      "bottom" : "InceptionResnetV1\/Repeat\/block35_1\/add",
      "weights" : {

      },
      "mode" : 0,
      "debug_info" : "InceptionResnetV1\/Repeat\/block35_1\/Relu",
      "top" : "InceptionResnetV1\/Repeat\/block35_1\/Relu",
      "type" : "activation",
      "name" : "InceptionResnetV1\/Repeat\/block35_1\/Relu"
    },
    {
      "pad_r" : 0,
      "fused_relu" : 1,
      "fused_tanh" : 0,
      "debug_info" : "InceptionResnetV1\/Repeat\/block35_2\/Branch_0\/Conv2d_1x1\/Conv2D",
      "pad_fill_mode" : 0,
      "pad_b" : 0,
      "pad_l" : 0,
      "top" : "InceptionResnetV1\/Repeat\/block35_2\/Branch_0\/Conv2d_1x1\/Relu",
      "K" : 256,
      "blob_biases" : 153,
      "name" : "InceptionResnetV1\/Repeat\/block35_2\/Branch_0\/Conv2d_1x1\/Conv2D",
      "has_batch_norm" : 0,
      "type" : "convolution",
      "n_groups" : 1,
      "pad_t" : 0,
      "has_biases" : 1,
      "C" : 32,
      "bottom" : "InceptionResnetV1\/Repeat\/block35_1\/Relu",
      "weights" : {
        "per_ch_qbias" : 157,
        "per_ch_qscale" : 159,
        "W_U6" : 155
      },
      "Nx" : 1,
      "pad_mode" : 1,
      "pad_value" : 0,
      "Ny" : 1,
      "n_parallel" : 1
    },
    {
      "pad_r" : 0,
      "fused_relu" : 1,
      "fused_tanh" : 0,
      "debug_info" : "InceptionResnetV1\/Repeat\/block35_2\/Branch_1\/Conv2d_0a_1x1\/Conv2D",
      "pad_fill_mode" : 0,
      "pad_b" : 0,
      "pad_l" : 0,
      "top" : "InceptionResnetV1\/Repeat\/block35_2\/Branch_1\/Conv2d_0a_1x1\/Relu",
      "K" : 256,
      "blob_biases" : 161,
      "name" : "InceptionResnetV1\/Repeat\/block35_2\/Branch_1\/Conv2d_0a_1x1\/Conv2D",
      "has_batch_norm" : 0,
      "type" : "convolution",
      "n_groups" : 1,
      "pad_t" : 0,
      "has_biases" : 1,
      "C" : 32,
      "bottom" : "InceptionResnetV1\/Repeat\/block35_1\/Relu",
      "weights" : {
        "per_ch_qbias" : 165,
        "per_ch_qscale" : 167,
        "W_U6" : 163
      },
      "Nx" : 1,
      "pad_mode" : 1,
      "pad_value" : 0,
      "Ny" : 1,
      "n_parallel" : 1
    },
    {
      "pad_r" : 0,
      "fused_relu" : 1,
      "fused_tanh" : 0,
      "debug_info" : "InceptionResnetV1\/Repeat\/block35_2\/Branch_2\/Conv2d_0a_1x1\/Conv2D",
      "pad_fill_mode" : 0,
      "pad_b" : 0,
      "pad_l" : 0,
      "top" : "InceptionResnetV1\/Repeat\/block35_2\/Branch_2\/Conv2d_0a_1x1\/Relu",
      "K" : 256,
      "blob_biases" : 169,
      "name" : "InceptionResnetV1\/Repeat\/block35_2\/Branch_2\/Conv2d_0a_1x1\/Conv2D",
      "has_batch_norm" : 0,
      "type" : "convolution",
      "n_groups" : 1,
      "pad_t" : 0,
      "has_biases" : 1,
      "C" : 32,
      "bottom" : "InceptionResnetV1\/Repeat\/block35_1\/Relu",
      "weights" : {
        "per_ch_qbias" : 173,
        "per_ch_qscale" : 175,
        "W_U6" : 171
      },
      "Nx" : 1,
      "pad_mode" : 1,
      "pad_value" : 0,
      "Ny" : 1,
      "n_parallel" : 1
    },
    {
      "pad_r" : 0,
      "fused_relu" : 1,
      "fused_tanh" : 0,
      "debug_info" : "InceptionResnetV1\/Repeat\/block35_2\/Branch_1\/Conv2d_0b_3x3\/Conv2D",
      "pad_fill_mode" : 0,
      "pad_b" : 0,
      "pad_l" : 0,
      "top" : "InceptionResnetV1\/Repeat\/block35_2\/Branch_1\/Conv2d_0b_3x3\/Relu",
      "K" : 32,
      "blob_biases" : 177,
      "name" : "InceptionResnetV1\/Repeat\/block35_2\/Branch_1\/Conv2d_0b_3x3\/Conv2D",
      "has_batch_norm" : 0,
      "type" : "convolution",
      "n_groups" : 1,
      "pad_t" : 0,
      "has_biases" : 1,
      "C" : 32,
      "bottom" : "InceptionResnetV1\/Repeat\/block35_2\/Branch_1\/Conv2d_0a_1x1\/Relu",
      "weights" : {
        "per_ch_qbias" : 181,
        "per_ch_qscale" : 183,
        "W_U6" : 179
      },
      "Nx" : 3,
      "pad_mode" : 1,
      "pad_value" : 0,
      "Ny" : 3,
      "n_parallel" : 1
    },
    {
      "pad_r" : 0,
      "fused_relu" : 1,
      "fused_tanh" : 0,
      "debug_info" : "InceptionResnetV1\/Repeat\/block35_2\/Branch_2\/Conv2d_0b_3x3\/Conv2D",
      "pad_fill_mode" : 0,
      "pad_b" : 0,
      "pad_l" : 0,
      "top" : "InceptionResnetV1\/Repeat\/block35_2\/Branch_2\/Conv2d_0b_3x3\/Relu",
      "K" : 32,
      "blob_biases" : 185,
      "name" : "InceptionResnetV1\/Repeat\/block35_2\/Branch_2\/Conv2d_0b_3x3\/Conv2D",
      "has_batch_norm" : 0,
      "type" : "convolution",
      "n_groups" : 1,
      "pad_t" : 0,
      "has_biases" : 1,
      "C" : 32,
      "bottom" : "InceptionResnetV1\/Repeat\/block35_2\/Branch_2\/Conv2d_0a_1x1\/Relu",
      "weights" : {
        "per_ch_qbias" : 189,
        "per_ch_qscale" : 191,
        "W_U6" : 187
      },
      "Nx" : 3,
      "pad_mode" : 1,
      "pad_value" : 0,
      "Ny" : 3,
      "n_parallel" : 1
    },
    {
      "pad_r" : 0,
      "fused_relu" : 1,
      "fused_tanh" : 0,
      "debug_info" : "InceptionResnetV1\/Repeat\/block35_2\/Branch_2\/Conv2d_0c_3x3\/Conv2D",
      "pad_fill_mode" : 0,
      "pad_b" : 0,
      "pad_l" : 0,
      "top" : "InceptionResnetV1\/Repeat\/block35_2\/Branch_2\/Conv2d_0c_3x3\/Relu",
      "K" : 32,
      "blob_biases" : 193,
      "name" : "InceptionResnetV1\/Repeat\/block35_2\/Branch_2\/Conv2d_0c_3x3\/Conv2D",
      "has_batch_norm" : 0,
      "type" : "convolution",
      "n_groups" : 1,
      "pad_t" : 0,
      "has_biases" : 1,
      "C" : 32,
      "bottom" : "InceptionResnetV1\/Repeat\/block35_2\/Branch_2\/Conv2d_0b_3x3\/Relu",
      "weights" : {
        "per_ch_qbias" : 197,
        "per_ch_qscale" : 199,
        "W_U6" : 195
      },
      "Nx" : 3,
      "pad_mode" : 1,
      "pad_value" : 0,
      "Ny" : 3,
      "n_parallel" : 1
    },
    {
      "weights" : {

      },
      "debug_info" : "InceptionResnetV1\/Repeat\/block35_2\/concat",
      "top" : "InceptionResnetV1\/Repeat\/block35_2\/concat",
      "type" : "concat",
      "name" : "InceptionResnetV1\/Repeat\/block35_2\/concat",
      "bottom" : "InceptionResnetV1\/Repeat\/block35_2\/Branch_0\/Conv2d_1x1\/Relu,InceptionResnetV1\/Repeat\/block35_2\/Branch_1\/Conv2d_0b_3x3\/Relu,InceptionResnetV1\/Repeat\/block35_2\/Branch_2\/Conv2d_0c_3x3\/Relu"
    },
    {
      "pad_r" : 0,
      "fused_relu" : 0,
      "fused_tanh" : 0,
      "debug_info" : "InceptionResnetV1\/Repeat\/block35_2\/Conv2d_1x1\/Conv2D",
      "pad_fill_mode" : 0,
      "pad_b" : 0,
      "pad_l" : 0,
      "top" : "InceptionResnetV1\/Repeat\/block35_2\/Conv2d_1x1\/Conv2D",
      "K" : 96,
      "blob_biases" : 201,
      "name" : "InceptionResnetV1\/Repeat\/block35_2\/Conv2d_1x1\/Conv2D",
      "has_batch_norm" : 0,
      "type" : "convolution",
      "n_groups" : 1,
      "pad_t" : 0,
      "has_biases" : 1,
      "C" : 256,
      "bottom" : "InceptionResnetV1\/Repeat\/block35_2\/concat",
      "weights" : {
        "per_ch_qbias" : 205,
        "per_ch_qscale" : 207,
        "W_U6" : 203
      },
      "Nx" : 1,
      "pad_mode" : 1,
      "pad_value" : 0,
      "Ny" : 1,
      "n_parallel" : 1
    },
    {
      "bottom" : "InceptionResnetV1\/Repeat\/block35_2\/mul\/x,InceptionResnetV1\/Repeat\/block35_2\/Conv2d_1x1\/Conv2D",
      "alpha" : 1,
      "operation" : 1,
      "weights" : {

      },
      "fused_relu" : 0,
      "debug_info" : "InceptionResnetV1\/Repeat\/block35_2\/mul",
      "nd_mode" : true,
      "top" : "InceptionResnetV1\/Repeat\/block35_2\/mul",
      "type" : "elementwise",
      "name" : "InceptionResnetV1\/Repeat\/block35_2\/mul",
      "beta" : 0
    },
    {
      "bottom" : "InceptionResnetV1\/Repeat\/block35_1\/Relu,InceptionResnetV1\/Repeat\/block35_2\/mul",
      "alpha" : 1,
      "operation" : 0,
      "weights" : {

      },
      "fused_relu" : 0,
      "debug_info" : "InceptionResnetV1\/Repeat\/block35_2\/add",
      "nd_mode" : true,
      "top" : "InceptionResnetV1\/Repeat\/block35_2\/add",
      "type" : "elementwise",
      "name" : "InceptionResnetV1\/Repeat\/block35_2\/add",
      "beta" : 0
    },
    {
      "bottom" : "InceptionResnetV1\/Repeat\/block35_2\/add",
      "weights" : {

      },
      "mode" : 0,
      "debug_info" : "InceptionResnetV1\/Repeat\/block35_2\/Relu",
      "top" : "InceptionResnetV1\/Repeat\/block35_2\/Relu",
      "type" : "activation",
      "name" : "InceptionResnetV1\/Repeat\/block35_2\/Relu"
    },
    {
      "pad_r" : 0,
      "fused_relu" : 1,
      "fused_tanh" : 0,
      "debug_info" : "InceptionResnetV1\/Repeat\/block35_3\/Branch_0\/Conv2d_1x1\/Conv2D",
      "pad_fill_mode" : 0,
      "pad_b" : 0,
      "pad_l" : 0,
      "top" : "InceptionResnetV1\/Repeat\/block35_3\/Branch_0\/Conv2d_1x1\/Relu",
      "K" : 256,
      "blob_biases" : 209,
      "name" : "InceptionResnetV1\/Repeat\/block35_3\/Branch_0\/Conv2d_1x1\/Conv2D",
      "has_batch_norm" : 0,
      "type" : "convolution",
      "n_groups" : 1,
      "pad_t" : 0,
      "has_biases" : 1,
      "C" : 32,
      "bottom" : "InceptionResnetV1\/Repeat\/block35_2\/Relu",
      "weights" : {
        "per_ch_qbias" : 213,
        "per_ch_qscale" : 215,
        "W_U6" : 211
      },
      "Nx" : 1,
      "pad_mode" : 1,
      "pad_value" : 0,
      "Ny" : 1,
      "n_parallel" : 1
    },
    {
      "pad_r" : 0,
      "fused_relu" : 1,
      "fused_tanh" : 0,
      "debug_info" : "InceptionResnetV1\/Repeat\/block35_3\/Branch_1\/Conv2d_0a_1x1\/Conv2D",
      "pad_fill_mode" : 0,
      "pad_b" : 0,
      "pad_l" : 0,
      "top" : "InceptionResnetV1\/Repeat\/block35_3\/Branch_1\/Conv2d_0a_1x1\/Relu",
      "K" : 256,
      "blob_biases" : 217,
      "name" : "InceptionResnetV1\/Repeat\/block35_3\/Branch_1\/Conv2d_0a_1x1\/Conv2D",
      "has_batch_norm" : 0,
      "type" : "convolution",
      "n_groups" : 1,
      "pad_t" : 0,
      "has_biases" : 1,
      "C" : 32,
      "bottom" : "InceptionResnetV1\/Repeat\/block35_2\/Relu",
      "weights" : {
        "per_ch_qbias" : 221,
        "per_ch_qscale" : 223,
        "W_U6" : 219
      },
      "Nx" : 1,
      "pad_mode" : 1,
      "pad_value" : 0,
      "Ny" : 1,
      "n_parallel" : 1
    },
    {
      "pad_r" : 0,
      "fused_relu" : 1,
      "fused_tanh" : 0,
      "debug_info" : "InceptionResnetV1\/Repeat\/block35_3\/Branch_2\/Conv2d_0a_1x1\/Conv2D",
      "pad_fill_mode" : 0,
      "pad_b" : 0,
      "pad_l" : 0,
      "top" : "InceptionResnetV1\/Repeat\/block35_3\/Branch_2\/Conv2d_0a_1x1\/Relu",
      "K" : 256,
      "blob_biases" : 225,
      "name" : "InceptionResnetV1\/Repeat\/block35_3\/Branch_2\/Conv2d_0a_1x1\/Conv2D",
      "has_batch_norm" : 0,
      "type" : "convolution",
      "n_groups" : 1,
      "pad_t" : 0,
      "has_biases" : 1,
      "C" : 32,
      "bottom" : "InceptionResnetV1\/Repeat\/block35_2\/Relu",
      "weights" : {
        "per_ch_qbias" : 229,
        "per_ch_qscale" : 231,
        "W_U6" : 227
      },
      "Nx" : 1,
      "pad_mode" : 1,
      "pad_value" : 0,
      "Ny" : 1,
      "n_parallel" : 1
    },
    {
      "pad_r" : 0,
      "fused_relu" : 1,
      "fused_tanh" : 0,
      "debug_info" : "InceptionResnetV1\/Repeat\/block35_3\/Branch_1\/Conv2d_0b_3x3\/Conv2D",
      "pad_fill_mode" : 0,
      "pad_b" : 0,
      "pad_l" : 0,
      "top" : "InceptionResnetV1\/Repeat\/block35_3\/Branch_1\/Conv2d_0b_3x3\/Relu",
      "K" : 32,
      "blob_biases" : 233,
      "name" : "InceptionResnetV1\/Repeat\/block35_3\/Branch_1\/Conv2d_0b_3x3\/Conv2D",
      "has_batch_norm" : 0,
      "type" : "convolution",
      "n_groups" : 1,
      "pad_t" : 0,
      "has_biases" : 1,
      "C" : 32,
      "bottom" : "InceptionResnetV1\/Repeat\/block35_3\/Branch_1\/Conv2d_0a_1x1\/Relu",
      "weights" : {
        "per_ch_qbias" : 237,
        "per_ch_qscale" : 239,
        "W_U6" : 235
      },
      "Nx" : 3,
      "pad_mode" : 1,
      "pad_value" : 0,
      "Ny" : 3,
      "n_parallel" : 1
    },
    {
      "pad_r" : 0,
      "fused_relu" : 1,
      "fused_tanh" : 0,
      "debug_info" : "InceptionResnetV1\/Repeat\/block35_3\/Branch_2\/Conv2d_0b_3x3\/Conv2D",
      "pad_fill_mode" : 0,
      "pad_b" : 0,
      "pad_l" : 0,
      "top" : "InceptionResnetV1\/Repeat\/block35_3\/Branch_2\/Conv2d_0b_3x3\/Relu",
      "K" : 32,
      "blob_biases" : 241,
      "name" : "InceptionResnetV1\/Repeat\/block35_3\/Branch_2\/Conv2d_0b_3x3\/Conv2D",
      "has_batch_norm" : 0,
      "type" : "convolution",
      "n_groups" : 1,
      "pad_t" : 0,
      "has_biases" : 1,
      "C" : 32,
      "bottom" : "InceptionResnetV1\/Repeat\/block35_3\/Branch_2\/Conv2d_0a_1x1\/Relu",
      "weights" : {
        "per_ch_qbias" : 245,
        "per_ch_qscale" : 247,
        "W_U6" : 243
      },
      "Nx" : 3,
      "pad_mode" : 1,
      "pad_value" : 0,
      "Ny" : 3,
      "n_parallel" : 1
    },
    {
      "pad_r" : 0,
      "fused_relu" : 1,
      "fused_tanh" : 0,
      "debug_info" : "InceptionResnetV1\/Repeat\/block35_3\/Branch_2\/Conv2d_0c_3x3\/Conv2D",
      "pad_fill_mode" : 0,
      "pad_b" : 0,
      "pad_l" : 0,
      "top" : "InceptionResnetV1\/Repeat\/block35_3\/Branch_2\/Conv2d_0c_3x3\/Relu",
      "K" : 32,
      "blob_biases" : 249,
      "name" : "InceptionResnetV1\/Repeat\/block35_3\/Branch_2\/Conv2d_0c_3x3\/Conv2D",
      "has_batch_norm" : 0,
      "type" : "convolution",
      "n_groups" : 1,
      "pad_t" : 0,
      "has_biases" : 1,
      "C" : 32,
      "bottom" : "InceptionResnetV1\/Repeat\/block35_3\/Branch_2\/Conv2d_0b_3x3\/Relu",
      "weights" : {
        "per_ch_qbias" : 253,
        "per_ch_qscale" : 255,
        "W_U6" : 251
      },
      "Nx" : 3,
      "pad_mode" : 1,
      "pad_value" : 0,
      "Ny" : 3,
      "n_parallel" : 1
    },
    {
      "weights" : {

      },
      "debug_info" : "InceptionResnetV1\/Repeat\/block35_3\/concat",
      "top" : "InceptionResnetV1\/Repeat\/block35_3\/concat",
      "type" : "concat",
      "name" : "InceptionResnetV1\/Repeat\/block35_3\/concat",
      "bottom" : "InceptionResnetV1\/Repeat\/block35_3\/Branch_0\/Conv2d_1x1\/Relu,InceptionResnetV1\/Repeat\/block35_3\/Branch_1\/Conv2d_0b_3x3\/Relu,InceptionResnetV1\/Repeat\/block35_3\/Branch_2\/Conv2d_0c_3x3\/Relu"
    },
    {
      "pad_r" : 0,
      "fused_relu" : 0,
      "fused_tanh" : 0,
      "debug_info" : "InceptionResnetV1\/Repeat\/block35_3\/Conv2d_1x1\/Conv2D",
      "pad_fill_mode" : 0,
      "pad_b" : 0,
      "pad_l" : 0,
      "top" : "InceptionResnetV1\/Repeat\/block35_3\/Conv2d_1x1\/Conv2D",
      "K" : 96,
      "blob_biases" : 257,
      "name" : "InceptionResnetV1\/Repeat\/block35_3\/Conv2d_1x1\/Conv2D",
      "has_batch_norm" : 0,
      "type" : "convolution",
      "n_groups" : 1,
      "pad_t" : 0,
      "has_biases" : 1,
      "C" : 256,
      "bottom" : "InceptionResnetV1\/Repeat\/block35_3\/concat",
      "weights" : {
        "per_ch_qbias" : 261,
        "per_ch_qscale" : 263,
        "W_U6" : 259
      },
      "Nx" : 1,
      "pad_mode" : 1,
      "pad_value" : 0,
      "Ny" : 1,
      "n_parallel" : 1
    },
    {
      "bottom" : "InceptionResnetV1\/Repeat\/block35_3\/mul\/x,InceptionResnetV1\/Repeat\/block35_3\/Conv2d_1x1\/Conv2D",
      "alpha" : 1,
      "operation" : 1,
      "weights" : {

      },
      "fused_relu" : 0,
      "debug_info" : "InceptionResnetV1\/Repeat\/block35_3\/mul",
      "nd_mode" : true,
      "top" : "InceptionResnetV1\/Repeat\/block35_3\/mul",
      "type" : "elementwise",
      "name" : "InceptionResnetV1\/Repeat\/block35_3\/mul",
      "beta" : 0
    },
    {
      "bottom" : "InceptionResnetV1\/Repeat\/block35_2\/Relu,InceptionResnetV1\/Repeat\/block35_3\/mul",
      "alpha" : 1,
      "operation" : 0,
      "weights" : {

      },
      "fused_relu" : 0,
      "debug_info" : "InceptionResnetV1\/Repeat\/block35_3\/add",
      "nd_mode" : true,
      "top" : "InceptionResnetV1\/Repeat\/block35_3\/add",
      "type" : "elementwise",
      "name" : "InceptionResnetV1\/Repeat\/block35_3\/add",
      "beta" : 0
    },
    {
      "bottom" : "InceptionResnetV1\/Repeat\/block35_3\/add",
      "weights" : {

      },
      "mode" : 0,
      "debug_info" : "InceptionResnetV1\/Repeat\/block35_3\/Relu",
      "top" : "InceptionResnetV1\/Repeat\/block35_3\/Relu",
      "type" : "activation",
      "name" : "InceptionResnetV1\/Repeat\/block35_3\/Relu"
    },
    {
      "pad_r" : 0,
      "fused_relu" : 1,
      "fused_tanh" : 0,
      "debug_info" : "InceptionResnetV1\/Repeat\/block35_4\/Branch_0\/Conv2d_1x1\/Conv2D",
      "pad_fill_mode" : 0,
      "pad_b" : 0,
      "pad_l" : 0,
      "top" : "InceptionResnetV1\/Repeat\/block35_4\/Branch_0\/Conv2d_1x1\/Relu",
      "K" : 256,
      "blob_biases" : 265,
      "name" : "InceptionResnetV1\/Repeat\/block35_4\/Branch_0\/Conv2d_1x1\/Conv2D",
      "has_batch_norm" : 0,
      "type" : "convolution",
      "n_groups" : 1,
      "pad_t" : 0,
      "has_biases" : 1,
      "C" : 32,
      "bottom" : "InceptionResnetV1\/Repeat\/block35_3\/Relu",
      "weights" : {
        "per_ch_qbias" : 269,
        "per_ch_qscale" : 271,
        "W_U6" : 267
      },
      "Nx" : 1,
      "pad_mode" : 1,
      "pad_value" : 0,
      "Ny" : 1,
      "n_parallel" : 1
    },
    {
      "pad_r" : 0,
      "fused_relu" : 1,
      "fused_tanh" : 0,
      "debug_info" : "InceptionResnetV1\/Repeat\/block35_4\/Branch_1\/Conv2d_0a_1x1\/Conv2D",
      "pad_fill_mode" : 0,
      "pad_b" : 0,
      "pad_l" : 0,
      "top" : "InceptionResnetV1\/Repeat\/block35_4\/Branch_1\/Conv2d_0a_1x1\/Relu",
      "K" : 256,
      "blob_biases" : 273,
      "name" : "InceptionResnetV1\/Repeat\/block35_4\/Branch_1\/Conv2d_0a_1x1\/Conv2D",
      "has_batch_norm" : 0,
      "type" : "convolution",
      "n_groups" : 1,
      "pad_t" : 0,
      "has_biases" : 1,
      "C" : 32,
      "bottom" : "InceptionResnetV1\/Repeat\/block35_3\/Relu",
      "weights" : {
        "per_ch_qbias" : 277,
        "per_ch_qscale" : 279,
        "W_U6" : 275
      },
      "Nx" : 1,
      "pad_mode" : 1,
      "pad_value" : 0,
      "Ny" : 1,
      "n_parallel" : 1
    },
    {
      "pad_r" : 0,
      "fused_relu" : 1,
      "fused_tanh" : 0,
      "debug_info" : "InceptionResnetV1\/Repeat\/block35_4\/Branch_2\/Conv2d_0a_1x1\/Conv2D",
      "pad_fill_mode" : 0,
      "pad_b" : 0,
      "pad_l" : 0,
      "top" : "InceptionResnetV1\/Repeat\/block35_4\/Branch_2\/Conv2d_0a_1x1\/Relu",
      "K" : 256,
      "blob_biases" : 281,
      "name" : "InceptionResnetV1\/Repeat\/block35_4\/Branch_2\/Conv2d_0a_1x1\/Conv2D",
      "has_batch_norm" : 0,
      "type" : "convolution",
      "n_groups" : 1,
      "pad_t" : 0,
      "has_biases" : 1,
      "C" : 32,
      "bottom" : "InceptionResnetV1\/Repeat\/block35_3\/Relu",
      "weights" : {
        "per_ch_qbias" : 285,
        "per_ch_qscale" : 287,
        "W_U6" : 283
      },
      "Nx" : 1,
      "pad_mode" : 1,
      "pad_value" : 0,
      "Ny" : 1,
      "n_parallel" : 1
    },
    {
      "pad_r" : 0,
      "fused_relu" : 1,
      "fused_tanh" : 0,
      "debug_info" : "InceptionResnetV1\/Repeat\/block35_4\/Branch_1\/Conv2d_0b_3x3\/Conv2D",
      "pad_fill_mode" : 0,
      "pad_b" : 0,
      "pad_l" : 0,
      "top" : "InceptionResnetV1\/Repeat\/block35_4\/Branch_1\/Conv2d_0b_3x3\/Relu",
      "K" : 32,
      "blob_biases" : 289,
      "name" : "InceptionResnetV1\/Repeat\/block35_4\/Branch_1\/Conv2d_0b_3x3\/Conv2D",
      "has_batch_norm" : 0,
      "type" : "convolution",
      "n_groups" : 1,
      "pad_t" : 0,
      "has_biases" : 1,
      "C" : 32,
      "bottom" : "InceptionResnetV1\/Repeat\/block35_4\/Branch_1\/Conv2d_0a_1x1\/Relu",
      "weights" : {
        "per_ch_qbias" : 293,
        "per_ch_qscale" : 295,
        "W_U6" : 291
      },
      "Nx" : 3,
      "pad_mode" : 1,
      "pad_value" : 0,
      "Ny" : 3,
      "n_parallel" : 1
    },
    {
      "pad_r" : 0,
      "fused_relu" : 1,
      "fused_tanh" : 0,
      "debug_info" : "InceptionResnetV1\/Repeat\/block35_4\/Branch_2\/Conv2d_0b_3x3\/Conv2D",
      "pad_fill_mode" : 0,
      "pad_b" : 0,
      "pad_l" : 0,
      "top" : "InceptionResnetV1\/Repeat\/block35_4\/Branch_2\/Conv2d_0b_3x3\/Relu",
      "K" : 32,
      "blob_biases" : 297,
      "name" : "InceptionResnetV1\/Repeat\/block35_4\/Branch_2\/Conv2d_0b_3x3\/Conv2D",
      "has_batch_norm" : 0,
      "type" : "convolution",
      "n_groups" : 1,
      "pad_t" : 0,
      "has_biases" : 1,
      "C" : 32,
      "bottom" : "InceptionResnetV1\/Repeat\/block35_4\/Branch_2\/Conv2d_0a_1x1\/Relu",
      "weights" : {
        "per_ch_qbias" : 301,
        "per_ch_qscale" : 303,
        "W_U6" : 299
      },
      "Nx" : 3,
      "pad_mode" : 1,
      "pad_value" : 0,
      "Ny" : 3,
      "n_parallel" : 1
    },
    {
      "pad_r" : 0,
      "fused_relu" : 1,
      "fused_tanh" : 0,
      "debug_info" : "InceptionResnetV1\/Repeat\/block35_4\/Branch_2\/Conv2d_0c_3x3\/Conv2D",
      "pad_fill_mode" : 0,
      "pad_b" : 0,
      "pad_l" : 0,
      "top" : "InceptionResnetV1\/Repeat\/block35_4\/Branch_2\/Conv2d_0c_3x3\/Relu",
      "K" : 32,
      "blob_biases" : 305,
      "name" : "InceptionResnetV1\/Repeat\/block35_4\/Branch_2\/Conv2d_0c_3x3\/Conv2D",
      "has_batch_norm" : 0,
      "type" : "convolution",
      "n_groups" : 1,
      "pad_t" : 0,
      "has_biases" : 1,
      "C" : 32,
      "bottom" : "InceptionResnetV1\/Repeat\/block35_4\/Branch_2\/Conv2d_0b_3x3\/Relu",
      "weights" : {
        "per_ch_qbias" : 309,
        "per_ch_qscale" : 311,
        "W_U6" : 307
      },
      "Nx" : 3,
      "pad_mode" : 1,
      "pad_value" : 0,
      "Ny" : 3,
      "n_parallel" : 1
    },
    {
      "weights" : {

      },
      "debug_info" : "InceptionResnetV1\/Repeat\/block35_4\/concat",
      "top" : "InceptionResnetV1\/Repeat\/block35_4\/concat",
      "type" : "concat",
      "name" : "InceptionResnetV1\/Repeat\/block35_4\/concat",
      "bottom" : "InceptionResnetV1\/Repeat\/block35_4\/Branch_0\/Conv2d_1x1\/Relu,InceptionResnetV1\/Repeat\/block35_4\/Branch_1\/Conv2d_0b_3x3\/Relu,InceptionResnetV1\/Repeat\/block35_4\/Branch_2\/Conv2d_0c_3x3\/Relu"
    },
    {
      "pad_r" : 0,
      "fused_relu" : 0,
      "fused_tanh" : 0,
      "debug_info" : "InceptionResnetV1\/Repeat\/block35_4\/Conv2d_1x1\/Conv2D",
      "pad_fill_mode" : 0,
      "pad_b" : 0,
      "pad_l" : 0,
      "top" : "InceptionResnetV1\/Repeat\/block35_4\/Conv2d_1x1\/Conv2D",
      "K" : 96,
      "blob_biases" : 313,
      "name" : "InceptionResnetV1\/Repeat\/block35_4\/Conv2d_1x1\/Conv2D",
      "has_batch_norm" : 0,
      "type" : "convolution",
      "n_groups" : 1,
      "pad_t" : 0,
      "has_biases" : 1,
      "C" : 256,
      "bottom" : "InceptionResnetV1\/Repeat\/block35_4\/concat",
      "weights" : {
        "per_ch_qbias" : 317,
        "per_ch_qscale" : 319,
        "W_U6" : 315
      },
      "Nx" : 1,
      "pad_mode" : 1,
      "pad_value" : 0,
      "Ny" : 1,
      "n_parallel" : 1
    },
    {
      "bottom" : "InceptionResnetV1\/Repeat\/block35_4\/mul\/x,InceptionResnetV1\/Repeat\/block35_4\/Conv2d_1x1\/Conv2D",
      "alpha" : 1,
      "operation" : 1,
      "weights" : {

      },
      "fused_relu" : 0,
      "debug_info" : "InceptionResnetV1\/Repeat\/block35_4\/mul",
      "nd_mode" : true,
      "top" : "InceptionResnetV1\/Repeat\/block35_4\/mul",
      "type" : "elementwise",
      "name" : "InceptionResnetV1\/Repeat\/block35_4\/mul",
      "beta" : 0
    },
    {
      "bottom" : "InceptionResnetV1\/Repeat\/block35_3\/Relu,InceptionResnetV1\/Repeat\/block35_4\/mul",
      "alpha" : 1,
      "operation" : 0,
      "weights" : {

      },
      "fused_relu" : 0,
      "debug_info" : "InceptionResnetV1\/Repeat\/block35_4\/add",
      "nd_mode" : true,
      "top" : "InceptionResnetV1\/Repeat\/block35_4\/add",
      "type" : "elementwise",
      "name" : "InceptionResnetV1\/Repeat\/block35_4\/add",
      "beta" : 0
    },
    {
      "bottom" : "InceptionResnetV1\/Repeat\/block35_4\/add",
      "weights" : {

      },
      "mode" : 0,
      "debug_info" : "InceptionResnetV1\/Repeat\/block35_4\/Relu",
      "top" : "InceptionResnetV1\/Repeat\/block35_4\/Relu",
      "type" : "activation",
      "name" : "InceptionResnetV1\/Repeat\/block35_4\/Relu"
    },
    {
      "pad_r" : 0,
      "fused_relu" : 1,
      "fused_tanh" : 0,
      "debug_info" : "InceptionResnetV1\/Repeat\/block35_5\/Branch_0\/Conv2d_1x1\/Conv2D",
      "pad_fill_mode" : 0,
      "pad_b" : 0,
      "pad_l" : 0,
      "top" : "InceptionResnetV1\/Repeat\/block35_5\/Branch_0\/Conv2d_1x1\/Relu",
      "K" : 256,
      "blob_biases" : 321,
      "name" : "InceptionResnetV1\/Repeat\/block35_5\/Branch_0\/Conv2d_1x1\/Conv2D",
      "has_batch_norm" : 0,
      "type" : "convolution",
      "n_groups" : 1,
      "pad_t" : 0,
      "has_biases" : 1,
      "C" : 32,
      "bottom" : "InceptionResnetV1\/Repeat\/block35_4\/Relu",
      "weights" : {
        "per_ch_qbias" : 325,
        "per_ch_qscale" : 327,
        "W_U6" : 323
      },
      "Nx" : 1,
      "pad_mode" : 1,
      "pad_value" : 0,
      "Ny" : 1,
      "n_parallel" : 1
    },
    {
      "pad_r" : 0,
      "fused_relu" : 1,
      "fused_tanh" : 0,
      "debug_info" : "InceptionResnetV1\/Repeat\/block35_5\/Branch_1\/Conv2d_0a_1x1\/Conv2D",
      "pad_fill_mode" : 0,
      "pad_b" : 0,
      "pad_l" : 0,
      "top" : "InceptionResnetV1\/Repeat\/block35_5\/Branch_1\/Conv2d_0a_1x1\/Relu",
      "K" : 256,
      "blob_biases" : 329,
      "name" : "InceptionResnetV1\/Repeat\/block35_5\/Branch_1\/Conv2d_0a_1x1\/Conv2D",
      "has_batch_norm" : 0,
      "type" : "convolution",
      "n_groups" : 1,
      "pad_t" : 0,
      "has_biases" : 1,
      "C" : 32,
      "bottom" : "InceptionResnetV1\/Repeat\/block35_4\/Relu",
      "weights" : {
        "per_ch_qbias" : 333,
        "per_ch_qscale" : 335,
        "W_U6" : 331
      },
      "Nx" : 1,
      "pad_mode" : 1,
      "pad_value" : 0,
      "Ny" : 1,
      "n_parallel" : 1
    },
    {
      "pad_r" : 0,
      "fused_relu" : 1,
      "fused_tanh" : 0,
      "debug_info" : "InceptionResnetV1\/Repeat\/block35_5\/Branch_2\/Conv2d_0a_1x1\/Conv2D",
      "pad_fill_mode" : 0,
      "pad_b" : 0,
      "pad_l" : 0,
      "top" : "InceptionResnetV1\/Repeat\/block35_5\/Branch_2\/Conv2d_0a_1x1\/Relu",
      "K" : 256,
      "blob_biases" : 337,
      "name" : "InceptionResnetV1\/Repeat\/block35_5\/Branch_2\/Conv2d_0a_1x1\/Conv2D",
      "has_batch_norm" : 0,
      "type" : "convolution",
      "n_groups" : 1,
      "pad_t" : 0,
      "has_biases" : 1,
      "C" : 32,
      "bottom" : "InceptionResnetV1\/Repeat\/block35_4\/Relu",
      "weights" : {
        "per_ch_qbias" : 341,
        "per_ch_qscale" : 343,
        "W_U6" : 339
      },
      "Nx" : 1,
      "pad_mode" : 1,
      "pad_value" : 0,
      "Ny" : 1,
      "n_parallel" : 1
    },
    {
      "pad_r" : 0,
      "fused_relu" : 1,
      "fused_tanh" : 0,
      "debug_info" : "InceptionResnetV1\/Repeat\/block35_5\/Branch_1\/Conv2d_0b_3x3\/Conv2D",
      "pad_fill_mode" : 0,
      "pad_b" : 0,
      "pad_l" : 0,
      "top" : "InceptionResnetV1\/Repeat\/block35_5\/Branch_1\/Conv2d_0b_3x3\/Relu",
      "K" : 32,
      "blob_biases" : 345,
      "name" : "InceptionResnetV1\/Repeat\/block35_5\/Branch_1\/Conv2d_0b_3x3\/Conv2D",
      "has_batch_norm" : 0,
      "type" : "convolution",
      "n_groups" : 1,
      "pad_t" : 0,
      "has_biases" : 1,
      "C" : 32,
      "bottom" : "InceptionResnetV1\/Repeat\/block35_5\/Branch_1\/Conv2d_0a_1x1\/Relu",
      "weights" : {
        "per_ch_qbias" : 349,
        "per_ch_qscale" : 351,
        "W_U6" : 347
      },
      "Nx" : 3,
      "pad_mode" : 1,
      "pad_value" : 0,
      "Ny" : 3,
      "n_parallel" : 1
    },
    {
      "pad_r" : 0,
      "fused_relu" : 1,
      "fused_tanh" : 0,
      "debug_info" : "InceptionResnetV1\/Repeat\/block35_5\/Branch_2\/Conv2d_0b_3x3\/Conv2D",
      "pad_fill_mode" : 0,
      "pad_b" : 0,
      "pad_l" : 0,
      "top" : "InceptionResnetV1\/Repeat\/block35_5\/Branch_2\/Conv2d_0b_3x3\/Relu",
      "K" : 32,
      "blob_biases" : 353,
      "name" : "InceptionResnetV1\/Repeat\/block35_5\/Branch_2\/Conv2d_0b_3x3\/Conv2D",
      "has_batch_norm" : 0,
      "type" : "convolution",
      "n_groups" : 1,
      "pad_t" : 0,
      "has_biases" : 1,
      "C" : 32,
      "bottom" : "InceptionResnetV1\/Repeat\/block35_5\/Branch_2\/Conv2d_0a_1x1\/Relu",
      "weights" : {
        "per_ch_qbias" : 357,
        "per_ch_qscale" : 359,
        "W_U6" : 355
      },
      "Nx" : 3,
      "pad_mode" : 1,
      "pad_value" : 0,
      "Ny" : 3,
      "n_parallel" : 1
    },
    {
      "pad_r" : 0,
      "fused_relu" : 1,
      "fused_tanh" : 0,
      "debug_info" : "InceptionResnetV1\/Repeat\/block35_5\/Branch_2\/Conv2d_0c_3x3\/Conv2D",
      "pad_fill_mode" : 0,
      "pad_b" : 0,
      "pad_l" : 0,
      "top" : "InceptionResnetV1\/Repeat\/block35_5\/Branch_2\/Conv2d_0c_3x3\/Relu",
      "K" : 32,
      "blob_biases" : 361,
      "name" : "InceptionResnetV1\/Repeat\/block35_5\/Branch_2\/Conv2d_0c_3x3\/Conv2D",
      "has_batch_norm" : 0,
      "type" : "convolution",
      "n_groups" : 1,
      "pad_t" : 0,
      "has_biases" : 1,
      "C" : 32,
      "bottom" : "InceptionResnetV1\/Repeat\/block35_5\/Branch_2\/Conv2d_0b_3x3\/Relu",
      "weights" : {
        "per_ch_qbias" : 365,
        "per_ch_qscale" : 367,
        "W_U6" : 363
      },
      "Nx" : 3,
      "pad_mode" : 1,
      "pad_value" : 0,
      "Ny" : 3,
      "n_parallel" : 1
    },
    {
      "weights" : {

      },
      "debug_info" : "InceptionResnetV1\/Repeat\/block35_5\/concat",
      "top" : "InceptionResnetV1\/Repeat\/block35_5\/concat",
      "type" : "concat",
      "name" : "InceptionResnetV1\/Repeat\/block35_5\/concat",
      "bottom" : "InceptionResnetV1\/Repeat\/block35_5\/Branch_0\/Conv2d_1x1\/Relu,InceptionResnetV1\/Repeat\/block35_5\/Branch_1\/Conv2d_0b_3x3\/Relu,InceptionResnetV1\/Repeat\/block35_5\/Branch_2\/Conv2d_0c_3x3\/Relu"
    },
    {
      "pad_r" : 0,
      "fused_relu" : 0,
      "fused_tanh" : 0,
      "debug_info" : "InceptionResnetV1\/Repeat\/block35_5\/Conv2d_1x1\/Conv2D",
      "pad_fill_mode" : 0,
      "pad_b" : 0,
      "pad_l" : 0,
      "top" : "InceptionResnetV1\/Repeat\/block35_5\/Conv2d_1x1\/Conv2D",
      "K" : 96,
      "blob_biases" : 369,
      "name" : "InceptionResnetV1\/Repeat\/block35_5\/Conv2d_1x1\/Conv2D",
      "has_batch_norm" : 0,
      "type" : "convolution",
      "n_groups" : 1,
      "pad_t" : 0,
      "has_biases" : 1,
      "C" : 256,
      "bottom" : "InceptionResnetV1\/Repeat\/block35_5\/concat",
      "weights" : {
        "per_ch_qbias" : 373,
        "per_ch_qscale" : 375,
        "W_U6" : 371
      },
      "Nx" : 1,
      "pad_mode" : 1,
      "pad_value" : 0,
      "Ny" : 1,
      "n_parallel" : 1
    },
    {
      "bottom" : "InceptionResnetV1\/Repeat\/block35_5\/mul\/x,InceptionResnetV1\/Repeat\/block35_5\/Conv2d_1x1\/Conv2D",
      "alpha" : 1,
      "operation" : 1,
      "weights" : {

      },
      "fused_relu" : 0,
      "debug_info" : "InceptionResnetV1\/Repeat\/block35_5\/mul",
      "nd_mode" : true,
      "top" : "InceptionResnetV1\/Repeat\/block35_5\/mul",
      "type" : "elementwise",
      "name" : "InceptionResnetV1\/Repeat\/block35_5\/mul",
      "beta" : 0
    },
    {
      "bottom" : "InceptionResnetV1\/Repeat\/block35_4\/Relu,InceptionResnetV1\/Repeat\/block35_5\/mul",
      "alpha" : 1,
      "operation" : 0,
      "weights" : {

      },
      "fused_relu" : 0,
      "debug_info" : "InceptionResnetV1\/Repeat\/block35_5\/add",
      "nd_mode" : true,
      "top" : "InceptionResnetV1\/Repeat\/block35_5\/add",
      "type" : "elementwise",
      "name" : "InceptionResnetV1\/Repeat\/block35_5\/add",
      "beta" : 0
    },
    {
      "bottom" : "InceptionResnetV1\/Repeat\/block35_5\/add",
      "weights" : {

      },
      "mode" : 0,
      "debug_info" : "InceptionResnetV1\/Repeat\/block35_5\/Relu",
      "top" : "InceptionResnetV1\/Repeat\/block35_5\/Relu",
      "type" : "activation",
      "name" : "InceptionResnetV1\/Repeat\/block35_5\/Relu"
    },
    {
      "pad_r" : 0,
      "fused_relu" : 1,
      "fused_tanh" : 0,
      "debug_info" : "InceptionResnetV1\/Mixed_6a\/Branch_0\/Conv2d_1a_3x3\/Conv2D",
      "pad_fill_mode" : 0,
      "pad_b" : 0,
      "pad_l" : 0,
      "top" : "InceptionResnetV1\/Mixed_6a\/Branch_0\/Conv2d_1a_3x3\/Relu",
      "K" : 256,
      "blob_biases" : 377,
      "stride_x" : 2,
      "name" : "InceptionResnetV1\/Mixed_6a\/Branch_0\/Conv2d_1a_3x3\/Conv2D",
      "has_batch_norm" : 0,
      "type" : "convolution",
      "n_groups" : 1,
      "pad_t" : 0,
      "stride_y" : 2,
      "has_biases" : 1,
      "C" : 384,
      "bottom" : "InceptionResnetV1\/Repeat\/block35_5\/Relu",
      "weights" : {
        "per_ch_qbias" : 381,
        "per_ch_qscale" : 383,
        "W_U6" : 379
      },
      "Nx" : 3,
      "pad_mode" : 0,
      "pad_value" : 0,
      "Ny" : 3,
      "n_parallel" : 1
    },
    {
      "pad_r" : 0,
      "fused_relu" : 1,
      "fused_tanh" : 0,
      "debug_info" : "InceptionResnetV1\/Mixed_6a\/Branch_1\/Conv2d_0a_1x1\/Conv2D",
      "pad_fill_mode" : 0,
      "pad_b" : 0,
      "pad_l" : 0,
      "top" : "InceptionResnetV1\/Mixed_6a\/Branch_1\/Conv2d_0a_1x1\/Relu",
      "K" : 256,
      "blob_biases" : 385,
      "name" : "InceptionResnetV1\/Mixed_6a\/Branch_1\/Conv2d_0a_1x1\/Conv2D",
      "has_batch_norm" : 0,
      "type" : "convolution",
      "n_groups" : 1,
      "pad_t" : 0,
      "has_biases" : 1,
      "C" : 192,
      "bottom" : "InceptionResnetV1\/Repeat\/block35_5\/Relu",
      "weights" : {
        "per_ch_qbias" : 389,
        "per_ch_qscale" : 391,
        "W_U6" : 387
      },
      "Nx" : 1,
      "pad_mode" : 1,
      "pad_value" : 0,
      "Ny" : 1,
      "n_parallel" : 1
    },
    {
      "pad_r" : 0,
      "debug_info" : "InceptionResnetV1\/Mixed_6a\/Branch_2\/MaxPool_1a_3x3\/MaxPool",
      "pad_fill_mode" : 0,
      "pad_b" : 0,
      "pad_l" : 0,
      "size_x" : 3,
      "top" : "InceptionResnetV1\/Mixed_6a\/Branch_2\/MaxPool_1a_3x3\/MaxPool",
      "top_shape_style" : 0,
      "stride_x" : 2,
      "avg_or_max" : 1,
      "average_count_exclude_padding" : 1,
      "type" : "pool",
      "name" : "InceptionResnetV1\/Mixed_6a\/Branch_2\/MaxPool_1a_3x3\/MaxPool",
      "pad_t" : 0,
      "stride_y" : 2,
      "bottom" : "InceptionResnetV1\/Repeat\/block35_5\/Relu",
      "weights" : {

      },
      "pad_mode" : 2,
      "size_y" : 3,
      "pad_value" : 0
    },
    {
      "pad_r" : 0,
      "fused_relu" : 1,
      "fused_tanh" : 0,
      "debug_info" : "InceptionResnetV1\/Mixed_6a\/Branch_1\/Conv2d_0b_3x3\/Conv2D",
      "pad_fill_mode" : 0,
      "pad_b" : 0,
      "pad_l" : 0,
      "top" : "InceptionResnetV1\/Mixed_6a\/Branch_1\/Conv2d_0b_3x3\/Relu",
      "K" : 192,
      "blob_biases" : 393,
      "name" : "InceptionResnetV1\/Mixed_6a\/Branch_1\/Conv2d_0b_3x3\/Conv2D",
      "has_batch_norm" : 0,
      "type" : "convolution",
      "n_groups" : 1,
      "pad_t" : 0,
      "has_biases" : 1,
      "C" : 192,
      "bottom" : "InceptionResnetV1\/Mixed_6a\/Branch_1\/Conv2d_0a_1x1\/Relu",
      "weights" : {
        "per_ch_qbias" : 397,
        "per_ch_qscale" : 399,
        "W_U6" : 395
      },
      "Nx" : 3,
      "pad_mode" : 1,
      "pad_value" : 0,
      "Ny" : 3,
      "n_parallel" : 1
    },
    {
      "pad_r" : 0,
      "fused_relu" : 1,
      "fused_tanh" : 0,
      "debug_info" : "InceptionResnetV1\/Mixed_6a\/Branch_1\/Conv2d_1a_3x3\/Conv2D",
      "pad_fill_mode" : 0,
      "pad_b" : 0,
      "pad_l" : 0,
      "top" : "InceptionResnetV1\/Mixed_6a\/Branch_1\/Conv2d_1a_3x3\/Relu",
      "K" : 192,
      "blob_biases" : 401,
      "stride_x" : 2,
      "name" : "InceptionResnetV1\/Mixed_6a\/Branch_1\/Conv2d_1a_3x3\/Conv2D",
      "has_batch_norm" : 0,
      "type" : "convolution",
      "n_groups" : 1,
      "pad_t" : 0,
      "stride_y" : 2,
      "has_biases" : 1,
      "C" : 256,
      "bottom" : "InceptionResnetV1\/Mixed_6a\/Branch_1\/Conv2d_0b_3x3\/Relu",
      "weights" : {
        "per_ch_qbias" : 405,
        "per_ch_qscale" : 407,
        "W_U6" : 403
      },
      "Nx" : 3,
      "pad_mode" : 0,
      "pad_value" : 0,
      "Ny" : 3,
      "n_parallel" : 1
    },
    {
      "weights" : {

      },
      "debug_info" : "InceptionResnetV1\/Mixed_6a\/concat",
      "top" : "InceptionResnetV1\/Mixed_6a\/concat",
      "type" : "concat",
      "name" : "InceptionResnetV1\/Mixed_6a\/concat",
      "bottom" : "InceptionResnetV1\/Mixed_6a\/Branch_0\/Conv2d_1a_3x3\/Relu,InceptionResnetV1\/Mixed_6a\/Branch_1\/Conv2d_1a_3x3\/Relu,InceptionResnetV1\/Mixed_6a\/Branch_2\/MaxPool_1a_3x3\/MaxPool"
    },
    {
      "pad_r" : 0,
      "fused_relu" : 1,
      "fused_tanh" : 0,
      "debug_info" : "InceptionResnetV1\/Repeat_1\/block17_1\/Branch_0\/Conv2d_1x1\/Conv2D",
      "pad_fill_mode" : 0,
      "pad_b" : 0,
      "pad_l" : 0,
      "top" : "InceptionResnetV1\/Repeat_1\/block17_1\/Branch_0\/Conv2d_1x1\/Relu",
      "K" : 896,
      "blob_biases" : 409,
      "name" : "InceptionResnetV1\/Repeat_1\/block17_1\/Branch_0\/Conv2d_1x1\/Conv2D",
      "has_batch_norm" : 0,
      "type" : "convolution",
      "n_groups" : 1,
      "pad_t" : 0,
      "has_biases" : 1,
      "C" : 128,
      "bottom" : "InceptionResnetV1\/Mixed_6a\/concat",
      "weights" : {
        "per_ch_qbias" : 413,
        "per_ch_qscale" : 415,
        "W_U6" : 411
      },
      "Nx" : 1,
      "pad_mode" : 1,
      "pad_value" : 0,
      "Ny" : 1,
      "n_parallel" : 1
    },
    {
      "pad_r" : 0,
      "fused_relu" : 1,
      "fused_tanh" : 0,
      "debug_info" : "InceptionResnetV1\/Repeat_1\/block17_1\/Branch_1\/Conv2d_0a_1x1\/Conv2D",
      "pad_fill_mode" : 0,
      "pad_b" : 0,
      "pad_l" : 0,
      "top" : "InceptionResnetV1\/Repeat_1\/block17_1\/Branch_1\/Conv2d_0a_1x1\/Relu",
      "K" : 896,
      "blob_biases" : 417,
      "name" : "InceptionResnetV1\/Repeat_1\/block17_1\/Branch_1\/Conv2d_0a_1x1\/Conv2D",
      "has_batch_norm" : 0,
      "type" : "convolution",
      "n_groups" : 1,
      "pad_t" : 0,
      "has_biases" : 1,
      "C" : 128,
      "bottom" : "InceptionResnetV1\/Mixed_6a\/concat",
      "weights" : {
        "per_ch_qbias" : 421,
        "per_ch_qscale" : 423,
        "W_U6" : 419
      },
      "Nx" : 1,
      "pad_mode" : 1,
      "pad_value" : 0,
      "Ny" : 1,
      "n_parallel" : 1
    },
    {
      "pad_r" : 0,
      "fused_relu" : 1,
      "fused_tanh" : 0,
      "debug_info" : "InceptionResnetV1\/Repeat_1\/block17_1\/Branch_1\/Conv2d_0b_1x7\/Conv2D",
      "pad_fill_mode" : 0,
      "pad_b" : 0,
      "pad_l" : 0,
      "top" : "InceptionResnetV1\/Repeat_1\/block17_1\/Branch_1\/Conv2d_0b_1x7\/Relu",
      "K" : 128,
      "blob_biases" : 425,
      "name" : "InceptionResnetV1\/Repeat_1\/block17_1\/Branch_1\/Conv2d_0b_1x7\/Conv2D",
      "has_batch_norm" : 0,
      "type" : "convolution",
      "n_groups" : 1,
      "pad_t" : 0,
      "has_biases" : 1,
      "C" : 128,
      "bottom" : "InceptionResnetV1\/Repeat_1\/block17_1\/Branch_1\/Conv2d_0a_1x1\/Relu",
      "weights" : {
        "per_ch_qbias" : 429,
        "per_ch_qscale" : 431,
        "W_U6" : 427
      },
      "Nx" : 7,
      "pad_mode" : 1,
      "pad_value" : 0,
      "Ny" : 1,
      "n_parallel" : 1
    },
    {
      "pad_r" : 0,
      "fused_relu" : 1,
      "fused_tanh" : 0,
      "debug_info" : "InceptionResnetV1\/Repeat_1\/block17_1\/Branch_1\/Conv2d_0c_7x1\/Conv2D",
      "pad_fill_mode" : 0,
      "pad_b" : 0,
      "pad_l" : 0,
      "top" : "InceptionResnetV1\/Repeat_1\/block17_1\/Branch_1\/Conv2d_0c_7x1\/Relu",
      "K" : 128,
      "blob_biases" : 433,
      "name" : "InceptionResnetV1\/Repeat_1\/block17_1\/Branch_1\/Conv2d_0c_7x1\/Conv2D",
      "has_batch_norm" : 0,
      "type" : "convolution",
      "n_groups" : 1,
      "pad_t" : 0,
      "has_biases" : 1,
      "C" : 128,
      "bottom" : "InceptionResnetV1\/Repeat_1\/block17_1\/Branch_1\/Conv2d_0b_1x7\/Relu",
      "weights" : {
        "per_ch_qbias" : 437,
        "per_ch_qscale" : 439,
        "W_U6" : 435
      },
      "Nx" : 1,
      "pad_mode" : 1,
      "pad_value" : 0,
      "Ny" : 7,
      "n_parallel" : 1
    },
    {
      "weights" : {

      },
      "debug_info" : "InceptionResnetV1\/Repeat_1\/block17_1\/concat",
      "top" : "InceptionResnetV1\/Repeat_1\/block17_1\/concat",
      "type" : "concat",
      "name" : "InceptionResnetV1\/Repeat_1\/block17_1\/concat",
      "bottom" : "InceptionResnetV1\/Repeat_1\/block17_1\/Branch_0\/Conv2d_1x1\/Relu,InceptionResnetV1\/Repeat_1\/block17_1\/Branch_1\/Conv2d_0c_7x1\/Relu"
    },
    {
      "pad_r" : 0,
      "fused_relu" : 0,
      "fused_tanh" : 0,
      "debug_info" : "InceptionResnetV1\/Repeat_1\/block17_1\/Conv2d_1x1\/Conv2D",
      "pad_fill_mode" : 0,
      "pad_b" : 0,
      "pad_l" : 0,
      "top" : "InceptionResnetV1\/Repeat_1\/block17_1\/Conv2d_1x1\/Conv2D",
      "K" : 256,
      "blob_biases" : 441,
      "name" : "InceptionResnetV1\/Repeat_1\/block17_1\/Conv2d_1x1\/Conv2D",
      "has_batch_norm" : 0,
      "type" : "convolution",
      "n_groups" : 1,
      "pad_t" : 0,
      "has_biases" : 1,
      "C" : 896,
      "bottom" : "InceptionResnetV1\/Repeat_1\/block17_1\/concat",
      "weights" : {
        "per_ch_qbias" : 445,
        "per_ch_qscale" : 447,
        "W_U6" : 443
      },
      "Nx" : 1,
      "pad_mode" : 1,
      "pad_value" : 0,
      "Ny" : 1,
      "n_parallel" : 1
    },
    {
      "bottom" : "InceptionResnetV1\/Repeat_1\/block17_1\/mul\/x,InceptionResnetV1\/Repeat_1\/block17_1\/Conv2d_1x1\/Conv2D",
      "alpha" : 1,
      "operation" : 1,
      "weights" : {

      },
      "fused_relu" : 0,
      "debug_info" : "InceptionResnetV1\/Repeat_1\/block17_1\/mul",
      "nd_mode" : true,
      "top" : "InceptionResnetV1\/Repeat_1\/block17_1\/mul",
      "type" : "elementwise",
      "name" : "InceptionResnetV1\/Repeat_1\/block17_1\/mul",
      "beta" : 0
    },
    {
      "bottom" : "InceptionResnetV1\/Mixed_6a\/concat,InceptionResnetV1\/Repeat_1\/block17_1\/mul",
      "alpha" : 1,
      "operation" : 0,
      "weights" : {

      },
      "fused_relu" : 0,
      "debug_info" : "InceptionResnetV1\/Repeat_1\/block17_1\/add",
      "nd_mode" : true,
      "top" : "InceptionResnetV1\/Repeat_1\/block17_1\/add",
      "type" : "elementwise",
      "name" : "InceptionResnetV1\/Repeat_1\/block17_1\/add",
      "beta" : 0
    },
    {
      "bottom" : "InceptionResnetV1\/Repeat_1\/block17_1\/add",
      "weights" : {

      },
      "mode" : 0,
      "debug_info" : "InceptionResnetV1\/Repeat_1\/block17_1\/Relu",
      "top" : "InceptionResnetV1\/Repeat_1\/block17_1\/Relu",
      "type" : "activation",
      "name" : "InceptionResnetV1\/Repeat_1\/block17_1\/Relu"
    },
    {
      "pad_r" : 0,
      "fused_relu" : 1,
      "fused_tanh" : 0,
      "debug_info" : "InceptionResnetV1\/Repeat_1\/block17_2\/Branch_0\/Conv2d_1x1\/Conv2D",
      "pad_fill_mode" : 0,
      "pad_b" : 0,
      "pad_l" : 0,
      "top" : "InceptionResnetV1\/Repeat_1\/block17_2\/Branch_0\/Conv2d_1x1\/Relu",
      "K" : 896,
      "blob_biases" : 449,
      "name" : "InceptionResnetV1\/Repeat_1\/block17_2\/Branch_0\/Conv2d_1x1\/Conv2D",
      "has_batch_norm" : 0,
      "type" : "convolution",
      "n_groups" : 1,
      "pad_t" : 0,
      "has_biases" : 1,
      "C" : 128,
      "bottom" : "InceptionResnetV1\/Repeat_1\/block17_1\/Relu",
      "weights" : {
        "per_ch_qbias" : 453,
        "per_ch_qscale" : 455,
        "W_U6" : 451
      },
      "Nx" : 1,
      "pad_mode" : 1,
      "pad_value" : 0,
      "Ny" : 1,
      "n_parallel" : 1
    },
    {
      "pad_r" : 0,
      "fused_relu" : 1,
      "fused_tanh" : 0,
      "debug_info" : "InceptionResnetV1\/Repeat_1\/block17_2\/Branch_1\/Conv2d_0a_1x1\/Conv2D",
      "pad_fill_mode" : 0,
      "pad_b" : 0,
      "pad_l" : 0,
      "top" : "InceptionResnetV1\/Repeat_1\/block17_2\/Branch_1\/Conv2d_0a_1x1\/Relu",
      "K" : 896,
      "blob_biases" : 457,
      "name" : "InceptionResnetV1\/Repeat_1\/block17_2\/Branch_1\/Conv2d_0a_1x1\/Conv2D",
      "has_batch_norm" : 0,
      "type" : "convolution",
      "n_groups" : 1,
      "pad_t" : 0,
      "has_biases" : 1,
      "C" : 128,
      "bottom" : "InceptionResnetV1\/Repeat_1\/block17_1\/Relu",
      "weights" : {
        "per_ch_qbias" : 461,
        "per_ch_qscale" : 463,
        "W_U6" : 459
      },
      "Nx" : 1,
      "pad_mode" : 1,
      "pad_value" : 0,
      "Ny" : 1,
      "n_parallel" : 1
    },
    {
      "pad_r" : 0,
      "fused_relu" : 1,
      "fused_tanh" : 0,
      "debug_info" : "InceptionResnetV1\/Repeat_1\/block17_2\/Branch_1\/Conv2d_0b_1x7\/Conv2D",
      "pad_fill_mode" : 0,
      "pad_b" : 0,
      "pad_l" : 0,
      "top" : "InceptionResnetV1\/Repeat_1\/block17_2\/Branch_1\/Conv2d_0b_1x7\/Relu",
      "K" : 128,
      "blob_biases" : 465,
      "name" : "InceptionResnetV1\/Repeat_1\/block17_2\/Branch_1\/Conv2d_0b_1x7\/Conv2D",
      "has_batch_norm" : 0,
      "type" : "convolution",
      "n_groups" : 1,
      "pad_t" : 0,
      "has_biases" : 1,
      "C" : 128,
      "bottom" : "InceptionResnetV1\/Repeat_1\/block17_2\/Branch_1\/Conv2d_0a_1x1\/Relu",
      "weights" : {
        "per_ch_qbias" : 469,
        "per_ch_qscale" : 471,
        "W_U6" : 467
      },
      "Nx" : 7,
      "pad_mode" : 1,
      "pad_value" : 0,
      "Ny" : 1,
      "n_parallel" : 1
    },
    {
      "pad_r" : 0,
      "fused_relu" : 1,
      "fused_tanh" : 0,
      "debug_info" : "InceptionResnetV1\/Repeat_1\/block17_2\/Branch_1\/Conv2d_0c_7x1\/Conv2D",
      "pad_fill_mode" : 0,
      "pad_b" : 0,
      "pad_l" : 0,
      "top" : "InceptionResnetV1\/Repeat_1\/block17_2\/Branch_1\/Conv2d_0c_7x1\/Relu",
      "K" : 128,
      "blob_biases" : 473,
      "name" : "InceptionResnetV1\/Repeat_1\/block17_2\/Branch_1\/Conv2d_0c_7x1\/Conv2D",
      "has_batch_norm" : 0,
      "type" : "convolution",
      "n_groups" : 1,
      "pad_t" : 0,
      "has_biases" : 1,
      "C" : 128,
      "bottom" : "InceptionResnetV1\/Repeat_1\/block17_2\/Branch_1\/Conv2d_0b_1x7\/Relu",
      "weights" : {
        "per_ch_qbias" : 477,
        "per_ch_qscale" : 479,
        "W_U6" : 475
      },
      "Nx" : 1,
      "pad_mode" : 1,
      "pad_value" : 0,
      "Ny" : 7,
      "n_parallel" : 1
    },
    {
      "weights" : {

      },
      "debug_info" : "InceptionResnetV1\/Repeat_1\/block17_2\/concat",
      "top" : "InceptionResnetV1\/Repeat_1\/block17_2\/concat",
      "type" : "concat",
      "name" : "InceptionResnetV1\/Repeat_1\/block17_2\/concat",
      "bottom" : "InceptionResnetV1\/Repeat_1\/block17_2\/Branch_0\/Conv2d_1x1\/Relu,InceptionResnetV1\/Repeat_1\/block17_2\/Branch_1\/Conv2d_0c_7x1\/Relu"
    },
    {
      "pad_r" : 0,
      "fused_relu" : 0,
      "fused_tanh" : 0,
      "debug_info" : "InceptionResnetV1\/Repeat_1\/block17_2\/Conv2d_1x1\/Conv2D",
      "pad_fill_mode" : 0,
      "pad_b" : 0,
      "pad_l" : 0,
      "top" : "InceptionResnetV1\/Repeat_1\/block17_2\/Conv2d_1x1\/Conv2D",
      "K" : 256,
      "blob_biases" : 481,
      "name" : "InceptionResnetV1\/Repeat_1\/block17_2\/Conv2d_1x1\/Conv2D",
      "has_batch_norm" : 0,
      "type" : "convolution",
      "n_groups" : 1,
      "pad_t" : 0,
      "has_biases" : 1,
      "C" : 896,
      "bottom" : "InceptionResnetV1\/Repeat_1\/block17_2\/concat",
      "weights" : {
        "per_ch_qbias" : 485,
        "per_ch_qscale" : 487,
        "W_U6" : 483
      },
      "Nx" : 1,
      "pad_mode" : 1,
      "pad_value" : 0,
      "Ny" : 1,
      "n_parallel" : 1
    },
    {
      "bottom" : "InceptionResnetV1\/Repeat_1\/block17_2\/mul\/x,InceptionResnetV1\/Repeat_1\/block17_2\/Conv2d_1x1\/Conv2D",
      "alpha" : 1,
      "operation" : 1,
      "weights" : {

      },
      "fused_relu" : 0,
      "debug_info" : "InceptionResnetV1\/Repeat_1\/block17_2\/mul",
      "nd_mode" : true,
      "top" : "InceptionResnetV1\/Repeat_1\/block17_2\/mul",
      "type" : "elementwise",
      "name" : "InceptionResnetV1\/Repeat_1\/block17_2\/mul",
      "beta" : 0
    },
    {
      "bottom" : "InceptionResnetV1\/Repeat_1\/block17_1\/Relu,InceptionResnetV1\/Repeat_1\/block17_2\/mul",
      "alpha" : 1,
      "operation" : 0,
      "weights" : {

      },
      "fused_relu" : 0,
      "debug_info" : "InceptionResnetV1\/Repeat_1\/block17_2\/add",
      "nd_mode" : true,
      "top" : "InceptionResnetV1\/Repeat_1\/block17_2\/add",
      "type" : "elementwise",
      "name" : "InceptionResnetV1\/Repeat_1\/block17_2\/add",
      "beta" : 0
    },
    {
      "bottom" : "InceptionResnetV1\/Repeat_1\/block17_2\/add",
      "weights" : {

      },
      "mode" : 0,
      "debug_info" : "InceptionResnetV1\/Repeat_1\/block17_2\/Relu",
      "top" : "InceptionResnetV1\/Repeat_1\/block17_2\/Relu",
      "type" : "activation",
      "name" : "InceptionResnetV1\/Repeat_1\/block17_2\/Relu"
    },
    {
      "pad_r" : 0,
      "fused_relu" : 1,
      "fused_tanh" : 0,
      "debug_info" : "InceptionResnetV1\/Repeat_1\/block17_3\/Branch_0\/Conv2d_1x1\/Conv2D",
      "pad_fill_mode" : 0,
      "pad_b" : 0,
      "pad_l" : 0,
      "top" : "InceptionResnetV1\/Repeat_1\/block17_3\/Branch_0\/Conv2d_1x1\/Relu",
      "K" : 896,
      "blob_biases" : 489,
      "name" : "InceptionResnetV1\/Repeat_1\/block17_3\/Branch_0\/Conv2d_1x1\/Conv2D",
      "has_batch_norm" : 0,
      "type" : "convolution",
      "n_groups" : 1,
      "pad_t" : 0,
      "has_biases" : 1,
      "C" : 128,
      "bottom" : "InceptionResnetV1\/Repeat_1\/block17_2\/Relu",
      "weights" : {
        "per_ch_qbias" : 493,
        "per_ch_qscale" : 495,
        "W_U6" : 491
      },
      "Nx" : 1,
      "pad_mode" : 1,
      "pad_value" : 0,
      "Ny" : 1,
      "n_parallel" : 1
    },
    {
      "pad_r" : 0,
      "fused_relu" : 1,
      "fused_tanh" : 0,
      "debug_info" : "InceptionResnetV1\/Repeat_1\/block17_3\/Branch_1\/Conv2d_0a_1x1\/Conv2D",
      "pad_fill_mode" : 0,
      "pad_b" : 0,
      "pad_l" : 0,
      "top" : "InceptionResnetV1\/Repeat_1\/block17_3\/Branch_1\/Conv2d_0a_1x1\/Relu",
      "K" : 896,
      "blob_biases" : 497,
      "name" : "InceptionResnetV1\/Repeat_1\/block17_3\/Branch_1\/Conv2d_0a_1x1\/Conv2D",
      "has_batch_norm" : 0,
      "type" : "convolution",
      "n_groups" : 1,
      "pad_t" : 0,
      "has_biases" : 1,
      "C" : 128,
      "bottom" : "InceptionResnetV1\/Repeat_1\/block17_2\/Relu",
      "weights" : {
        "per_ch_qbias" : 501,
        "per_ch_qscale" : 503,
        "W_U6" : 499
      },
      "Nx" : 1,
      "pad_mode" : 1,
      "pad_value" : 0,
      "Ny" : 1,
      "n_parallel" : 1
    },
    {
      "pad_r" : 0,
      "fused_relu" : 1,
      "fused_tanh" : 0,
      "debug_info" : "InceptionResnetV1\/Repeat_1\/block17_3\/Branch_1\/Conv2d_0b_1x7\/Conv2D",
      "pad_fill_mode" : 0,
      "pad_b" : 0,
      "pad_l" : 0,
      "top" : "InceptionResnetV1\/Repeat_1\/block17_3\/Branch_1\/Conv2d_0b_1x7\/Relu",
      "K" : 128,
      "blob_biases" : 505,
      "name" : "InceptionResnetV1\/Repeat_1\/block17_3\/Branch_1\/Conv2d_0b_1x7\/Conv2D",
      "has_batch_norm" : 0,
      "type" : "convolution",
      "n_groups" : 1,
      "pad_t" : 0,
      "has_biases" : 1,
      "C" : 128,
      "bottom" : "InceptionResnetV1\/Repeat_1\/block17_3\/Branch_1\/Conv2d_0a_1x1\/Relu",
      "weights" : {
        "per_ch_qbias" : 509,
        "per_ch_qscale" : 511,
        "W_U6" : 507
      },
      "Nx" : 7,
      "pad_mode" : 1,
      "pad_value" : 0,
      "Ny" : 1,
      "n_parallel" : 1
    },
    {
      "pad_r" : 0,
      "fused_relu" : 1,
      "fused_tanh" : 0,
      "debug_info" : "InceptionResnetV1\/Repeat_1\/block17_3\/Branch_1\/Conv2d_0c_7x1\/Conv2D",
      "pad_fill_mode" : 0,
      "pad_b" : 0,
      "pad_l" : 0,
      "top" : "InceptionResnetV1\/Repeat_1\/block17_3\/Branch_1\/Conv2d_0c_7x1\/Relu",
      "K" : 128,
      "blob_biases" : 513,
      "name" : "InceptionResnetV1\/Repeat_1\/block17_3\/Branch_1\/Conv2d_0c_7x1\/Conv2D",
      "has_batch_norm" : 0,
      "type" : "convolution",
      "n_groups" : 1,
      "pad_t" : 0,
      "has_biases" : 1,
      "C" : 128,
      "bottom" : "InceptionResnetV1\/Repeat_1\/block17_3\/Branch_1\/Conv2d_0b_1x7\/Relu",
      "weights" : {
        "per_ch_qbias" : 517,
        "per_ch_qscale" : 519,
        "W_U6" : 515
      },
      "Nx" : 1,
      "pad_mode" : 1,
      "pad_value" : 0,
      "Ny" : 7,
      "n_parallel" : 1
    },
    {
      "weights" : {

      },
      "debug_info" : "InceptionResnetV1\/Repeat_1\/block17_3\/concat",
      "top" : "InceptionResnetV1\/Repeat_1\/block17_3\/concat",
      "type" : "concat",
      "name" : "InceptionResnetV1\/Repeat_1\/block17_3\/concat",
      "bottom" : "InceptionResnetV1\/Repeat_1\/block17_3\/Branch_0\/Conv2d_1x1\/Relu,InceptionResnetV1\/Repeat_1\/block17_3\/Branch_1\/Conv2d_0c_7x1\/Relu"
    },
    {
      "pad_r" : 0,
      "fused_relu" : 0,
      "fused_tanh" : 0,
      "debug_info" : "InceptionResnetV1\/Repeat_1\/block17_3\/Conv2d_1x1\/Conv2D",
      "pad_fill_mode" : 0,
      "pad_b" : 0,
      "pad_l" : 0,
      "top" : "InceptionResnetV1\/Repeat_1\/block17_3\/Conv2d_1x1\/Conv2D",
      "K" : 256,
      "blob_biases" : 521,
      "name" : "InceptionResnetV1\/Repeat_1\/block17_3\/Conv2d_1x1\/Conv2D",
      "has_batch_norm" : 0,
      "type" : "convolution",
      "n_groups" : 1,
      "pad_t" : 0,
      "has_biases" : 1,
      "C" : 896,
      "bottom" : "InceptionResnetV1\/Repeat_1\/block17_3\/concat",
      "weights" : {
        "per_ch_qbias" : 525,
        "per_ch_qscale" : 527,
        "W_U6" : 523
      },
      "Nx" : 1,
      "pad_mode" : 1,
      "pad_value" : 0,
      "Ny" : 1,
      "n_parallel" : 1
    },
    {
      "bottom" : "InceptionResnetV1\/Repeat_1\/block17_3\/mul\/x,InceptionResnetV1\/Repeat_1\/block17_3\/Conv2d_1x1\/Conv2D",
      "alpha" : 1,
      "operation" : 1,
      "weights" : {

      },
      "fused_relu" : 0,
      "debug_info" : "InceptionResnetV1\/Repeat_1\/block17_3\/mul",
      "nd_mode" : true,
      "top" : "InceptionResnetV1\/Repeat_1\/block17_3\/mul",
      "type" : "elementwise",
      "name" : "InceptionResnetV1\/Repeat_1\/block17_3\/mul",
      "beta" : 0
    },
    {
      "bottom" : "InceptionResnetV1\/Repeat_1\/block17_2\/Relu,InceptionResnetV1\/Repeat_1\/block17_3\/mul",
      "alpha" : 1,
      "operation" : 0,
      "weights" : {

      },
      "fused_relu" : 0,
      "debug_info" : "InceptionResnetV1\/Repeat_1\/block17_3\/add",
      "nd_mode" : true,
      "top" : "InceptionResnetV1\/Repeat_1\/block17_3\/add",
      "type" : "elementwise",
      "name" : "InceptionResnetV1\/Repeat_1\/block17_3\/add",
      "beta" : 0
    },
    {
      "bottom" : "InceptionResnetV1\/Repeat_1\/block17_3\/add",
      "weights" : {

      },
      "mode" : 0,
      "debug_info" : "InceptionResnetV1\/Repeat_1\/block17_3\/Relu",
      "top" : "InceptionResnetV1\/Repeat_1\/block17_3\/Relu",
      "type" : "activation",
      "name" : "InceptionResnetV1\/Repeat_1\/block17_3\/Relu"
    },
    {
      "pad_r" : 0,
      "fused_relu" : 1,
      "fused_tanh" : 0,
      "debug_info" : "InceptionResnetV1\/Repeat_1\/block17_4\/Branch_0\/Conv2d_1x1\/Conv2D",
      "pad_fill_mode" : 0,
      "pad_b" : 0,
      "pad_l" : 0,
      "top" : "InceptionResnetV1\/Repeat_1\/block17_4\/Branch_0\/Conv2d_1x1\/Relu",
      "K" : 896,
      "blob_biases" : 529,
      "name" : "InceptionResnetV1\/Repeat_1\/block17_4\/Branch_0\/Conv2d_1x1\/Conv2D",
      "has_batch_norm" : 0,
      "type" : "convolution",
      "n_groups" : 1,
      "pad_t" : 0,
      "has_biases" : 1,
      "C" : 128,
      "bottom" : "InceptionResnetV1\/Repeat_1\/block17_3\/Relu",
      "weights" : {
        "per_ch_qbias" : 533,
        "per_ch_qscale" : 535,
        "W_U6" : 531
      },
      "Nx" : 1,
      "pad_mode" : 1,
      "pad_value" : 0,
      "Ny" : 1,
      "n_parallel" : 1
    },
    {
      "pad_r" : 0,
      "fused_relu" : 1,
      "fused_tanh" : 0,
      "debug_info" : "InceptionResnetV1\/Repeat_1\/block17_4\/Branch_1\/Conv2d_0a_1x1\/Conv2D",
      "pad_fill_mode" : 0,
      "pad_b" : 0,
      "pad_l" : 0,
      "top" : "InceptionResnetV1\/Repeat_1\/block17_4\/Branch_1\/Conv2d_0a_1x1\/Relu",
      "K" : 896,
      "blob_biases" : 537,
      "name" : "InceptionResnetV1\/Repeat_1\/block17_4\/Branch_1\/Conv2d_0a_1x1\/Conv2D",
      "has_batch_norm" : 0,
      "type" : "convolution",
      "n_groups" : 1,
      "pad_t" : 0,
      "has_biases" : 1,
      "C" : 128,
      "bottom" : "InceptionResnetV1\/Repeat_1\/block17_3\/Relu",
      "weights" : {
        "per_ch_qbias" : 541,
        "per_ch_qscale" : 543,
        "W_U6" : 539
      },
      "Nx" : 1,
      "pad_mode" : 1,
      "pad_value" : 0,
      "Ny" : 1,
      "n_parallel" : 1
    },
    {
      "pad_r" : 0,
      "fused_relu" : 1,
      "fused_tanh" : 0,
      "debug_info" : "InceptionResnetV1\/Repeat_1\/block17_4\/Branch_1\/Conv2d_0b_1x7\/Conv2D",
      "pad_fill_mode" : 0,
      "pad_b" : 0,
      "pad_l" : 0,
      "top" : "InceptionResnetV1\/Repeat_1\/block17_4\/Branch_1\/Conv2d_0b_1x7\/Relu",
      "K" : 128,
      "blob_biases" : 545,
      "name" : "InceptionResnetV1\/Repeat_1\/block17_4\/Branch_1\/Conv2d_0b_1x7\/Conv2D",
      "has_batch_norm" : 0,
      "type" : "convolution",
      "n_groups" : 1,
      "pad_t" : 0,
      "has_biases" : 1,
      "C" : 128,
      "bottom" : "InceptionResnetV1\/Repeat_1\/block17_4\/Branch_1\/Conv2d_0a_1x1\/Relu",
      "weights" : {
        "per_ch_qbias" : 549,
        "per_ch_qscale" : 551,
        "W_U6" : 547
      },
      "Nx" : 7,
      "pad_mode" : 1,
      "pad_value" : 0,
      "Ny" : 1,
      "n_parallel" : 1
    },
    {
      "pad_r" : 0,
      "fused_relu" : 1,
      "fused_tanh" : 0,
      "debug_info" : "InceptionResnetV1\/Repeat_1\/block17_4\/Branch_1\/Conv2d_0c_7x1\/Conv2D",
      "pad_fill_mode" : 0,
      "pad_b" : 0,
      "pad_l" : 0,
      "top" : "InceptionResnetV1\/Repeat_1\/block17_4\/Branch_1\/Conv2d_0c_7x1\/Relu",
      "K" : 128,
      "blob_biases" : 553,
      "name" : "InceptionResnetV1\/Repeat_1\/block17_4\/Branch_1\/Conv2d_0c_7x1\/Conv2D",
      "has_batch_norm" : 0,
      "type" : "convolution",
      "n_groups" : 1,
      "pad_t" : 0,
      "has_biases" : 1,
      "C" : 128,
      "bottom" : "InceptionResnetV1\/Repeat_1\/block17_4\/Branch_1\/Conv2d_0b_1x7\/Relu",
      "weights" : {
        "per_ch_qbias" : 557,
        "per_ch_qscale" : 559,
        "W_U6" : 555
      },
      "Nx" : 1,
      "pad_mode" : 1,
      "pad_value" : 0,
      "Ny" : 7,
      "n_parallel" : 1
    },
    {
      "weights" : {

      },
      "debug_info" : "InceptionResnetV1\/Repeat_1\/block17_4\/concat",
      "top" : "InceptionResnetV1\/Repeat_1\/block17_4\/concat",
      "type" : "concat",
      "name" : "InceptionResnetV1\/Repeat_1\/block17_4\/concat",
      "bottom" : "InceptionResnetV1\/Repeat_1\/block17_4\/Branch_0\/Conv2d_1x1\/Relu,InceptionResnetV1\/Repeat_1\/block17_4\/Branch_1\/Conv2d_0c_7x1\/Relu"
    },
    {
      "pad_r" : 0,
      "fused_relu" : 0,
      "fused_tanh" : 0,
      "debug_info" : "InceptionResnetV1\/Repeat_1\/block17_4\/Conv2d_1x1\/Conv2D",
      "pad_fill_mode" : 0,
      "pad_b" : 0,
      "pad_l" : 0,
      "top" : "InceptionResnetV1\/Repeat_1\/block17_4\/Conv2d_1x1\/Conv2D",
      "K" : 256,
      "blob_biases" : 561,
      "name" : "InceptionResnetV1\/Repeat_1\/block17_4\/Conv2d_1x1\/Conv2D",
      "has_batch_norm" : 0,
      "type" : "convolution",
      "n_groups" : 1,
      "pad_t" : 0,
      "has_biases" : 1,
      "C" : 896,
      "bottom" : "InceptionResnetV1\/Repeat_1\/block17_4\/concat",
      "weights" : {
        "per_ch_qbias" : 565,
        "per_ch_qscale" : 567,
        "W_U6" : 563
      },
      "Nx" : 1,
      "pad_mode" : 1,
      "pad_value" : 0,
      "Ny" : 1,
      "n_parallel" : 1
    },
    {
      "bottom" : "InceptionResnetV1\/Repeat_1\/block17_4\/mul\/x,InceptionResnetV1\/Repeat_1\/block17_4\/Conv2d_1x1\/Conv2D",
      "alpha" : 1,
      "operation" : 1,
      "weights" : {

      },
      "fused_relu" : 0,
      "debug_info" : "InceptionResnetV1\/Repeat_1\/block17_4\/mul",
      "nd_mode" : true,
      "top" : "InceptionResnetV1\/Repeat_1\/block17_4\/mul",
      "type" : "elementwise",
      "name" : "InceptionResnetV1\/Repeat_1\/block17_4\/mul",
      "beta" : 0
    },
    {
      "bottom" : "InceptionResnetV1\/Repeat_1\/block17_3\/Relu,InceptionResnetV1\/Repeat_1\/block17_4\/mul",
      "alpha" : 1,
      "operation" : 0,
      "weights" : {

      },
      "fused_relu" : 0,
      "debug_info" : "InceptionResnetV1\/Repeat_1\/block17_4\/add",
      "nd_mode" : true,
      "top" : "InceptionResnetV1\/Repeat_1\/block17_4\/add",
      "type" : "elementwise",
      "name" : "InceptionResnetV1\/Repeat_1\/block17_4\/add",
      "beta" : 0
    },
    {
      "bottom" : "InceptionResnetV1\/Repeat_1\/block17_4\/add",
      "weights" : {

      },
      "mode" : 0,
      "debug_info" : "InceptionResnetV1\/Repeat_1\/block17_4\/Relu",
      "top" : "InceptionResnetV1\/Repeat_1\/block17_4\/Relu",
      "type" : "activation",
      "name" : "InceptionResnetV1\/Repeat_1\/block17_4\/Relu"
    },
    {
      "pad_r" : 0,
      "fused_relu" : 1,
      "fused_tanh" : 0,
      "debug_info" : "InceptionResnetV1\/Repeat_1\/block17_5\/Branch_0\/Conv2d_1x1\/Conv2D",
      "pad_fill_mode" : 0,
      "pad_b" : 0,
      "pad_l" : 0,
      "top" : "InceptionResnetV1\/Repeat_1\/block17_5\/Branch_0\/Conv2d_1x1\/Relu",
      "K" : 896,
      "blob_biases" : 569,
      "name" : "InceptionResnetV1\/Repeat_1\/block17_5\/Branch_0\/Conv2d_1x1\/Conv2D",
      "has_batch_norm" : 0,
      "type" : "convolution",
      "n_groups" : 1,
      "pad_t" : 0,
      "has_biases" : 1,
      "C" : 128,
      "bottom" : "InceptionResnetV1\/Repeat_1\/block17_4\/Relu",
      "weights" : {
        "per_ch_qbias" : 573,
        "per_ch_qscale" : 575,
        "W_U6" : 571
      },
      "Nx" : 1,
      "pad_mode" : 1,
      "pad_value" : 0,
      "Ny" : 1,
      "n_parallel" : 1
    },
    {
      "pad_r" : 0,
      "fused_relu" : 1,
      "fused_tanh" : 0,
      "debug_info" : "InceptionResnetV1\/Repeat_1\/block17_5\/Branch_1\/Conv2d_0a_1x1\/Conv2D",
      "pad_fill_mode" : 0,
      "pad_b" : 0,
      "pad_l" : 0,
      "top" : "InceptionResnetV1\/Repeat_1\/block17_5\/Branch_1\/Conv2d_0a_1x1\/Relu",
      "K" : 896,
      "blob_biases" : 577,
      "name" : "InceptionResnetV1\/Repeat_1\/block17_5\/Branch_1\/Conv2d_0a_1x1\/Conv2D",
      "has_batch_norm" : 0,
      "type" : "convolution",
      "n_groups" : 1,
      "pad_t" : 0,
      "has_biases" : 1,
      "C" : 128,
      "bottom" : "InceptionResnetV1\/Repeat_1\/block17_4\/Relu",
      "weights" : {
        "per_ch_qbias" : 581,
        "per_ch_qscale" : 583,
        "W_U6" : 579
      },
      "Nx" : 1,
      "pad_mode" : 1,
      "pad_value" : 0,
      "Ny" : 1,
      "n_parallel" : 1
    },
    {
      "pad_r" : 0,
      "fused_relu" : 1,
      "fused_tanh" : 0,
      "debug_info" : "InceptionResnetV1\/Repeat_1\/block17_5\/Branch_1\/Conv2d_0b_1x7\/Conv2D",
      "pad_fill_mode" : 0,
      "pad_b" : 0,
      "pad_l" : 0,
      "top" : "InceptionResnetV1\/Repeat_1\/block17_5\/Branch_1\/Conv2d_0b_1x7\/Relu",
      "K" : 128,
      "blob_biases" : 585,
      "name" : "InceptionResnetV1\/Repeat_1\/block17_5\/Branch_1\/Conv2d_0b_1x7\/Conv2D",
      "has_batch_norm" : 0,
      "type" : "convolution",
      "n_groups" : 1,
      "pad_t" : 0,
      "has_biases" : 1,
      "C" : 128,
      "bottom" : "InceptionResnetV1\/Repeat_1\/block17_5\/Branch_1\/Conv2d_0a_1x1\/Relu",
      "weights" : {
        "per_ch_qbias" : 589,
        "per_ch_qscale" : 591,
        "W_U6" : 587
      },
      "Nx" : 7,
      "pad_mode" : 1,
      "pad_value" : 0,
      "Ny" : 1,
      "n_parallel" : 1
    },
    {
      "pad_r" : 0,
      "fused_relu" : 1,
      "fused_tanh" : 0,
      "debug_info" : "InceptionResnetV1\/Repeat_1\/block17_5\/Branch_1\/Conv2d_0c_7x1\/Conv2D",
      "pad_fill_mode" : 0,
      "pad_b" : 0,
      "pad_l" : 0,
      "top" : "InceptionResnetV1\/Repeat_1\/block17_5\/Branch_1\/Conv2d_0c_7x1\/Relu",
      "K" : 128,
      "blob_biases" : 593,
      "name" : "InceptionResnetV1\/Repeat_1\/block17_5\/Branch_1\/Conv2d_0c_7x1\/Conv2D",
      "has_batch_norm" : 0,
      "type" : "convolution",
      "n_groups" : 1,
      "pad_t" : 0,
      "has_biases" : 1,
      "C" : 128,
      "bottom" : "InceptionResnetV1\/Repeat_1\/block17_5\/Branch_1\/Conv2d_0b_1x7\/Relu",
      "weights" : {
        "per_ch_qbias" : 597,
        "per_ch_qscale" : 599,
        "W_U6" : 595
      },
      "Nx" : 1,
      "pad_mode" : 1,
      "pad_value" : 0,
      "Ny" : 7,
      "n_parallel" : 1
    },
    {
      "weights" : {

      },
      "debug_info" : "InceptionResnetV1\/Repeat_1\/block17_5\/concat",
      "top" : "InceptionResnetV1\/Repeat_1\/block17_5\/concat",
      "type" : "concat",
      "name" : "InceptionResnetV1\/Repeat_1\/block17_5\/concat",
      "bottom" : "InceptionResnetV1\/Repeat_1\/block17_5\/Branch_0\/Conv2d_1x1\/Relu,InceptionResnetV1\/Repeat_1\/block17_5\/Branch_1\/Conv2d_0c_7x1\/Relu"
    },
    {
      "pad_r" : 0,
      "fused_relu" : 0,
      "fused_tanh" : 0,
      "debug_info" : "InceptionResnetV1\/Repeat_1\/block17_5\/Conv2d_1x1\/Conv2D",
      "pad_fill_mode" : 0,
      "pad_b" : 0,
      "pad_l" : 0,
      "top" : "InceptionResnetV1\/Repeat_1\/block17_5\/Conv2d_1x1\/Conv2D",
      "K" : 256,
      "blob_biases" : 601,
      "name" : "InceptionResnetV1\/Repeat_1\/block17_5\/Conv2d_1x1\/Conv2D",
      "has_batch_norm" : 0,
      "type" : "convolution",
      "n_groups" : 1,
      "pad_t" : 0,
      "has_biases" : 1,
      "C" : 896,
      "bottom" : "InceptionResnetV1\/Repeat_1\/block17_5\/concat",
      "weights" : {
        "per_ch_qbias" : 605,
        "per_ch_qscale" : 607,
        "W_U6" : 603
      },
      "Nx" : 1,
      "pad_mode" : 1,
      "pad_value" : 0,
      "Ny" : 1,
      "n_parallel" : 1
    },
    {
      "bottom" : "InceptionResnetV1\/Repeat_1\/block17_5\/mul\/x,InceptionResnetV1\/Repeat_1\/block17_5\/Conv2d_1x1\/Conv2D",
      "alpha" : 1,
      "operation" : 1,
      "weights" : {

      },
      "fused_relu" : 0,
      "debug_info" : "InceptionResnetV1\/Repeat_1\/block17_5\/mul",
      "nd_mode" : true,
      "top" : "InceptionResnetV1\/Repeat_1\/block17_5\/mul",
      "type" : "elementwise",
      "name" : "InceptionResnetV1\/Repeat_1\/block17_5\/mul",
      "beta" : 0
    },
    {
      "bottom" : "InceptionResnetV1\/Repeat_1\/block17_4\/Relu,InceptionResnetV1\/Repeat_1\/block17_5\/mul",
      "alpha" : 1,
      "operation" : 0,
      "weights" : {

      },
      "fused_relu" : 0,
      "debug_info" : "InceptionResnetV1\/Repeat_1\/block17_5\/add",
      "nd_mode" : true,
      "top" : "InceptionResnetV1\/Repeat_1\/block17_5\/add",
      "type" : "elementwise",
      "name" : "InceptionResnetV1\/Repeat_1\/block17_5\/add",
      "beta" : 0
    },
    {
      "bottom" : "InceptionResnetV1\/Repeat_1\/block17_5\/add",
      "weights" : {

      },
      "mode" : 0,
      "debug_info" : "InceptionResnetV1\/Repeat_1\/block17_5\/Relu",
      "top" : "InceptionResnetV1\/Repeat_1\/block17_5\/Relu",
      "type" : "activation",
      "name" : "InceptionResnetV1\/Repeat_1\/block17_5\/Relu"
    },
    {
      "pad_r" : 0,
      "fused_relu" : 1,
      "fused_tanh" : 0,
      "debug_info" : "InceptionResnetV1\/Repeat_1\/block17_6\/Branch_0\/Conv2d_1x1\/Conv2D",
      "pad_fill_mode" : 0,
      "pad_b" : 0,
      "pad_l" : 0,
      "top" : "InceptionResnetV1\/Repeat_1\/block17_6\/Branch_0\/Conv2d_1x1\/Relu",
      "K" : 896,
      "blob_biases" : 609,
      "name" : "InceptionResnetV1\/Repeat_1\/block17_6\/Branch_0\/Conv2d_1x1\/Conv2D",
      "has_batch_norm" : 0,
      "type" : "convolution",
      "n_groups" : 1,
      "pad_t" : 0,
      "has_biases" : 1,
      "C" : 128,
      "bottom" : "InceptionResnetV1\/Repeat_1\/block17_5\/Relu",
      "weights" : {
        "per_ch_qbias" : 613,
        "per_ch_qscale" : 615,
        "W_U6" : 611
      },
      "Nx" : 1,
      "pad_mode" : 1,
      "pad_value" : 0,
      "Ny" : 1,
      "n_parallel" : 1
    },
    {
      "pad_r" : 0,
      "fused_relu" : 1,
      "fused_tanh" : 0,
      "debug_info" : "InceptionResnetV1\/Repeat_1\/block17_6\/Branch_1\/Conv2d_0a_1x1\/Conv2D",
      "pad_fill_mode" : 0,
      "pad_b" : 0,
      "pad_l" : 0,
      "top" : "InceptionResnetV1\/Repeat_1\/block17_6\/Branch_1\/Conv2d_0a_1x1\/Relu",
      "K" : 896,
      "blob_biases" : 617,
      "name" : "InceptionResnetV1\/Repeat_1\/block17_6\/Branch_1\/Conv2d_0a_1x1\/Conv2D",
      "has_batch_norm" : 0,
      "type" : "convolution",
      "n_groups" : 1,
      "pad_t" : 0,
      "has_biases" : 1,
      "C" : 128,
      "bottom" : "InceptionResnetV1\/Repeat_1\/block17_5\/Relu",
      "weights" : {
        "per_ch_qbias" : 621,
        "per_ch_qscale" : 623,
        "W_U6" : 619
      },
      "Nx" : 1,
      "pad_mode" : 1,
      "pad_value" : 0,
      "Ny" : 1,
      "n_parallel" : 1
    },
    {
      "pad_r" : 0,
      "fused_relu" : 1,
      "fused_tanh" : 0,
      "debug_info" : "InceptionResnetV1\/Repeat_1\/block17_6\/Branch_1\/Conv2d_0b_1x7\/Conv2D",
      "pad_fill_mode" : 0,
      "pad_b" : 0,
      "pad_l" : 0,
      "top" : "InceptionResnetV1\/Repeat_1\/block17_6\/Branch_1\/Conv2d_0b_1x7\/Relu",
      "K" : 128,
      "blob_biases" : 625,
      "name" : "InceptionResnetV1\/Repeat_1\/block17_6\/Branch_1\/Conv2d_0b_1x7\/Conv2D",
      "has_batch_norm" : 0,
      "type" : "convolution",
      "n_groups" : 1,
      "pad_t" : 0,
      "has_biases" : 1,
      "C" : 128,
      "bottom" : "InceptionResnetV1\/Repeat_1\/block17_6\/Branch_1\/Conv2d_0a_1x1\/Relu",
      "weights" : {
        "per_ch_qbias" : 629,
        "per_ch_qscale" : 631,
        "W_U6" : 627
      },
      "Nx" : 7,
      "pad_mode" : 1,
      "pad_value" : 0,
      "Ny" : 1,
      "n_parallel" : 1
    },
    {
      "pad_r" : 0,
      "fused_relu" : 1,
      "fused_tanh" : 0,
      "debug_info" : "InceptionResnetV1\/Repeat_1\/block17_6\/Branch_1\/Conv2d_0c_7x1\/Conv2D",
      "pad_fill_mode" : 0,
      "pad_b" : 0,
      "pad_l" : 0,
      "top" : "InceptionResnetV1\/Repeat_1\/block17_6\/Branch_1\/Conv2d_0c_7x1\/Relu",
      "K" : 128,
      "blob_biases" : 633,
      "name" : "InceptionResnetV1\/Repeat_1\/block17_6\/Branch_1\/Conv2d_0c_7x1\/Conv2D",
      "has_batch_norm" : 0,
      "type" : "convolution",
      "n_groups" : 1,
      "pad_t" : 0,
      "has_biases" : 1,
      "C" : 128,
      "bottom" : "InceptionResnetV1\/Repeat_1\/block17_6\/Branch_1\/Conv2d_0b_1x7\/Relu",
      "weights" : {
        "per_ch_qbias" : 637,
        "per_ch_qscale" : 639,
        "W_U6" : 635
      },
      "Nx" : 1,
      "pad_mode" : 1,
      "pad_value" : 0,
      "Ny" : 7,
      "n_parallel" : 1
    },
    {
      "weights" : {

      },
      "debug_info" : "InceptionResnetV1\/Repeat_1\/block17_6\/concat",
      "top" : "InceptionResnetV1\/Repeat_1\/block17_6\/concat",
      "type" : "concat",
      "name" : "InceptionResnetV1\/Repeat_1\/block17_6\/concat",
      "bottom" : "InceptionResnetV1\/Repeat_1\/block17_6\/Branch_0\/Conv2d_1x1\/Relu,InceptionResnetV1\/Repeat_1\/block17_6\/Branch_1\/Conv2d_0c_7x1\/Relu"
    },
    {
      "pad_r" : 0,
      "fused_relu" : 0,
      "fused_tanh" : 0,
      "debug_info" : "InceptionResnetV1\/Repeat_1\/block17_6\/Conv2d_1x1\/Conv2D",
      "pad_fill_mode" : 0,
      "pad_b" : 0,
      "pad_l" : 0,
      "top" : "InceptionResnetV1\/Repeat_1\/block17_6\/Conv2d_1x1\/Conv2D",
      "K" : 256,
      "blob_biases" : 641,
      "name" : "InceptionResnetV1\/Repeat_1\/block17_6\/Conv2d_1x1\/Conv2D",
      "has_batch_norm" : 0,
      "type" : "convolution",
      "n_groups" : 1,
      "pad_t" : 0,
      "has_biases" : 1,
      "C" : 896,
      "bottom" : "InceptionResnetV1\/Repeat_1\/block17_6\/concat",
      "weights" : {
        "per_ch_qbias" : 645,
        "per_ch_qscale" : 647,
        "W_U6" : 643
      },
      "Nx" : 1,
      "pad_mode" : 1,
      "pad_value" : 0,
      "Ny" : 1,
      "n_parallel" : 1
    },
    {
      "bottom" : "InceptionResnetV1\/Repeat_1\/block17_6\/mul\/x,InceptionResnetV1\/Repeat_1\/block17_6\/Conv2d_1x1\/Conv2D",
      "alpha" : 1,
      "operation" : 1,
      "weights" : {

      },
      "fused_relu" : 0,
      "debug_info" : "InceptionResnetV1\/Repeat_1\/block17_6\/mul",
      "nd_mode" : true,
      "top" : "InceptionResnetV1\/Repeat_1\/block17_6\/mul",
      "type" : "elementwise",
      "name" : "InceptionResnetV1\/Repeat_1\/block17_6\/mul",
      "beta" : 0
    },
    {
      "bottom" : "InceptionResnetV1\/Repeat_1\/block17_5\/Relu,InceptionResnetV1\/Repeat_1\/block17_6\/mul",
      "alpha" : 1,
      "operation" : 0,
      "weights" : {

      },
      "fused_relu" : 0,
      "debug_info" : "InceptionResnetV1\/Repeat_1\/block17_6\/add",
      "nd_mode" : true,
      "top" : "InceptionResnetV1\/Repeat_1\/block17_6\/add",
      "type" : "elementwise",
      "name" : "InceptionResnetV1\/Repeat_1\/block17_6\/add",
      "beta" : 0
    },
    {
      "bottom" : "InceptionResnetV1\/Repeat_1\/block17_6\/add",
      "weights" : {

      },
      "mode" : 0,
      "debug_info" : "InceptionResnetV1\/Repeat_1\/block17_6\/Relu",
      "top" : "InceptionResnetV1\/Repeat_1\/block17_6\/Relu",
      "type" : "activation",
      "name" : "InceptionResnetV1\/Repeat_1\/block17_6\/Relu"
    },
    {
      "pad_r" : 0,
      "fused_relu" : 1,
      "fused_tanh" : 0,
      "debug_info" : "InceptionResnetV1\/Repeat_1\/block17_7\/Branch_0\/Conv2d_1x1\/Conv2D",
      "pad_fill_mode" : 0,
      "pad_b" : 0,
      "pad_l" : 0,
      "top" : "InceptionResnetV1\/Repeat_1\/block17_7\/Branch_0\/Conv2d_1x1\/Relu",
      "K" : 896,
      "blob_biases" : 649,
      "name" : "InceptionResnetV1\/Repeat_1\/block17_7\/Branch_0\/Conv2d_1x1\/Conv2D",
      "has_batch_norm" : 0,
      "type" : "convolution",
      "n_groups" : 1,
      "pad_t" : 0,
      "has_biases" : 1,
      "C" : 128,
      "bottom" : "InceptionResnetV1\/Repeat_1\/block17_6\/Relu",
      "weights" : {
        "per_ch_qbias" : 653,
        "per_ch_qscale" : 655,
        "W_U6" : 651
      },
      "Nx" : 1,
      "pad_mode" : 1,
      "pad_value" : 0,
      "Ny" : 1,
      "n_parallel" : 1
    },
    {
      "pad_r" : 0,
      "fused_relu" : 1,
      "fused_tanh" : 0,
      "debug_info" : "InceptionResnetV1\/Repeat_1\/block17_7\/Branch_1\/Conv2d_0a_1x1\/Conv2D",
      "pad_fill_mode" : 0,
      "pad_b" : 0,
      "pad_l" : 0,
      "top" : "InceptionResnetV1\/Repeat_1\/block17_7\/Branch_1\/Conv2d_0a_1x1\/Relu",
      "K" : 896,
      "blob_biases" : 657,
      "name" : "InceptionResnetV1\/Repeat_1\/block17_7\/Branch_1\/Conv2d_0a_1x1\/Conv2D",
      "has_batch_norm" : 0,
      "type" : "convolution",
      "n_groups" : 1,
      "pad_t" : 0,
      "has_biases" : 1,
      "C" : 128,
      "bottom" : "InceptionResnetV1\/Repeat_1\/block17_6\/Relu",
      "weights" : {
        "per_ch_qbias" : 661,
        "per_ch_qscale" : 663,
        "W_U6" : 659
      },
      "Nx" : 1,
      "pad_mode" : 1,
      "pad_value" : 0,
      "Ny" : 1,
      "n_parallel" : 1
    },
    {
      "pad_r" : 0,
      "fused_relu" : 1,
      "fused_tanh" : 0,
      "debug_info" : "InceptionResnetV1\/Repeat_1\/block17_7\/Branch_1\/Conv2d_0b_1x7\/Conv2D",
      "pad_fill_mode" : 0,
      "pad_b" : 0,
      "pad_l" : 0,
      "top" : "InceptionResnetV1\/Repeat_1\/block17_7\/Branch_1\/Conv2d_0b_1x7\/Relu",
      "K" : 128,
      "blob_biases" : 665,
      "name" : "InceptionResnetV1\/Repeat_1\/block17_7\/Branch_1\/Conv2d_0b_1x7\/Conv2D",
      "has_batch_norm" : 0,
      "type" : "convolution",
      "n_groups" : 1,
      "pad_t" : 0,
      "has_biases" : 1,
      "C" : 128,
      "bottom" : "InceptionResnetV1\/Repeat_1\/block17_7\/Branch_1\/Conv2d_0a_1x1\/Relu",
      "weights" : {
        "per_ch_qbias" : 669,
        "per_ch_qscale" : 671,
        "W_U6" : 667
      },
      "Nx" : 7,
      "pad_mode" : 1,
      "pad_value" : 0,
      "Ny" : 1,
      "n_parallel" : 1
    },
    {
      "pad_r" : 0,
      "fused_relu" : 1,
      "fused_tanh" : 0,
      "debug_info" : "InceptionResnetV1\/Repeat_1\/block17_7\/Branch_1\/Conv2d_0c_7x1\/Conv2D",
      "pad_fill_mode" : 0,
      "pad_b" : 0,
      "pad_l" : 0,
      "top" : "InceptionResnetV1\/Repeat_1\/block17_7\/Branch_1\/Conv2d_0c_7x1\/Relu",
      "K" : 128,
      "blob_biases" : 673,
      "name" : "InceptionResnetV1\/Repeat_1\/block17_7\/Branch_1\/Conv2d_0c_7x1\/Conv2D",
      "has_batch_norm" : 0,
      "type" : "convolution",
      "n_groups" : 1,
      "pad_t" : 0,
      "has_biases" : 1,
      "C" : 128,
      "bottom" : "InceptionResnetV1\/Repeat_1\/block17_7\/Branch_1\/Conv2d_0b_1x7\/Relu",
      "weights" : {
        "per_ch_qbias" : 677,
        "per_ch_qscale" : 679,
        "W_U6" : 675
      },
      "Nx" : 1,
      "pad_mode" : 1,
      "pad_value" : 0,
      "Ny" : 7,
      "n_parallel" : 1
    },
    {
      "weights" : {

      },
      "debug_info" : "InceptionResnetV1\/Repeat_1\/block17_7\/concat",
      "top" : "InceptionResnetV1\/Repeat_1\/block17_7\/concat",
      "type" : "concat",
      "name" : "InceptionResnetV1\/Repeat_1\/block17_7\/concat",
      "bottom" : "InceptionResnetV1\/Repeat_1\/block17_7\/Branch_0\/Conv2d_1x1\/Relu,InceptionResnetV1\/Repeat_1\/block17_7\/Branch_1\/Conv2d_0c_7x1\/Relu"
    },
    {
      "pad_r" : 0,
      "fused_relu" : 0,
      "fused_tanh" : 0,
      "debug_info" : "InceptionResnetV1\/Repeat_1\/block17_7\/Conv2d_1x1\/Conv2D",
      "pad_fill_mode" : 0,
      "pad_b" : 0,
      "pad_l" : 0,
      "top" : "InceptionResnetV1\/Repeat_1\/block17_7\/Conv2d_1x1\/Conv2D",
      "K" : 256,
      "blob_biases" : 681,
      "name" : "InceptionResnetV1\/Repeat_1\/block17_7\/Conv2d_1x1\/Conv2D",
      "has_batch_norm" : 0,
      "type" : "convolution",
      "n_groups" : 1,
      "pad_t" : 0,
      "has_biases" : 1,
      "C" : 896,
      "bottom" : "InceptionResnetV1\/Repeat_1\/block17_7\/concat",
      "weights" : {
        "per_ch_qbias" : 685,
        "per_ch_qscale" : 687,
        "W_U6" : 683
      },
      "Nx" : 1,
      "pad_mode" : 1,
      "pad_value" : 0,
      "Ny" : 1,
      "n_parallel" : 1
    },
    {
      "bottom" : "InceptionResnetV1\/Repeat_1\/block17_7\/mul\/x,InceptionResnetV1\/Repeat_1\/block17_7\/Conv2d_1x1\/Conv2D",
      "alpha" : 1,
      "operation" : 1,
      "weights" : {

      },
      "fused_relu" : 0,
      "debug_info" : "InceptionResnetV1\/Repeat_1\/block17_7\/mul",
      "nd_mode" : true,
      "top" : "InceptionResnetV1\/Repeat_1\/block17_7\/mul",
      "type" : "elementwise",
      "name" : "InceptionResnetV1\/Repeat_1\/block17_7\/mul",
      "beta" : 0
    },
    {
      "bottom" : "InceptionResnetV1\/Repeat_1\/block17_6\/Relu,InceptionResnetV1\/Repeat_1\/block17_7\/mul",
      "alpha" : 1,
      "operation" : 0,
      "weights" : {

      },
      "fused_relu" : 0,
      "debug_info" : "InceptionResnetV1\/Repeat_1\/block17_7\/add",
      "nd_mode" : true,
      "top" : "InceptionResnetV1\/Repeat_1\/block17_7\/add",
      "type" : "elementwise",
      "name" : "InceptionResnetV1\/Repeat_1\/block17_7\/add",
      "beta" : 0
    },
    {
      "bottom" : "InceptionResnetV1\/Repeat_1\/block17_7\/add",
      "weights" : {

      },
      "mode" : 0,
      "debug_info" : "InceptionResnetV1\/Repeat_1\/block17_7\/Relu",
      "top" : "InceptionResnetV1\/Repeat_1\/block17_7\/Relu",
      "type" : "activation",
      "name" : "InceptionResnetV1\/Repeat_1\/block17_7\/Relu"
    },
    {
      "pad_r" : 0,
      "fused_relu" : 1,
      "fused_tanh" : 0,
      "debug_info" : "InceptionResnetV1\/Repeat_1\/block17_8\/Branch_0\/Conv2d_1x1\/Conv2D",
      "pad_fill_mode" : 0,
      "pad_b" : 0,
      "pad_l" : 0,
      "top" : "InceptionResnetV1\/Repeat_1\/block17_8\/Branch_0\/Conv2d_1x1\/Relu",
      "K" : 896,
      "blob_biases" : 689,
      "name" : "InceptionResnetV1\/Repeat_1\/block17_8\/Branch_0\/Conv2d_1x1\/Conv2D",
      "has_batch_norm" : 0,
      "type" : "convolution",
      "n_groups" : 1,
      "pad_t" : 0,
      "has_biases" : 1,
      "C" : 128,
      "bottom" : "InceptionResnetV1\/Repeat_1\/block17_7\/Relu",
      "weights" : {
        "per_ch_qbias" : 693,
        "per_ch_qscale" : 695,
        "W_U6" : 691
      },
      "Nx" : 1,
      "pad_mode" : 1,
      "pad_value" : 0,
      "Ny" : 1,
      "n_parallel" : 1
    },
    {
      "pad_r" : 0,
      "fused_relu" : 1,
      "fused_tanh" : 0,
      "debug_info" : "InceptionResnetV1\/Repeat_1\/block17_8\/Branch_1\/Conv2d_0a_1x1\/Conv2D",
      "pad_fill_mode" : 0,
      "pad_b" : 0,
      "pad_l" : 0,
      "top" : "InceptionResnetV1\/Repeat_1\/block17_8\/Branch_1\/Conv2d_0a_1x1\/Relu",
      "K" : 896,
      "blob_biases" : 697,
      "name" : "InceptionResnetV1\/Repeat_1\/block17_8\/Branch_1\/Conv2d_0a_1x1\/Conv2D",
      "has_batch_norm" : 0,
      "type" : "convolution",
      "n_groups" : 1,
      "pad_t" : 0,
      "has_biases" : 1,
      "C" : 128,
      "bottom" : "InceptionResnetV1\/Repeat_1\/block17_7\/Relu",
      "weights" : {
        "per_ch_qbias" : 701,
        "per_ch_qscale" : 703,
        "W_U6" : 699
      },
      "Nx" : 1,
      "pad_mode" : 1,
      "pad_value" : 0,
      "Ny" : 1,
      "n_parallel" : 1
    },
    {
      "pad_r" : 0,
      "fused_relu" : 1,
      "fused_tanh" : 0,
      "debug_info" : "InceptionResnetV1\/Repeat_1\/block17_8\/Branch_1\/Conv2d_0b_1x7\/Conv2D",
      "pad_fill_mode" : 0,
      "pad_b" : 0,
      "pad_l" : 0,
      "top" : "InceptionResnetV1\/Repeat_1\/block17_8\/Branch_1\/Conv2d_0b_1x7\/Relu",
      "K" : 128,
      "blob_biases" : 705,
      "name" : "InceptionResnetV1\/Repeat_1\/block17_8\/Branch_1\/Conv2d_0b_1x7\/Conv2D",
      "has_batch_norm" : 0,
      "type" : "convolution",
      "n_groups" : 1,
      "pad_t" : 0,
      "has_biases" : 1,
      "C" : 128,
      "bottom" : "InceptionResnetV1\/Repeat_1\/block17_8\/Branch_1\/Conv2d_0a_1x1\/Relu",
      "weights" : {
        "per_ch_qbias" : 709,
        "per_ch_qscale" : 711,
        "W_U6" : 707
      },
      "Nx" : 7,
      "pad_mode" : 1,
      "pad_value" : 0,
      "Ny" : 1,
      "n_parallel" : 1
    },
    {
      "pad_r" : 0,
      "fused_relu" : 1,
      "fused_tanh" : 0,
      "debug_info" : "InceptionResnetV1\/Repeat_1\/block17_8\/Branch_1\/Conv2d_0c_7x1\/Conv2D",
      "pad_fill_mode" : 0,
      "pad_b" : 0,
      "pad_l" : 0,
      "top" : "InceptionResnetV1\/Repeat_1\/block17_8\/Branch_1\/Conv2d_0c_7x1\/Relu",
      "K" : 128,
      "blob_biases" : 713,
      "name" : "InceptionResnetV1\/Repeat_1\/block17_8\/Branch_1\/Conv2d_0c_7x1\/Conv2D",
      "has_batch_norm" : 0,
      "type" : "convolution",
      "n_groups" : 1,
      "pad_t" : 0,
      "has_biases" : 1,
      "C" : 128,
      "bottom" : "InceptionResnetV1\/Repeat_1\/block17_8\/Branch_1\/Conv2d_0b_1x7\/Relu",
      "weights" : {
        "per_ch_qbias" : 717,
        "per_ch_qscale" : 719,
        "W_U6" : 715
      },
      "Nx" : 1,
      "pad_mode" : 1,
      "pad_value" : 0,
      "Ny" : 7,
      "n_parallel" : 1
    },
    {
      "weights" : {

      },
      "debug_info" : "InceptionResnetV1\/Repeat_1\/block17_8\/concat",
      "top" : "InceptionResnetV1\/Repeat_1\/block17_8\/concat",
      "type" : "concat",
      "name" : "InceptionResnetV1\/Repeat_1\/block17_8\/concat",
      "bottom" : "InceptionResnetV1\/Repeat_1\/block17_8\/Branch_0\/Conv2d_1x1\/Relu,InceptionResnetV1\/Repeat_1\/block17_8\/Branch_1\/Conv2d_0c_7x1\/Relu"
    },
    {
      "pad_r" : 0,
      "fused_relu" : 0,
      "fused_tanh" : 0,
      "debug_info" : "InceptionResnetV1\/Repeat_1\/block17_8\/Conv2d_1x1\/Conv2D",
      "pad_fill_mode" : 0,
      "pad_b" : 0,
      "pad_l" : 0,
      "top" : "InceptionResnetV1\/Repeat_1\/block17_8\/Conv2d_1x1\/Conv2D",
      "K" : 256,
      "blob_biases" : 721,
      "name" : "InceptionResnetV1\/Repeat_1\/block17_8\/Conv2d_1x1\/Conv2D",
      "has_batch_norm" : 0,
      "type" : "convolution",
      "n_groups" : 1,
      "pad_t" : 0,
      "has_biases" : 1,
      "C" : 896,
      "bottom" : "InceptionResnetV1\/Repeat_1\/block17_8\/concat",
      "weights" : {
        "per_ch_qbias" : 725,
        "per_ch_qscale" : 727,
        "W_U6" : 723
      },
      "Nx" : 1,
      "pad_mode" : 1,
      "pad_value" : 0,
      "Ny" : 1,
      "n_parallel" : 1
    },
    {
      "bottom" : "InceptionResnetV1\/Repeat_1\/block17_8\/mul\/x,InceptionResnetV1\/Repeat_1\/block17_8\/Conv2d_1x1\/Conv2D",
      "alpha" : 1,
      "operation" : 1,
      "weights" : {

      },
      "fused_relu" : 0,
      "debug_info" : "InceptionResnetV1\/Repeat_1\/block17_8\/mul",
      "nd_mode" : true,
      "top" : "InceptionResnetV1\/Repeat_1\/block17_8\/mul",
      "type" : "elementwise",
      "name" : "InceptionResnetV1\/Repeat_1\/block17_8\/mul",
      "beta" : 0
    },
    {
      "bottom" : "InceptionResnetV1\/Repeat_1\/block17_7\/Relu,InceptionResnetV1\/Repeat_1\/block17_8\/mul",
      "alpha" : 1,
      "operation" : 0,
      "weights" : {

      },
      "fused_relu" : 0,
      "debug_info" : "InceptionResnetV1\/Repeat_1\/block17_8\/add",
      "nd_mode" : true,
      "top" : "InceptionResnetV1\/Repeat_1\/block17_8\/add",
      "type" : "elementwise",
      "name" : "InceptionResnetV1\/Repeat_1\/block17_8\/add",
      "beta" : 0
    },
    {
      "bottom" : "InceptionResnetV1\/Repeat_1\/block17_8\/add",
      "weights" : {

      },
      "mode" : 0,
      "debug_info" : "InceptionResnetV1\/Repeat_1\/block17_8\/Relu",
      "top" : "InceptionResnetV1\/Repeat_1\/block17_8\/Relu",
      "type" : "activation",
      "name" : "InceptionResnetV1\/Repeat_1\/block17_8\/Relu"
    },
    {
      "pad_r" : 0,
      "fused_relu" : 1,
      "fused_tanh" : 0,
      "debug_info" : "InceptionResnetV1\/Repeat_1\/block17_9\/Branch_0\/Conv2d_1x1\/Conv2D",
      "pad_fill_mode" : 0,
      "pad_b" : 0,
      "pad_l" : 0,
      "top" : "InceptionResnetV1\/Repeat_1\/block17_9\/Branch_0\/Conv2d_1x1\/Relu",
      "K" : 896,
      "blob_biases" : 729,
      "name" : "InceptionResnetV1\/Repeat_1\/block17_9\/Branch_0\/Conv2d_1x1\/Conv2D",
      "has_batch_norm" : 0,
      "type" : "convolution",
      "n_groups" : 1,
      "pad_t" : 0,
      "has_biases" : 1,
      "C" : 128,
      "bottom" : "InceptionResnetV1\/Repeat_1\/block17_8\/Relu",
      "weights" : {
        "per_ch_qbias" : 733,
        "per_ch_qscale" : 735,
        "W_U6" : 731
      },
      "Nx" : 1,
      "pad_mode" : 1,
      "pad_value" : 0,
      "Ny" : 1,
      "n_parallel" : 1
    },
    {
      "pad_r" : 0,
      "fused_relu" : 1,
      "fused_tanh" : 0,
      "debug_info" : "InceptionResnetV1\/Repeat_1\/block17_9\/Branch_1\/Conv2d_0a_1x1\/Conv2D",
      "pad_fill_mode" : 0,
      "pad_b" : 0,
      "pad_l" : 0,
      "top" : "InceptionResnetV1\/Repeat_1\/block17_9\/Branch_1\/Conv2d_0a_1x1\/Relu",
      "K" : 896,
      "blob_biases" : 737,
      "name" : "InceptionResnetV1\/Repeat_1\/block17_9\/Branch_1\/Conv2d_0a_1x1\/Conv2D",
      "has_batch_norm" : 0,
      "type" : "convolution",
      "n_groups" : 1,
      "pad_t" : 0,
      "has_biases" : 1,
      "C" : 128,
      "bottom" : "InceptionResnetV1\/Repeat_1\/block17_8\/Relu",
      "weights" : {
        "per_ch_qbias" : 741,
        "per_ch_qscale" : 743,
        "W_U6" : 739
      },
      "Nx" : 1,
      "pad_mode" : 1,
      "pad_value" : 0,
      "Ny" : 1,
      "n_parallel" : 1
    },
    {
      "pad_r" : 0,
      "fused_relu" : 1,
      "fused_tanh" : 0,
      "debug_info" : "InceptionResnetV1\/Repeat_1\/block17_9\/Branch_1\/Conv2d_0b_1x7\/Conv2D",
      "pad_fill_mode" : 0,
      "pad_b" : 0,
      "pad_l" : 0,
      "top" : "InceptionResnetV1\/Repeat_1\/block17_9\/Branch_1\/Conv2d_0b_1x7\/Relu",
      "K" : 128,
      "blob_biases" : 745,
      "name" : "InceptionResnetV1\/Repeat_1\/block17_9\/Branch_1\/Conv2d_0b_1x7\/Conv2D",
      "has_batch_norm" : 0,
      "type" : "convolution",
      "n_groups" : 1,
      "pad_t" : 0,
      "has_biases" : 1,
      "C" : 128,
      "bottom" : "InceptionResnetV1\/Repeat_1\/block17_9\/Branch_1\/Conv2d_0a_1x1\/Relu",
      "weights" : {
        "per_ch_qbias" : 749,
        "per_ch_qscale" : 751,
        "W_U6" : 747
      },
      "Nx" : 7,
      "pad_mode" : 1,
      "pad_value" : 0,
      "Ny" : 1,
      "n_parallel" : 1
    },
    {
      "pad_r" : 0,
      "fused_relu" : 1,
      "fused_tanh" : 0,
      "debug_info" : "InceptionResnetV1\/Repeat_1\/block17_9\/Branch_1\/Conv2d_0c_7x1\/Conv2D",
      "pad_fill_mode" : 0,
      "pad_b" : 0,
      "pad_l" : 0,
      "top" : "InceptionResnetV1\/Repeat_1\/block17_9\/Branch_1\/Conv2d_0c_7x1\/Relu",
      "K" : 128,
      "blob_biases" : 753,
      "name" : "InceptionResnetV1\/Repeat_1\/block17_9\/Branch_1\/Conv2d_0c_7x1\/Conv2D",
      "has_batch_norm" : 0,
      "type" : "convolution",
      "n_groups" : 1,
      "pad_t" : 0,
      "has_biases" : 1,
      "C" : 128,
      "bottom" : "InceptionResnetV1\/Repeat_1\/block17_9\/Branch_1\/Conv2d_0b_1x7\/Relu",
      "weights" : {
        "per_ch_qbias" : 757,
        "per_ch_qscale" : 759,
        "W_U6" : 755
      },
      "Nx" : 1,
      "pad_mode" : 1,
      "pad_value" : 0,
      "Ny" : 7,
      "n_parallel" : 1
    },
    {
      "weights" : {

      },
      "debug_info" : "InceptionResnetV1\/Repeat_1\/block17_9\/concat",
      "top" : "InceptionResnetV1\/Repeat_1\/block17_9\/concat",
      "type" : "concat",
      "name" : "InceptionResnetV1\/Repeat_1\/block17_9\/concat",
      "bottom" : "InceptionResnetV1\/Repeat_1\/block17_9\/Branch_0\/Conv2d_1x1\/Relu,InceptionResnetV1\/Repeat_1\/block17_9\/Branch_1\/Conv2d_0c_7x1\/Relu"
    },
    {
      "pad_r" : 0,
      "fused_relu" : 0,
      "fused_tanh" : 0,
      "debug_info" : "InceptionResnetV1\/Repeat_1\/block17_9\/Conv2d_1x1\/Conv2D",
      "pad_fill_mode" : 0,
      "pad_b" : 0,
      "pad_l" : 0,
      "top" : "InceptionResnetV1\/Repeat_1\/block17_9\/Conv2d_1x1\/Conv2D",
      "K" : 256,
      "blob_biases" : 761,
      "name" : "InceptionResnetV1\/Repeat_1\/block17_9\/Conv2d_1x1\/Conv2D",
      "has_batch_norm" : 0,
      "type" : "convolution",
      "n_groups" : 1,
      "pad_t" : 0,
      "has_biases" : 1,
      "C" : 896,
      "bottom" : "InceptionResnetV1\/Repeat_1\/block17_9\/concat",
      "weights" : {
        "per_ch_qbias" : 765,
        "per_ch_qscale" : 767,
        "W_U6" : 763
      },
      "Nx" : 1,
      "pad_mode" : 1,
      "pad_value" : 0,
      "Ny" : 1,
      "n_parallel" : 1
    },
    {
      "bottom" : "InceptionResnetV1\/Repeat_1\/block17_9\/mul\/x,InceptionResnetV1\/Repeat_1\/block17_9\/Conv2d_1x1\/Conv2D",
      "alpha" : 1,
      "operation" : 1,
      "weights" : {

      },
      "fused_relu" : 0,
      "debug_info" : "InceptionResnetV1\/Repeat_1\/block17_9\/mul",
      "nd_mode" : true,
      "top" : "InceptionResnetV1\/Repeat_1\/block17_9\/mul",
      "type" : "elementwise",
      "name" : "InceptionResnetV1\/Repeat_1\/block17_9\/mul",
      "beta" : 0
    },
    {
      "bottom" : "InceptionResnetV1\/Repeat_1\/block17_8\/Relu,InceptionResnetV1\/Repeat_1\/block17_9\/mul",
      "alpha" : 1,
      "operation" : 0,
      "weights" : {

      },
      "fused_relu" : 0,
      "debug_info" : "InceptionResnetV1\/Repeat_1\/block17_9\/add",
      "nd_mode" : true,
      "top" : "InceptionResnetV1\/Repeat_1\/block17_9\/add",
      "type" : "elementwise",
      "name" : "InceptionResnetV1\/Repeat_1\/block17_9\/add",
      "beta" : 0
    },
    {
      "bottom" : "InceptionResnetV1\/Repeat_1\/block17_9\/add",
      "weights" : {

      },
      "mode" : 0,
      "debug_info" : "InceptionResnetV1\/Repeat_1\/block17_9\/Relu",
      "top" : "InceptionResnetV1\/Repeat_1\/block17_9\/Relu",
      "type" : "activation",
      "name" : "InceptionResnetV1\/Repeat_1\/block17_9\/Relu"
    },
    {
      "pad_r" : 0,
      "fused_relu" : 1,
      "fused_tanh" : 0,
      "debug_info" : "InceptionResnetV1\/Repeat_1\/block17_10\/Branch_0\/Conv2d_1x1\/Conv2D",
      "pad_fill_mode" : 0,
      "pad_b" : 0,
      "pad_l" : 0,
      "top" : "InceptionResnetV1\/Repeat_1\/block17_10\/Branch_0\/Conv2d_1x1\/Relu",
      "K" : 896,
      "blob_biases" : 769,
      "name" : "InceptionResnetV1\/Repeat_1\/block17_10\/Branch_0\/Conv2d_1x1\/Conv2D",
      "has_batch_norm" : 0,
      "type" : "convolution",
      "n_groups" : 1,
      "pad_t" : 0,
      "has_biases" : 1,
      "C" : 128,
      "bottom" : "InceptionResnetV1\/Repeat_1\/block17_9\/Relu",
      "weights" : {
        "per_ch_qbias" : 773,
        "per_ch_qscale" : 775,
        "W_U6" : 771
      },
      "Nx" : 1,
      "pad_mode" : 1,
      "pad_value" : 0,
      "Ny" : 1,
      "n_parallel" : 1
    },
    {
      "pad_r" : 0,
      "fused_relu" : 1,
      "fused_tanh" : 0,
      "debug_info" : "InceptionResnetV1\/Repeat_1\/block17_10\/Branch_1\/Conv2d_0a_1x1\/Conv2D",
      "pad_fill_mode" : 0,
      "pad_b" : 0,
      "pad_l" : 0,
      "top" : "InceptionResnetV1\/Repeat_1\/block17_10\/Branch_1\/Conv2d_0a_1x1\/Relu",
      "K" : 896,
      "blob_biases" : 777,
      "name" : "InceptionResnetV1\/Repeat_1\/block17_10\/Branch_1\/Conv2d_0a_1x1\/Conv2D",
      "has_batch_norm" : 0,
      "type" : "convolution",
      "n_groups" : 1,
      "pad_t" : 0,
      "has_biases" : 1,
      "C" : 128,
      "bottom" : "InceptionResnetV1\/Repeat_1\/block17_9\/Relu",
      "weights" : {
        "per_ch_qbias" : 781,
        "per_ch_qscale" : 783,
        "W_U6" : 779
      },
      "Nx" : 1,
      "pad_mode" : 1,
      "pad_value" : 0,
      "Ny" : 1,
      "n_parallel" : 1
    },
    {
      "pad_r" : 0,
      "fused_relu" : 1,
      "fused_tanh" : 0,
      "debug_info" : "InceptionResnetV1\/Repeat_1\/block17_10\/Branch_1\/Conv2d_0b_1x7\/Conv2D",
      "pad_fill_mode" : 0,
      "pad_b" : 0,
      "pad_l" : 0,
      "top" : "InceptionResnetV1\/Repeat_1\/block17_10\/Branch_1\/Conv2d_0b_1x7\/Relu",
      "K" : 128,
      "blob_biases" : 785,
      "name" : "InceptionResnetV1\/Repeat_1\/block17_10\/Branch_1\/Conv2d_0b_1x7\/Conv2D",
      "has_batch_norm" : 0,
      "type" : "convolution",
      "n_groups" : 1,
      "pad_t" : 0,
      "has_biases" : 1,
      "C" : 128,
      "bottom" : "InceptionResnetV1\/Repeat_1\/block17_10\/Branch_1\/Conv2d_0a_1x1\/Relu",
      "weights" : {
        "per_ch_qbias" : 789,
        "per_ch_qscale" : 791,
        "W_U6" : 787
      },
      "Nx" : 7,
      "pad_mode" : 1,
      "pad_value" : 0,
      "Ny" : 1,
      "n_parallel" : 1
    },
    {
      "pad_r" : 0,
      "fused_relu" : 1,
      "fused_tanh" : 0,
      "debug_info" : "InceptionResnetV1\/Repeat_1\/block17_10\/Branch_1\/Conv2d_0c_7x1\/Conv2D",
      "pad_fill_mode" : 0,
      "pad_b" : 0,
      "pad_l" : 0,
      "top" : "InceptionResnetV1\/Repeat_1\/block17_10\/Branch_1\/Conv2d_0c_7x1\/Relu",
      "K" : 128,
      "blob_biases" : 793,
      "name" : "InceptionResnetV1\/Repeat_1\/block17_10\/Branch_1\/Conv2d_0c_7x1\/Conv2D",
      "has_batch_norm" : 0,
      "type" : "convolution",
      "n_groups" : 1,
      "pad_t" : 0,
      "has_biases" : 1,
      "C" : 128,
      "bottom" : "InceptionResnetV1\/Repeat_1\/block17_10\/Branch_1\/Conv2d_0b_1x7\/Relu",
      "weights" : {
        "per_ch_qbias" : 797,
        "per_ch_qscale" : 799,
        "W_U6" : 795
      },
      "Nx" : 1,
      "pad_mode" : 1,
      "pad_value" : 0,
      "Ny" : 7,
      "n_parallel" : 1
    },
    {
      "weights" : {

      },
      "debug_info" : "InceptionResnetV1\/Repeat_1\/block17_10\/concat",
      "top" : "InceptionResnetV1\/Repeat_1\/block17_10\/concat",
      "type" : "concat",
      "name" : "InceptionResnetV1\/Repeat_1\/block17_10\/concat",
      "bottom" : "InceptionResnetV1\/Repeat_1\/block17_10\/Branch_0\/Conv2d_1x1\/Relu,InceptionResnetV1\/Repeat_1\/block17_10\/Branch_1\/Conv2d_0c_7x1\/Relu"
    },
    {
      "pad_r" : 0,
      "fused_relu" : 0,
      "fused_tanh" : 0,
      "debug_info" : "InceptionResnetV1\/Repeat_1\/block17_10\/Conv2d_1x1\/Conv2D",
      "pad_fill_mode" : 0,
      "pad_b" : 0,
      "pad_l" : 0,
      "top" : "InceptionResnetV1\/Repeat_1\/block17_10\/Conv2d_1x1\/Conv2D",
      "K" : 256,
      "blob_biases" : 801,
      "name" : "InceptionResnetV1\/Repeat_1\/block17_10\/Conv2d_1x1\/Conv2D",
      "has_batch_norm" : 0,
      "type" : "convolution",
      "n_groups" : 1,
      "pad_t" : 0,
      "has_biases" : 1,
      "C" : 896,
      "bottom" : "InceptionResnetV1\/Repeat_1\/block17_10\/concat",
      "weights" : {
        "per_ch_qbias" : 805,
        "per_ch_qscale" : 807,
        "W_U6" : 803
      },
      "Nx" : 1,
      "pad_mode" : 1,
      "pad_value" : 0,
      "Ny" : 1,
      "n_parallel" : 1
    },
    {
      "bottom" : "InceptionResnetV1\/Repeat_1\/block17_10\/mul\/x,InceptionResnetV1\/Repeat_1\/block17_10\/Conv2d_1x1\/Conv2D",
      "alpha" : 1,
      "operation" : 1,
      "weights" : {

      },
      "fused_relu" : 0,
      "debug_info" : "InceptionResnetV1\/Repeat_1\/block17_10\/mul",
      "nd_mode" : true,
      "top" : "InceptionResnetV1\/Repeat_1\/block17_10\/mul",
      "type" : "elementwise",
      "name" : "InceptionResnetV1\/Repeat_1\/block17_10\/mul",
      "beta" : 0
    },
    {
      "bottom" : "InceptionResnetV1\/Repeat_1\/block17_9\/Relu,InceptionResnetV1\/Repeat_1\/block17_10\/mul",
      "alpha" : 1,
      "operation" : 0,
      "weights" : {

      },
      "fused_relu" : 0,
      "debug_info" : "InceptionResnetV1\/Repeat_1\/block17_10\/add",
      "nd_mode" : true,
      "top" : "InceptionResnetV1\/Repeat_1\/block17_10\/add",
      "type" : "elementwise",
      "name" : "InceptionResnetV1\/Repeat_1\/block17_10\/add",
      "beta" : 0
    },
    {
      "bottom" : "InceptionResnetV1\/Repeat_1\/block17_10\/add",
      "weights" : {

      },
      "mode" : 0,
      "debug_info" : "InceptionResnetV1\/Repeat_1\/block17_10\/Relu",
      "top" : "InceptionResnetV1\/Repeat_1\/block17_10\/Relu",
      "type" : "activation",
      "name" : "InceptionResnetV1\/Repeat_1\/block17_10\/Relu"
    },
    {
      "pad_r" : 0,
      "fused_relu" : 1,
      "fused_tanh" : 0,
      "debug_info" : "InceptionResnetV1\/Mixed_7a\/Branch_0\/Conv2d_0a_1x1\/Conv2D",
      "pad_fill_mode" : 0,
      "pad_b" : 0,
      "pad_l" : 0,
      "top" : "InceptionResnetV1\/Mixed_7a\/Branch_0\/Conv2d_0a_1x1\/Relu",
      "K" : 896,
      "blob_biases" : 809,
      "name" : "InceptionResnetV1\/Mixed_7a\/Branch_0\/Conv2d_0a_1x1\/Conv2D",
      "has_batch_norm" : 0,
      "type" : "convolution",
      "n_groups" : 1,
      "pad_t" : 0,
      "has_biases" : 1,
      "C" : 256,
      "bottom" : "InceptionResnetV1\/Repeat_1\/block17_10\/Relu",
      "weights" : {
        "per_ch_qbias" : 813,
        "per_ch_qscale" : 815,
        "W_U6" : 811
      },
      "Nx" : 1,
      "pad_mode" : 1,
      "pad_value" : 0,
      "Ny" : 1,
      "n_parallel" : 1
    },
    {
      "pad_r" : 0,
      "fused_relu" : 1,
      "fused_tanh" : 0,
      "debug_info" : "InceptionResnetV1\/Mixed_7a\/Branch_1\/Conv2d_0a_1x1\/Conv2D",
      "pad_fill_mode" : 0,
      "pad_b" : 0,
      "pad_l" : 0,
      "top" : "InceptionResnetV1\/Mixed_7a\/Branch_1\/Conv2d_0a_1x1\/Relu",
      "K" : 896,
      "blob_biases" : 817,
      "name" : "InceptionResnetV1\/Mixed_7a\/Branch_1\/Conv2d_0a_1x1\/Conv2D",
      "has_batch_norm" : 0,
      "type" : "convolution",
      "n_groups" : 1,
      "pad_t" : 0,
      "has_biases" : 1,
      "C" : 256,
      "bottom" : "InceptionResnetV1\/Repeat_1\/block17_10\/Relu",
      "weights" : {
        "per_ch_qbias" : 821,
        "per_ch_qscale" : 823,
        "W_U6" : 819
      },
      "Nx" : 1,
      "pad_mode" : 1,
      "pad_value" : 0,
      "Ny" : 1,
      "n_parallel" : 1
    },
    {
      "pad_r" : 0,
      "fused_relu" : 1,
      "fused_tanh" : 0,
      "debug_info" : "InceptionResnetV1\/Mixed_7a\/Branch_2\/Conv2d_0a_1x1\/Conv2D",
      "pad_fill_mode" : 0,
      "pad_b" : 0,
      "pad_l" : 0,
      "top" : "InceptionResnetV1\/Mixed_7a\/Branch_2\/Conv2d_0a_1x1\/Relu",
      "K" : 896,
      "blob_biases" : 825,
      "name" : "InceptionResnetV1\/Mixed_7a\/Branch_2\/Conv2d_0a_1x1\/Conv2D",
      "has_batch_norm" : 0,
      "type" : "convolution",
      "n_groups" : 1,
      "pad_t" : 0,
      "has_biases" : 1,
      "C" : 256,
      "bottom" : "InceptionResnetV1\/Repeat_1\/block17_10\/Relu",
      "weights" : {
        "per_ch_qbias" : 829,
        "per_ch_qscale" : 831,
        "W_U6" : 827
      },
      "Nx" : 1,
      "pad_mode" : 1,
      "pad_value" : 0,
      "Ny" : 1,
      "n_parallel" : 1
    },
    {
      "pad_r" : 0,
      "debug_info" : "InceptionResnetV1\/Mixed_7a\/Branch_3\/MaxPool_1a_3x3\/MaxPool",
      "pad_fill_mode" : 0,
      "pad_b" : 0,
      "pad_l" : 0,
      "size_x" : 3,
      "top" : "InceptionResnetV1\/Mixed_7a\/Branch_3\/MaxPool_1a_3x3\/MaxPool",
      "top_shape_style" : 0,
      "stride_x" : 2,
      "avg_or_max" : 1,
      "average_count_exclude_padding" : 1,
      "type" : "pool",
      "name" : "InceptionResnetV1\/Mixed_7a\/Branch_3\/MaxPool_1a_3x3\/MaxPool",
      "pad_t" : 0,
      "stride_y" : 2,
      "bottom" : "InceptionResnetV1\/Repeat_1\/block17_10\/Relu",
      "weights" : {

      },
      "pad_mode" : 2,
      "size_y" : 3,
      "pad_value" : 0
    },
    {
      "pad_r" : 0,
      "fused_relu" : 1,
      "fused_tanh" : 0,
      "debug_info" : "InceptionResnetV1\/Mixed_7a\/Branch_0\/Conv2d_1a_3x3\/Conv2D",
      "pad_fill_mode" : 0,
      "pad_b" : 0,
      "pad_l" : 0,
      "top" : "InceptionResnetV1\/Mixed_7a\/Branch_0\/Conv2d_1a_3x3\/Relu",
      "K" : 256,
      "blob_biases" : 833,
      "stride_x" : 2,
      "name" : "InceptionResnetV1\/Mixed_7a\/Branch_0\/Conv2d_1a_3x3\/Conv2D",
      "has_batch_norm" : 0,
      "type" : "convolution",
      "n_groups" : 1,
      "pad_t" : 0,
      "stride_y" : 2,
      "has_biases" : 1,
      "C" : 384,
      "bottom" : "InceptionResnetV1\/Mixed_7a\/Branch_0\/Conv2d_0a_1x1\/Relu",
      "weights" : {
        "per_ch_qbias" : 837,
        "per_ch_qscale" : 839,
        "W_U6" : 835
      },
      "Nx" : 3,
      "pad_mode" : 0,
      "pad_value" : 0,
      "Ny" : 3,
      "n_parallel" : 1
    },
    {
      "pad_r" : 0,
      "fused_relu" : 1,
      "fused_tanh" : 0,
      "debug_info" : "InceptionResnetV1\/Mixed_7a\/Branch_1\/Conv2d_1a_3x3\/Conv2D",
      "pad_fill_mode" : 0,
      "pad_b" : 0,
      "pad_l" : 0,
      "top" : "InceptionResnetV1\/Mixed_7a\/Branch_1\/Conv2d_1a_3x3\/Relu",
      "K" : 256,
      "blob_biases" : 841,
      "stride_x" : 2,
      "name" : "InceptionResnetV1\/Mixed_7a\/Branch_1\/Conv2d_1a_3x3\/Conv2D",
      "has_batch_norm" : 0,
      "type" : "convolution",
      "n_groups" : 1,
      "pad_t" : 0,
      "stride_y" : 2,
      "has_biases" : 1,
      "C" : 256,
      "bottom" : "InceptionResnetV1\/Mixed_7a\/Branch_1\/Conv2d_0a_1x1\/Relu",
      "weights" : {
        "per_ch_qbias" : 845,
        "per_ch_qscale" : 847,
        "W_U6" : 843
      },
      "Nx" : 3,
      "pad_mode" : 0,
      "pad_value" : 0,
      "Ny" : 3,
      "n_parallel" : 1
    },
    {
      "pad_r" : 0,
      "fused_relu" : 1,
      "fused_tanh" : 0,
      "debug_info" : "InceptionResnetV1\/Mixed_7a\/Branch_2\/Conv2d_0b_3x3\/Conv2D",
      "pad_fill_mode" : 0,
      "pad_b" : 0,
      "pad_l" : 0,
      "top" : "InceptionResnetV1\/Mixed_7a\/Branch_2\/Conv2d_0b_3x3\/Relu",
      "K" : 256,
      "blob_biases" : 849,
      "name" : "InceptionResnetV1\/Mixed_7a\/Branch_2\/Conv2d_0b_3x3\/Conv2D",
      "has_batch_norm" : 0,
      "type" : "convolution",
      "n_groups" : 1,
      "pad_t" : 0,
      "has_biases" : 1,
      "C" : 256,
      "bottom" : "InceptionResnetV1\/Mixed_7a\/Branch_2\/Conv2d_0a_1x1\/Relu",
      "weights" : {
        "per_ch_qbias" : 853,
        "per_ch_qscale" : 855,
        "W_U6" : 851
      },
      "Nx" : 3,
      "pad_mode" : 1,
      "pad_value" : 0,
      "Ny" : 3,
      "n_parallel" : 1
    },
    {
      "pad_r" : 0,
      "fused_relu" : 1,
      "fused_tanh" : 0,
      "debug_info" : "InceptionResnetV1\/Mixed_7a\/Branch_2\/Conv2d_1a_3x3\/Conv2D",
      "pad_fill_mode" : 0,
      "pad_b" : 0,
      "pad_l" : 0,
      "top" : "InceptionResnetV1\/Mixed_7a\/Branch_2\/Conv2d_1a_3x3\/Relu",
      "K" : 256,
      "blob_biases" : 857,
      "stride_x" : 2,
      "name" : "InceptionResnetV1\/Mixed_7a\/Branch_2\/Conv2d_1a_3x3\/Conv2D",
      "has_batch_norm" : 0,
      "type" : "convolution",
      "n_groups" : 1,
      "pad_t" : 0,
      "stride_y" : 2,
      "has_biases" : 1,
      "C" : 256,
      "bottom" : "InceptionResnetV1\/Mixed_7a\/Branch_2\/Conv2d_0b_3x3\/Relu",
      "weights" : {
        "per_ch_qbias" : 861,
        "per_ch_qscale" : 863,
        "W_U6" : 859
      },
      "Nx" : 3,
      "pad_mode" : 0,
      "pad_value" : 0,
      "Ny" : 3,
      "n_parallel" : 1
    },
    {
      "weights" : {

      },
      "debug_info" : "InceptionResnetV1\/Mixed_7a\/concat",
      "top" : "InceptionResnetV1\/Mixed_7a\/concat",
      "type" : "concat",
      "name" : "InceptionResnetV1\/Mixed_7a\/concat",
      "bottom" : "InceptionResnetV1\/Mixed_7a\/Branch_0\/Conv2d_1a_3x3\/Relu,InceptionResnetV1\/Mixed_7a\/Branch_1\/Conv2d_1a_3x3\/Relu,InceptionResnetV1\/Mixed_7a\/Branch_2\/Conv2d_1a_3x3\/Relu,InceptionResnetV1\/Mixed_7a\/Branch_3\/MaxPool_1a_3x3\/MaxPool"
    },
    {
      "pad_r" : 0,
      "fused_relu" : 1,
      "fused_tanh" : 0,
      "debug_info" : "InceptionResnetV1\/Repeat_2\/block8_1\/Branch_0\/Conv2d_1x1\/Conv2D",
      "pad_fill_mode" : 0,
      "pad_b" : 0,
      "pad_l" : 0,
      "top" : "InceptionResnetV1\/Repeat_2\/block8_1\/Branch_0\/Conv2d_1x1\/Relu",
      "K" : 1792,
      "blob_biases" : 865,
      "name" : "InceptionResnetV1\/Repeat_2\/block8_1\/Branch_0\/Conv2d_1x1\/Conv2D",
      "has_batch_norm" : 0,
      "type" : "convolution",
      "n_groups" : 1,
      "pad_t" : 0,
      "has_biases" : 1,
      "C" : 192,
      "bottom" : "InceptionResnetV1\/Mixed_7a\/concat",
      "weights" : {
        "per_ch_qbias" : 869,
        "per_ch_qscale" : 871,
        "W_U6" : 867
      },
      "Nx" : 1,
      "pad_mode" : 1,
      "pad_value" : 0,
      "Ny" : 1,
      "n_parallel" : 1
    },
    {
      "pad_r" : 0,
      "fused_relu" : 1,
      "fused_tanh" : 0,
      "debug_info" : "InceptionResnetV1\/Repeat_2\/block8_1\/Branch_1\/Conv2d_0a_1x1\/Conv2D",
      "pad_fill_mode" : 0,
      "pad_b" : 0,
      "pad_l" : 0,
      "top" : "InceptionResnetV1\/Repeat_2\/block8_1\/Branch_1\/Conv2d_0a_1x1\/Relu",
      "K" : 1792,
      "blob_biases" : 873,
      "name" : "InceptionResnetV1\/Repeat_2\/block8_1\/Branch_1\/Conv2d_0a_1x1\/Conv2D",
      "has_batch_norm" : 0,
      "type" : "convolution",
      "n_groups" : 1,
      "pad_t" : 0,
      "has_biases" : 1,
      "C" : 192,
      "bottom" : "InceptionResnetV1\/Mixed_7a\/concat",
      "weights" : {
        "per_ch_qbias" : 877,
        "per_ch_qscale" : 879,
        "W_U6" : 875
      },
      "Nx" : 1,
      "pad_mode" : 1,
      "pad_value" : 0,
      "Ny" : 1,
      "n_parallel" : 1
    },
    {
      "pad_r" : 0,
      "fused_relu" : 1,
      "fused_tanh" : 0,
      "debug_info" : "InceptionResnetV1\/Repeat_2\/block8_1\/Branch_1\/Conv2d_0b_1x3\/Conv2D",
      "pad_fill_mode" : 0,
      "pad_b" : 0,
      "pad_l" : 0,
      "top" : "InceptionResnetV1\/Repeat_2\/block8_1\/Branch_1\/Conv2d_0b_1x3\/Relu",
      "K" : 192,
      "blob_biases" : 881,
      "name" : "InceptionResnetV1\/Repeat_2\/block8_1\/Branch_1\/Conv2d_0b_1x3\/Conv2D",
      "has_batch_norm" : 0,
      "type" : "convolution",
      "n_groups" : 1,
      "pad_t" : 0,
      "has_biases" : 1,
      "C" : 192,
      "bottom" : "InceptionResnetV1\/Repeat_2\/block8_1\/Branch_1\/Conv2d_0a_1x1\/Relu",
      "weights" : {
        "per_ch_qbias" : 885,
        "per_ch_qscale" : 887,
        "W_U6" : 883
      },
      "Nx" : 3,
      "pad_mode" : 1,
      "pad_value" : 0,
      "Ny" : 1,
      "n_parallel" : 1
    },
    {
      "pad_r" : 0,
      "fused_relu" : 1,
      "fused_tanh" : 0,
      "debug_info" : "InceptionResnetV1\/Repeat_2\/block8_1\/Branch_1\/Conv2d_0c_3x1\/Conv2D",
      "pad_fill_mode" : 0,
      "pad_b" : 0,
      "pad_l" : 0,
      "top" : "InceptionResnetV1\/Repeat_2\/block8_1\/Branch_1\/Conv2d_0c_3x1\/Relu",
      "K" : 192,
      "blob_biases" : 889,
      "name" : "InceptionResnetV1\/Repeat_2\/block8_1\/Branch_1\/Conv2d_0c_3x1\/Conv2D",
      "has_batch_norm" : 0,
      "type" : "convolution",
      "n_groups" : 1,
      "pad_t" : 0,
      "has_biases" : 1,
      "C" : 192,
      "bottom" : "InceptionResnetV1\/Repeat_2\/block8_1\/Branch_1\/Conv2d_0b_1x3\/Relu",
      "weights" : {
        "per_ch_qbias" : 893,
        "per_ch_qscale" : 895,
        "W_U6" : 891
      },
      "Nx" : 1,
      "pad_mode" : 1,
      "pad_value" : 0,
      "Ny" : 3,
      "n_parallel" : 1
    },
    {
      "weights" : {

      },
      "debug_info" : "InceptionResnetV1\/Repeat_2\/block8_1\/concat",
      "top" : "InceptionResnetV1\/Repeat_2\/block8_1\/concat",
      "type" : "concat",
      "name" : "InceptionResnetV1\/Repeat_2\/block8_1\/concat",
      "bottom" : "InceptionResnetV1\/Repeat_2\/block8_1\/Branch_0\/Conv2d_1x1\/Relu,InceptionResnetV1\/Repeat_2\/block8_1\/Branch_1\/Conv2d_0c_3x1\/Relu"
    },
    {
      "pad_r" : 0,
      "fused_relu" : 0,
      "fused_tanh" : 0,
      "debug_info" : "InceptionResnetV1\/Repeat_2\/block8_1\/Conv2d_1x1\/Conv2D",
      "pad_fill_mode" : 0,
      "pad_b" : 0,
      "pad_l" : 0,
      "top" : "InceptionResnetV1\/Repeat_2\/block8_1\/Conv2d_1x1\/Conv2D",
      "K" : 384,
      "blob_biases" : 897,
      "name" : "InceptionResnetV1\/Repeat_2\/block8_1\/Conv2d_1x1\/Conv2D",
      "has_batch_norm" : 0,
      "type" : "convolution",
      "n_groups" : 1,
      "pad_t" : 0,
      "has_biases" : 1,
      "C" : 1792,
      "bottom" : "InceptionResnetV1\/Repeat_2\/block8_1\/concat",
      "weights" : {
        "per_ch_qbias" : 901,
        "per_ch_qscale" : 903,
        "W_U6" : 899
      },
      "Nx" : 1,
      "pad_mode" : 1,
      "pad_value" : 0,
      "Ny" : 1,
      "n_parallel" : 1
    },
    {
      "bottom" : "InceptionResnetV1\/Repeat_2\/block8_1\/mul\/x,InceptionResnetV1\/Repeat_2\/block8_1\/Conv2d_1x1\/Conv2D",
      "alpha" : 1,
      "operation" : 1,
      "weights" : {

      },
      "fused_relu" : 0,
      "debug_info" : "InceptionResnetV1\/Repeat_2\/block8_1\/mul",
      "nd_mode" : true,
      "top" : "InceptionResnetV1\/Repeat_2\/block8_1\/mul",
      "type" : "elementwise",
      "name" : "InceptionResnetV1\/Repeat_2\/block8_1\/mul",
      "beta" : 0
    },
    {
      "bottom" : "InceptionResnetV1\/Mixed_7a\/concat,InceptionResnetV1\/Repeat_2\/block8_1\/mul",
      "alpha" : 1,
      "operation" : 0,
      "weights" : {

      },
      "fused_relu" : 0,
      "debug_info" : "InceptionResnetV1\/Repeat_2\/block8_1\/add",
      "nd_mode" : true,
      "top" : "InceptionResnetV1\/Repeat_2\/block8_1\/add",
      "type" : "elementwise",
      "name" : "InceptionResnetV1\/Repeat_2\/block8_1\/add",
      "beta" : 0
    },
    {
      "bottom" : "InceptionResnetV1\/Repeat_2\/block8_1\/add",
      "weights" : {

      },
      "mode" : 0,
      "debug_info" : "InceptionResnetV1\/Repeat_2\/block8_1\/Relu",
      "top" : "InceptionResnetV1\/Repeat_2\/block8_1\/Relu",
      "type" : "activation",
      "name" : "InceptionResnetV1\/Repeat_2\/block8_1\/Relu"
    },
    {
      "pad_r" : 0,
      "fused_relu" : 1,
      "fused_tanh" : 0,
      "debug_info" : "InceptionResnetV1\/Repeat_2\/block8_2\/Branch_0\/Conv2d_1x1\/Conv2D",
      "pad_fill_mode" : 0,
      "pad_b" : 0,
      "pad_l" : 0,
      "top" : "InceptionResnetV1\/Repeat_2\/block8_2\/Branch_0\/Conv2d_1x1\/Relu",
      "K" : 1792,
      "blob_biases" : 905,
      "name" : "InceptionResnetV1\/Repeat_2\/block8_2\/Branch_0\/Conv2d_1x1\/Conv2D",
      "has_batch_norm" : 0,
      "type" : "convolution",
      "n_groups" : 1,
      "pad_t" : 0,
      "has_biases" : 1,
      "C" : 192,
      "bottom" : "InceptionResnetV1\/Repeat_2\/block8_1\/Relu",
      "weights" : {
        "per_ch_qbias" : 909,
        "per_ch_qscale" : 911,
        "W_U6" : 907
      },
      "Nx" : 1,
      "pad_mode" : 1,
      "pad_value" : 0,
      "Ny" : 1,
      "n_parallel" : 1
    },
    {
      "pad_r" : 0,
      "fused_relu" : 1,
      "fused_tanh" : 0,
      "debug_info" : "InceptionResnetV1\/Repeat_2\/block8_2\/Branch_1\/Conv2d_0a_1x1\/Conv2D",
      "pad_fill_mode" : 0,
      "pad_b" : 0,
      "pad_l" : 0,
      "top" : "InceptionResnetV1\/Repeat_2\/block8_2\/Branch_1\/Conv2d_0a_1x1\/Relu",
      "K" : 1792,
      "blob_biases" : 913,
      "name" : "InceptionResnetV1\/Repeat_2\/block8_2\/Branch_1\/Conv2d_0a_1x1\/Conv2D",
      "has_batch_norm" : 0,
      "type" : "convolution",
      "n_groups" : 1,
      "pad_t" : 0,
      "has_biases" : 1,
      "C" : 192,
      "bottom" : "InceptionResnetV1\/Repeat_2\/block8_1\/Relu",
      "weights" : {
        "per_ch_qbias" : 917,
        "per_ch_qscale" : 919,
        "W_U6" : 915
      },
      "Nx" : 1,
      "pad_mode" : 1,
      "pad_value" : 0,
      "Ny" : 1,
      "n_parallel" : 1
    },
    {
      "pad_r" : 0,
      "fused_relu" : 1,
      "fused_tanh" : 0,
      "debug_info" : "InceptionResnetV1\/Repeat_2\/block8_2\/Branch_1\/Conv2d_0b_1x3\/Conv2D",
      "pad_fill_mode" : 0,
      "pad_b" : 0,
      "pad_l" : 0,
      "top" : "InceptionResnetV1\/Repeat_2\/block8_2\/Branch_1\/Conv2d_0b_1x3\/Relu",
      "K" : 192,
      "blob_biases" : 921,
      "name" : "InceptionResnetV1\/Repeat_2\/block8_2\/Branch_1\/Conv2d_0b_1x3\/Conv2D",
      "has_batch_norm" : 0,
      "type" : "convolution",
      "n_groups" : 1,
      "pad_t" : 0,
      "has_biases" : 1,
      "C" : 192,
      "bottom" : "InceptionResnetV1\/Repeat_2\/block8_2\/Branch_1\/Conv2d_0a_1x1\/Relu",
      "weights" : {
        "per_ch_qbias" : 925,
        "per_ch_qscale" : 927,
        "W_U6" : 923
      },
      "Nx" : 3,
      "pad_mode" : 1,
      "pad_value" : 0,
      "Ny" : 1,
      "n_parallel" : 1
    },
    {
      "pad_r" : 0,
      "fused_relu" : 1,
      "fused_tanh" : 0,
      "debug_info" : "InceptionResnetV1\/Repeat_2\/block8_2\/Branch_1\/Conv2d_0c_3x1\/Conv2D",
      "pad_fill_mode" : 0,
      "pad_b" : 0,
      "pad_l" : 0,
      "top" : "InceptionResnetV1\/Repeat_2\/block8_2\/Branch_1\/Conv2d_0c_3x1\/Relu",
      "K" : 192,
      "blob_biases" : 929,
      "name" : "InceptionResnetV1\/Repeat_2\/block8_2\/Branch_1\/Conv2d_0c_3x1\/Conv2D",
      "has_batch_norm" : 0,
      "type" : "convolution",
      "n_groups" : 1,
      "pad_t" : 0,
      "has_biases" : 1,
      "C" : 192,
      "bottom" : "InceptionResnetV1\/Repeat_2\/block8_2\/Branch_1\/Conv2d_0b_1x3\/Relu",
      "weights" : {
        "per_ch_qbias" : 933,
        "per_ch_qscale" : 935,
        "W_U6" : 931
      },
      "Nx" : 1,
      "pad_mode" : 1,
      "pad_value" : 0,
      "Ny" : 3,
      "n_parallel" : 1
    },
    {
      "weights" : {

      },
      "debug_info" : "InceptionResnetV1\/Repeat_2\/block8_2\/concat",
      "top" : "InceptionResnetV1\/Repeat_2\/block8_2\/concat",
      "type" : "concat",
      "name" : "InceptionResnetV1\/Repeat_2\/block8_2\/concat",
      "bottom" : "InceptionResnetV1\/Repeat_2\/block8_2\/Branch_0\/Conv2d_1x1\/Relu,InceptionResnetV1\/Repeat_2\/block8_2\/Branch_1\/Conv2d_0c_3x1\/Relu"
    },
    {
      "pad_r" : 0,
      "fused_relu" : 0,
      "fused_tanh" : 0,
      "debug_info" : "InceptionResnetV1\/Repeat_2\/block8_2\/Conv2d_1x1\/Conv2D",
      "pad_fill_mode" : 0,
      "pad_b" : 0,
      "pad_l" : 0,
      "top" : "InceptionResnetV1\/Repeat_2\/block8_2\/Conv2d_1x1\/Conv2D",
      "K" : 384,
      "blob_biases" : 937,
      "name" : "InceptionResnetV1\/Repeat_2\/block8_2\/Conv2d_1x1\/Conv2D",
      "has_batch_norm" : 0,
      "type" : "convolution",
      "n_groups" : 1,
      "pad_t" : 0,
      "has_biases" : 1,
      "C" : 1792,
      "bottom" : "InceptionResnetV1\/Repeat_2\/block8_2\/concat",
      "weights" : {
        "per_ch_qbias" : 941,
        "per_ch_qscale" : 943,
        "W_U6" : 939
      },
      "Nx" : 1,
      "pad_mode" : 1,
      "pad_value" : 0,
      "Ny" : 1,
      "n_parallel" : 1
    },
    {
      "bottom" : "InceptionResnetV1\/Repeat_2\/block8_2\/mul\/x,InceptionResnetV1\/Repeat_2\/block8_2\/Conv2d_1x1\/Conv2D",
      "alpha" : 1,
      "operation" : 1,
      "weights" : {

      },
      "fused_relu" : 0,
      "debug_info" : "InceptionResnetV1\/Repeat_2\/block8_2\/mul",
      "nd_mode" : true,
      "top" : "InceptionResnetV1\/Repeat_2\/block8_2\/mul",
      "type" : "elementwise",
      "name" : "InceptionResnetV1\/Repeat_2\/block8_2\/mul",
      "beta" : 0
    },
    {
      "bottom" : "InceptionResnetV1\/Repeat_2\/block8_1\/Relu,InceptionResnetV1\/Repeat_2\/block8_2\/mul",
      "alpha" : 1,
      "operation" : 0,
      "weights" : {

      },
      "fused_relu" : 0,
      "debug_info" : "InceptionResnetV1\/Repeat_2\/block8_2\/add",
      "nd_mode" : true,
      "top" : "InceptionResnetV1\/Repeat_2\/block8_2\/add",
      "type" : "elementwise",
      "name" : "InceptionResnetV1\/Repeat_2\/block8_2\/add",
      "beta" : 0
    },
    {
      "bottom" : "InceptionResnetV1\/Repeat_2\/block8_2\/add",
      "weights" : {

      },
      "mode" : 0,
      "debug_info" : "InceptionResnetV1\/Repeat_2\/block8_2\/Relu",
      "top" : "InceptionResnetV1\/Repeat_2\/block8_2\/Relu",
      "type" : "activation",
      "name" : "InceptionResnetV1\/Repeat_2\/block8_2\/Relu"
    },
    {
      "pad_r" : 0,
      "fused_relu" : 1,
      "fused_tanh" : 0,
      "debug_info" : "InceptionResnetV1\/Repeat_2\/block8_3\/Branch_0\/Conv2d_1x1\/Conv2D",
      "pad_fill_mode" : 0,
      "pad_b" : 0,
      "pad_l" : 0,
      "top" : "InceptionResnetV1\/Repeat_2\/block8_3\/Branch_0\/Conv2d_1x1\/Relu",
      "K" : 1792,
      "blob_biases" : 945,
      "name" : "InceptionResnetV1\/Repeat_2\/block8_3\/Branch_0\/Conv2d_1x1\/Conv2D",
      "has_batch_norm" : 0,
      "type" : "convolution",
      "n_groups" : 1,
      "pad_t" : 0,
      "has_biases" : 1,
      "C" : 192,
      "bottom" : "InceptionResnetV1\/Repeat_2\/block8_2\/Relu",
      "weights" : {
        "per_ch_qbias" : 949,
        "per_ch_qscale" : 951,
        "W_U6" : 947
      },
      "Nx" : 1,
      "pad_mode" : 1,
      "pad_value" : 0,
      "Ny" : 1,
      "n_parallel" : 1
    },
    {
      "pad_r" : 0,
      "fused_relu" : 1,
      "fused_tanh" : 0,
      "debug_info" : "InceptionResnetV1\/Repeat_2\/block8_3\/Branch_1\/Conv2d_0a_1x1\/Conv2D",
      "pad_fill_mode" : 0,
      "pad_b" : 0,
      "pad_l" : 0,
      "top" : "InceptionResnetV1\/Repeat_2\/block8_3\/Branch_1\/Conv2d_0a_1x1\/Relu",
      "K" : 1792,
      "blob_biases" : 953,
      "name" : "InceptionResnetV1\/Repeat_2\/block8_3\/Branch_1\/Conv2d_0a_1x1\/Conv2D",
      "has_batch_norm" : 0,
      "type" : "convolution",
      "n_groups" : 1,
      "pad_t" : 0,
      "has_biases" : 1,
      "C" : 192,
      "bottom" : "InceptionResnetV1\/Repeat_2\/block8_2\/Relu",
      "weights" : {
        "per_ch_qbias" : 957,
        "per_ch_qscale" : 959,
        "W_U6" : 955
      },
      "Nx" : 1,
      "pad_mode" : 1,
      "pad_value" : 0,
      "Ny" : 1,
      "n_parallel" : 1
    },
    {
      "pad_r" : 0,
      "fused_relu" : 1,
      "fused_tanh" : 0,
      "debug_info" : "InceptionResnetV1\/Repeat_2\/block8_3\/Branch_1\/Conv2d_0b_1x3\/Conv2D",
      "pad_fill_mode" : 0,
      "pad_b" : 0,
      "pad_l" : 0,
      "top" : "InceptionResnetV1\/Repeat_2\/block8_3\/Branch_1\/Conv2d_0b_1x3\/Relu",
      "K" : 192,
      "blob_biases" : 961,
      "name" : "InceptionResnetV1\/Repeat_2\/block8_3\/Branch_1\/Conv2d_0b_1x3\/Conv2D",
      "has_batch_norm" : 0,
      "type" : "convolution",
      "n_groups" : 1,
      "pad_t" : 0,
      "has_biases" : 1,
      "C" : 192,
      "bottom" : "InceptionResnetV1\/Repeat_2\/block8_3\/Branch_1\/Conv2d_0a_1x1\/Relu",
      "weights" : {
        "per_ch_qbias" : 965,
        "per_ch_qscale" : 967,
        "W_U6" : 963
      },
      "Nx" : 3,
      "pad_mode" : 1,
      "pad_value" : 0,
      "Ny" : 1,
      "n_parallel" : 1
    },
    {
      "pad_r" : 0,
      "fused_relu" : 1,
      "fused_tanh" : 0,
      "debug_info" : "InceptionResnetV1\/Repeat_2\/block8_3\/Branch_1\/Conv2d_0c_3x1\/Conv2D",
      "pad_fill_mode" : 0,
      "pad_b" : 0,
      "pad_l" : 0,
      "top" : "InceptionResnetV1\/Repeat_2\/block8_3\/Branch_1\/Conv2d_0c_3x1\/Relu",
      "K" : 192,
      "blob_biases" : 969,
      "name" : "InceptionResnetV1\/Repeat_2\/block8_3\/Branch_1\/Conv2d_0c_3x1\/Conv2D",
      "has_batch_norm" : 0,
      "type" : "convolution",
      "n_groups" : 1,
      "pad_t" : 0,
      "has_biases" : 1,
      "C" : 192,
      "bottom" : "InceptionResnetV1\/Repeat_2\/block8_3\/Branch_1\/Conv2d_0b_1x3\/Relu",
      "weights" : {
        "per_ch_qbias" : 973,
        "per_ch_qscale" : 975,
        "W_U6" : 971
      },
      "Nx" : 1,
      "pad_mode" : 1,
      "pad_value" : 0,
      "Ny" : 3,
      "n_parallel" : 1
    },
    {
      "weights" : {

      },
      "debug_info" : "InceptionResnetV1\/Repeat_2\/block8_3\/concat",
      "top" : "InceptionResnetV1\/Repeat_2\/block8_3\/concat",
      "type" : "concat",
      "name" : "InceptionResnetV1\/Repeat_2\/block8_3\/concat",
      "bottom" : "InceptionResnetV1\/Repeat_2\/block8_3\/Branch_0\/Conv2d_1x1\/Relu,InceptionResnetV1\/Repeat_2\/block8_3\/Branch_1\/Conv2d_0c_3x1\/Relu"
    },
    {
      "pad_r" : 0,
      "fused_relu" : 0,
      "fused_tanh" : 0,
      "debug_info" : "InceptionResnetV1\/Repeat_2\/block8_3\/Conv2d_1x1\/Conv2D",
      "pad_fill_mode" : 0,
      "pad_b" : 0,
      "pad_l" : 0,
      "top" : "InceptionResnetV1\/Repeat_2\/block8_3\/Conv2d_1x1\/Conv2D",
      "K" : 384,
      "blob_biases" : 977,
      "name" : "InceptionResnetV1\/Repeat_2\/block8_3\/Conv2d_1x1\/Conv2D",
      "has_batch_norm" : 0,
      "type" : "convolution",
      "n_groups" : 1,
      "pad_t" : 0,
      "has_biases" : 1,
      "C" : 1792,
      "bottom" : "InceptionResnetV1\/Repeat_2\/block8_3\/concat",
      "weights" : {
        "per_ch_qbias" : 981,
        "per_ch_qscale" : 983,
        "W_U6" : 979
      },
      "Nx" : 1,
      "pad_mode" : 1,
      "pad_value" : 0,
      "Ny" : 1,
      "n_parallel" : 1
    },
    {
      "bottom" : "InceptionResnetV1\/Repeat_2\/block8_3\/mul\/x,InceptionResnetV1\/Repeat_2\/block8_3\/Conv2d_1x1\/Conv2D",
      "alpha" : 1,
      "operation" : 1,
      "weights" : {

      },
      "fused_relu" : 0,
      "debug_info" : "InceptionResnetV1\/Repeat_2\/block8_3\/mul",
      "nd_mode" : true,
      "top" : "InceptionResnetV1\/Repeat_2\/block8_3\/mul",
      "type" : "elementwise",
      "name" : "InceptionResnetV1\/Repeat_2\/block8_3\/mul",
      "beta" : 0
    },
    {
      "bottom" : "InceptionResnetV1\/Repeat_2\/block8_2\/Relu,InceptionResnetV1\/Repeat_2\/block8_3\/mul",
      "alpha" : 1,
      "operation" : 0,
      "weights" : {

      },
      "fused_relu" : 0,
      "debug_info" : "InceptionResnetV1\/Repeat_2\/block8_3\/add",
      "nd_mode" : true,
      "top" : "InceptionResnetV1\/Repeat_2\/block8_3\/add",
      "type" : "elementwise",
      "name" : "InceptionResnetV1\/Repeat_2\/block8_3\/add",
      "beta" : 0
    },
    {
      "bottom" : "InceptionResnetV1\/Repeat_2\/block8_3\/add",
      "weights" : {

      },
      "mode" : 0,
      "debug_info" : "InceptionResnetV1\/Repeat_2\/block8_3\/Relu",
      "top" : "InceptionResnetV1\/Repeat_2\/block8_3\/Relu",
      "type" : "activation",
      "name" : "InceptionResnetV1\/Repeat_2\/block8_3\/Relu"
    },
    {
      "pad_r" : 0,
      "fused_relu" : 1,
      "fused_tanh" : 0,
      "debug_info" : "InceptionResnetV1\/Repeat_2\/block8_4\/Branch_0\/Conv2d_1x1\/Conv2D",
      "pad_fill_mode" : 0,
      "pad_b" : 0,
      "pad_l" : 0,
      "top" : "InceptionResnetV1\/Repeat_2\/block8_4\/Branch_0\/Conv2d_1x1\/Relu",
      "K" : 1792,
      "blob_biases" : 985,
      "name" : "InceptionResnetV1\/Repeat_2\/block8_4\/Branch_0\/Conv2d_1x1\/Conv2D",
      "has_batch_norm" : 0,
      "type" : "convolution",
      "n_groups" : 1,
      "pad_t" : 0,
      "has_biases" : 1,
      "C" : 192,
      "bottom" : "InceptionResnetV1\/Repeat_2\/block8_3\/Relu",
      "weights" : {
        "per_ch_qbias" : 989,
        "per_ch_qscale" : 991,
        "W_U6" : 987
      },
      "Nx" : 1,
      "pad_mode" : 1,
      "pad_value" : 0,
      "Ny" : 1,
      "n_parallel" : 1
    },
    {
      "pad_r" : 0,
      "fused_relu" : 1,
      "fused_tanh" : 0,
      "debug_info" : "InceptionResnetV1\/Repeat_2\/block8_4\/Branch_1\/Conv2d_0a_1x1\/Conv2D",
      "pad_fill_mode" : 0,
      "pad_b" : 0,
      "pad_l" : 0,
      "top" : "InceptionResnetV1\/Repeat_2\/block8_4\/Branch_1\/Conv2d_0a_1x1\/Relu",
      "K" : 1792,
      "blob_biases" : 993,
      "name" : "InceptionResnetV1\/Repeat_2\/block8_4\/Branch_1\/Conv2d_0a_1x1\/Conv2D",
      "has_batch_norm" : 0,
      "type" : "convolution",
      "n_groups" : 1,
      "pad_t" : 0,
      "has_biases" : 1,
      "C" : 192,
      "bottom" : "InceptionResnetV1\/Repeat_2\/block8_3\/Relu",
      "weights" : {
        "per_ch_qbias" : 997,
        "per_ch_qscale" : 999,
        "W_U6" : 995
      },
      "Nx" : 1,
      "pad_mode" : 1,
      "pad_value" : 0,
      "Ny" : 1,
      "n_parallel" : 1
    },
    {
      "pad_r" : 0,
      "fused_relu" : 1,
      "fused_tanh" : 0,
      "debug_info" : "InceptionResnetV1\/Repeat_2\/block8_4\/Branch_1\/Conv2d_0b_1x3\/Conv2D",
      "pad_fill_mode" : 0,
      "pad_b" : 0,
      "pad_l" : 0,
      "top" : "InceptionResnetV1\/Repeat_2\/block8_4\/Branch_1\/Conv2d_0b_1x3\/Relu",
      "K" : 192,
      "blob_biases" : 1001,
      "name" : "InceptionResnetV1\/Repeat_2\/block8_4\/Branch_1\/Conv2d_0b_1x3\/Conv2D",
      "has_batch_norm" : 0,
      "type" : "convolution",
      "n_groups" : 1,
      "pad_t" : 0,
      "has_biases" : 1,
      "C" : 192,
      "bottom" : "InceptionResnetV1\/Repeat_2\/block8_4\/Branch_1\/Conv2d_0a_1x1\/Relu",
      "weights" : {
        "per_ch_qbias" : 1005,
        "per_ch_qscale" : 1007,
        "W_U6" : 1003
      },
      "Nx" : 3,
      "pad_mode" : 1,
      "pad_value" : 0,
      "Ny" : 1,
      "n_parallel" : 1
    },
    {
      "pad_r" : 0,
      "fused_relu" : 1,
      "fused_tanh" : 0,
      "debug_info" : "InceptionResnetV1\/Repeat_2\/block8_4\/Branch_1\/Conv2d_0c_3x1\/Conv2D",
      "pad_fill_mode" : 0,
      "pad_b" : 0,
      "pad_l" : 0,
      "top" : "InceptionResnetV1\/Repeat_2\/block8_4\/Branch_1\/Conv2d_0c_3x1\/Relu",
      "K" : 192,
      "blob_biases" : 1009,
      "name" : "InceptionResnetV1\/Repeat_2\/block8_4\/Branch_1\/Conv2d_0c_3x1\/Conv2D",
      "has_batch_norm" : 0,
      "type" : "convolution",
      "n_groups" : 1,
      "pad_t" : 0,
      "has_biases" : 1,
      "C" : 192,
      "bottom" : "InceptionResnetV1\/Repeat_2\/block8_4\/Branch_1\/Conv2d_0b_1x3\/Relu",
      "weights" : {
        "per_ch_qbias" : 1013,
        "per_ch_qscale" : 1015,
        "W_U6" : 1011
      },
      "Nx" : 1,
      "pad_mode" : 1,
      "pad_value" : 0,
      "Ny" : 3,
      "n_parallel" : 1
    },
    {
      "weights" : {

      },
      "debug_info" : "InceptionResnetV1\/Repeat_2\/block8_4\/concat",
      "top" : "InceptionResnetV1\/Repeat_2\/block8_4\/concat",
      "type" : "concat",
      "name" : "InceptionResnetV1\/Repeat_2\/block8_4\/concat",
      "bottom" : "InceptionResnetV1\/Repeat_2\/block8_4\/Branch_0\/Conv2d_1x1\/Relu,InceptionResnetV1\/Repeat_2\/block8_4\/Branch_1\/Conv2d_0c_3x1\/Relu"
    },
    {
      "pad_r" : 0,
      "fused_relu" : 0,
      "fused_tanh" : 0,
      "debug_info" : "InceptionResnetV1\/Repeat_2\/block8_4\/Conv2d_1x1\/Conv2D",
      "pad_fill_mode" : 0,
      "pad_b" : 0,
      "pad_l" : 0,
      "top" : "InceptionResnetV1\/Repeat_2\/block8_4\/Conv2d_1x1\/Conv2D",
      "K" : 384,
      "blob_biases" : 1017,
      "name" : "InceptionResnetV1\/Repeat_2\/block8_4\/Conv2d_1x1\/Conv2D",
      "has_batch_norm" : 0,
      "type" : "convolution",
      "n_groups" : 1,
      "pad_t" : 0,
      "has_biases" : 1,
      "C" : 1792,
      "bottom" : "InceptionResnetV1\/Repeat_2\/block8_4\/concat",
      "weights" : {
        "per_ch_qbias" : 1021,
        "per_ch_qscale" : 1023,
        "W_U6" : 1019
      },
      "Nx" : 1,
      "pad_mode" : 1,
      "pad_value" : 0,
      "Ny" : 1,
      "n_parallel" : 1
    },
    {
      "bottom" : "InceptionResnetV1\/Repeat_2\/block8_4\/mul\/x,InceptionResnetV1\/Repeat_2\/block8_4\/Conv2d_1x1\/Conv2D",
      "alpha" : 1,
      "operation" : 1,
      "weights" : {

      },
      "fused_relu" : 0,
      "debug_info" : "InceptionResnetV1\/Repeat_2\/block8_4\/mul",
      "nd_mode" : true,
      "top" : "InceptionResnetV1\/Repeat_2\/block8_4\/mul",
      "type" : "elementwise",
      "name" : "InceptionResnetV1\/Repeat_2\/block8_4\/mul",
      "beta" : 0
    },
    {
      "bottom" : "InceptionResnetV1\/Repeat_2\/block8_3\/Relu,InceptionResnetV1\/Repeat_2\/block8_4\/mul",
      "alpha" : 1,
      "operation" : 0,
      "weights" : {

      },
      "fused_relu" : 0,
      "debug_info" : "InceptionResnetV1\/Repeat_2\/block8_4\/add",
      "nd_mode" : true,
      "top" : "InceptionResnetV1\/Repeat_2\/block8_4\/add",
      "type" : "elementwise",
      "name" : "InceptionResnetV1\/Repeat_2\/block8_4\/add",
      "beta" : 0
    },
    {
      "bottom" : "InceptionResnetV1\/Repeat_2\/block8_4\/add",
      "weights" : {

      },
      "mode" : 0,
      "debug_info" : "InceptionResnetV1\/Repeat_2\/block8_4\/Relu",
      "top" : "InceptionResnetV1\/Repeat_2\/block8_4\/Relu",
      "type" : "activation",
      "name" : "InceptionResnetV1\/Repeat_2\/block8_4\/Relu"
    },
    {
      "pad_r" : 0,
      "fused_relu" : 1,
      "fused_tanh" : 0,
      "debug_info" : "InceptionResnetV1\/Repeat_2\/block8_5\/Branch_0\/Conv2d_1x1\/Conv2D",
      "pad_fill_mode" : 0,
      "pad_b" : 0,
      "pad_l" : 0,
      "top" : "InceptionResnetV1\/Repeat_2\/block8_5\/Branch_0\/Conv2d_1x1\/Relu",
      "K" : 1792,
      "blob_biases" : 1025,
      "name" : "InceptionResnetV1\/Repeat_2\/block8_5\/Branch_0\/Conv2d_1x1\/Conv2D",
      "has_batch_norm" : 0,
      "type" : "convolution",
      "n_groups" : 1,
      "pad_t" : 0,
      "has_biases" : 1,
      "C" : 192,
      "bottom" : "InceptionResnetV1\/Repeat_2\/block8_4\/Relu",
      "weights" : {
        "per_ch_qbias" : 1029,
        "per_ch_qscale" : 1031,
        "W_U6" : 1027
      },
      "Nx" : 1,
      "pad_mode" : 1,
      "pad_value" : 0,
      "Ny" : 1,
      "n_parallel" : 1
    },
    {
      "pad_r" : 0,
      "fused_relu" : 1,
      "fused_tanh" : 0,
      "debug_info" : "InceptionResnetV1\/Repeat_2\/block8_5\/Branch_1\/Conv2d_0a_1x1\/Conv2D",
      "pad_fill_mode" : 0,
      "pad_b" : 0,
      "pad_l" : 0,
      "top" : "InceptionResnetV1\/Repeat_2\/block8_5\/Branch_1\/Conv2d_0a_1x1\/Relu",
      "K" : 1792,
      "blob_biases" : 1033,
      "name" : "InceptionResnetV1\/Repeat_2\/block8_5\/Branch_1\/Conv2d_0a_1x1\/Conv2D",
      "has_batch_norm" : 0,
      "type" : "convolution",
      "n_groups" : 1,
      "pad_t" : 0,
      "has_biases" : 1,
      "C" : 192,
      "bottom" : "InceptionResnetV1\/Repeat_2\/block8_4\/Relu",
      "weights" : {
        "per_ch_qbias" : 1037,
        "per_ch_qscale" : 1039,
        "W_U6" : 1035
      },
      "Nx" : 1,
      "pad_mode" : 1,
      "pad_value" : 0,
      "Ny" : 1,
      "n_parallel" : 1
    },
    {
      "pad_r" : 0,
      "fused_relu" : 1,
      "fused_tanh" : 0,
      "debug_info" : "InceptionResnetV1\/Repeat_2\/block8_5\/Branch_1\/Conv2d_0b_1x3\/Conv2D",
      "pad_fill_mode" : 0,
      "pad_b" : 0,
      "pad_l" : 0,
      "top" : "InceptionResnetV1\/Repeat_2\/block8_5\/Branch_1\/Conv2d_0b_1x3\/Relu",
      "K" : 192,
      "blob_biases" : 1041,
      "name" : "InceptionResnetV1\/Repeat_2\/block8_5\/Branch_1\/Conv2d_0b_1x3\/Conv2D",
      "has_batch_norm" : 0,
      "type" : "convolution",
      "n_groups" : 1,
      "pad_t" : 0,
      "has_biases" : 1,
      "C" : 192,
      "bottom" : "InceptionResnetV1\/Repeat_2\/block8_5\/Branch_1\/Conv2d_0a_1x1\/Relu",
      "weights" : {
        "per_ch_qbias" : 1045,
        "per_ch_qscale" : 1047,
        "W_U6" : 1043
      },
      "Nx" : 3,
      "pad_mode" : 1,
      "pad_value" : 0,
      "Ny" : 1,
      "n_parallel" : 1
    },
    {
      "pad_r" : 0,
      "fused_relu" : 1,
      "fused_tanh" : 0,
      "debug_info" : "InceptionResnetV1\/Repeat_2\/block8_5\/Branch_1\/Conv2d_0c_3x1\/Conv2D",
      "pad_fill_mode" : 0,
      "pad_b" : 0,
      "pad_l" : 0,
      "top" : "InceptionResnetV1\/Repeat_2\/block8_5\/Branch_1\/Conv2d_0c_3x1\/Relu",
      "K" : 192,
      "blob_biases" : 1049,
      "name" : "InceptionResnetV1\/Repeat_2\/block8_5\/Branch_1\/Conv2d_0c_3x1\/Conv2D",
      "has_batch_norm" : 0,
      "type" : "convolution",
      "n_groups" : 1,
      "pad_t" : 0,
      "has_biases" : 1,
      "C" : 192,
      "bottom" : "InceptionResnetV1\/Repeat_2\/block8_5\/Branch_1\/Conv2d_0b_1x3\/Relu",
      "weights" : {
        "per_ch_qbias" : 1053,
        "per_ch_qscale" : 1055,
        "W_U6" : 1051
      },
      "Nx" : 1,
      "pad_mode" : 1,
      "pad_value" : 0,
      "Ny" : 3,
      "n_parallel" : 1
    },
    {
      "weights" : {

      },
      "debug_info" : "InceptionResnetV1\/Repeat_2\/block8_5\/concat",
      "top" : "InceptionResnetV1\/Repeat_2\/block8_5\/concat",
      "type" : "concat",
      "name" : "InceptionResnetV1\/Repeat_2\/block8_5\/concat",
      "bottom" : "InceptionResnetV1\/Repeat_2\/block8_5\/Branch_0\/Conv2d_1x1\/Relu,InceptionResnetV1\/Repeat_2\/block8_5\/Branch_1\/Conv2d_0c_3x1\/Relu"
    },
    {
      "pad_r" : 0,
      "fused_relu" : 0,
      "fused_tanh" : 0,
      "debug_info" : "InceptionResnetV1\/Repeat_2\/block8_5\/Conv2d_1x1\/Conv2D",
      "pad_fill_mode" : 0,
      "pad_b" : 0,
      "pad_l" : 0,
      "top" : "InceptionResnetV1\/Repeat_2\/block8_5\/Conv2d_1x1\/Conv2D",
      "K" : 384,
      "blob_biases" : 1057,
      "name" : "InceptionResnetV1\/Repeat_2\/block8_5\/Conv2d_1x1\/Conv2D",
      "has_batch_norm" : 0,
      "type" : "convolution",
      "n_groups" : 1,
      "pad_t" : 0,
      "has_biases" : 1,
      "C" : 1792,
      "bottom" : "InceptionResnetV1\/Repeat_2\/block8_5\/concat",
      "weights" : {
        "per_ch_qbias" : 1061,
        "per_ch_qscale" : 1063,
        "W_U6" : 1059
      },
      "Nx" : 1,
      "pad_mode" : 1,
      "pad_value" : 0,
      "Ny" : 1,
      "n_parallel" : 1
    },
    {
      "bottom" : "InceptionResnetV1\/Repeat_2\/block8_5\/mul\/x,InceptionResnetV1\/Repeat_2\/block8_5\/Conv2d_1x1\/Conv2D",
      "alpha" : 1,
      "operation" : 1,
      "weights" : {

      },
      "fused_relu" : 0,
      "debug_info" : "InceptionResnetV1\/Repeat_2\/block8_5\/mul",
      "nd_mode" : true,
      "top" : "InceptionResnetV1\/Repeat_2\/block8_5\/mul",
      "type" : "elementwise",
      "name" : "InceptionResnetV1\/Repeat_2\/block8_5\/mul",
      "beta" : 0
    },
    {
      "bottom" : "InceptionResnetV1\/Repeat_2\/block8_4\/Relu,InceptionResnetV1\/Repeat_2\/block8_5\/mul",
      "alpha" : 1,
      "operation" : 0,
      "weights" : {

      },
      "fused_relu" : 0,
      "debug_info" : "InceptionResnetV1\/Repeat_2\/block8_5\/add",
      "nd_mode" : true,
      "top" : "InceptionResnetV1\/Repeat_2\/block8_5\/add",
      "type" : "elementwise",
      "name" : "InceptionResnetV1\/Repeat_2\/block8_5\/add",
      "beta" : 0
    },
    {
      "bottom" : "InceptionResnetV1\/Repeat_2\/block8_5\/add",
      "weights" : {

      },
      "mode" : 0,
      "debug_info" : "InceptionResnetV1\/Repeat_2\/block8_5\/Relu",
      "top" : "InceptionResnetV1\/Repeat_2\/block8_5\/Relu",
      "type" : "activation",
      "name" : "InceptionResnetV1\/Repeat_2\/block8_5\/Relu"
    },
    {
      "pad_r" : 0,
      "fused_relu" : 1,
      "fused_tanh" : 0,
      "debug_info" : "InceptionResnetV1\/Block8\/Branch_0\/Conv2d_1x1\/Conv2D",
      "pad_fill_mode" : 0,
      "pad_b" : 0,
      "pad_l" : 0,
      "top" : "InceptionResnetV1\/Block8\/Branch_0\/Conv2d_1x1\/Relu",
      "K" : 1792,
      "blob_biases" : 1065,
      "name" : "InceptionResnetV1\/Block8\/Branch_0\/Conv2d_1x1\/Conv2D",
      "has_batch_norm" : 0,
      "type" : "convolution",
      "n_groups" : 1,
      "pad_t" : 0,
      "has_biases" : 1,
      "C" : 192,
      "bottom" : "InceptionResnetV1\/Repeat_2\/block8_5\/Relu",
      "weights" : {
        "per_ch_qbias" : 1069,
        "per_ch_qscale" : 1071,
        "W_U6" : 1067
      },
      "Nx" : 1,
      "pad_mode" : 1,
      "pad_value" : 0,
      "Ny" : 1,
      "n_parallel" : 1
    },
    {
      "pad_r" : 0,
      "fused_relu" : 1,
      "fused_tanh" : 0,
      "debug_info" : "InceptionResnetV1\/Block8\/Branch_1\/Conv2d_0a_1x1\/Conv2D",
      "pad_fill_mode" : 0,
      "pad_b" : 0,
      "pad_l" : 0,
      "top" : "InceptionResnetV1\/Block8\/Branch_1\/Conv2d_0a_1x1\/Relu",
      "K" : 1792,
      "blob_biases" : 1073,
      "name" : "InceptionResnetV1\/Block8\/Branch_1\/Conv2d_0a_1x1\/Conv2D",
      "has_batch_norm" : 0,
      "type" : "convolution",
      "n_groups" : 1,
      "pad_t" : 0,
      "has_biases" : 1,
      "C" : 192,
      "bottom" : "InceptionResnetV1\/Repeat_2\/block8_5\/Relu",
      "weights" : {
        "per_ch_qbias" : 1077,
        "per_ch_qscale" : 1079,
        "W_U6" : 1075
      },
      "Nx" : 1,
      "pad_mode" : 1,
      "pad_value" : 0,
      "Ny" : 1,
      "n_parallel" : 1
    },
    {
      "pad_r" : 0,
      "fused_relu" : 1,
      "fused_tanh" : 0,
      "debug_info" : "InceptionResnetV1\/Block8\/Branch_1\/Conv2d_0b_1x3\/Conv2D",
      "pad_fill_mode" : 0,
      "pad_b" : 0,
      "pad_l" : 0,
      "top" : "InceptionResnetV1\/Block8\/Branch_1\/Conv2d_0b_1x3\/Relu",
      "K" : 192,
      "blob_biases" : 1081,
      "name" : "InceptionResnetV1\/Block8\/Branch_1\/Conv2d_0b_1x3\/Conv2D",
      "has_batch_norm" : 0,
      "type" : "convolution",
      "n_groups" : 1,
      "pad_t" : 0,
      "has_biases" : 1,
      "C" : 192,
      "bottom" : "InceptionResnetV1\/Block8\/Branch_1\/Conv2d_0a_1x1\/Relu",
      "weights" : {
        "per_ch_qbias" : 1085,
        "per_ch_qscale" : 1087,
        "W_U6" : 1083
      },
      "Nx" : 3,
      "pad_mode" : 1,
      "pad_value" : 0,
      "Ny" : 1,
      "n_parallel" : 1
    },
    {
      "pad_r" : 0,
      "fused_relu" : 1,
      "fused_tanh" : 0,
      "debug_info" : "InceptionResnetV1\/Block8\/Branch_1\/Conv2d_0c_3x1\/Conv2D",
      "pad_fill_mode" : 0,
      "pad_b" : 0,
      "pad_l" : 0,
      "top" : "InceptionResnetV1\/Block8\/Branch_1\/Conv2d_0c_3x1\/Relu",
      "K" : 192,
      "blob_biases" : 1089,
      "name" : "InceptionResnetV1\/Block8\/Branch_1\/Conv2d_0c_3x1\/Conv2D",
      "has_batch_norm" : 0,
      "type" : "convolution",
      "n_groups" : 1,
      "pad_t" : 0,
      "has_biases" : 1,
      "C" : 192,
      "bottom" : "InceptionResnetV1\/Block8\/Branch_1\/Conv2d_0b_1x3\/Relu",
      "weights" : {
        "per_ch_qbias" : 1093,
        "per_ch_qscale" : 1095,
        "W_U6" : 1091
      },
      "Nx" : 1,
      "pad_mode" : 1,
      "pad_value" : 0,
      "Ny" : 3,
      "n_parallel" : 1
    },
    {
      "weights" : {

      },
      "debug_info" : "InceptionResnetV1\/Block8\/concat",
      "top" : "InceptionResnetV1\/Block8\/concat",
      "type" : "concat",
      "name" : "InceptionResnetV1\/Block8\/concat",
      "bottom" : "InceptionResnetV1\/Block8\/Branch_0\/Conv2d_1x1\/Relu,InceptionResnetV1\/Block8\/Branch_1\/Conv2d_0c_3x1\/Relu"
    },
    {
      "pad_r" : 0,
      "fused_relu" : 0,
      "fused_tanh" : 0,
      "debug_info" : "InceptionResnetV1\/Block8\/Conv2d_1x1\/Conv2D",
      "pad_fill_mode" : 0,
      "pad_b" : 0,
      "pad_l" : 0,
      "top" : "InceptionResnetV1\/Block8\/Conv2d_1x1\/Conv2D",
      "K" : 384,
      "blob_biases" : 1097,
      "name" : "InceptionResnetV1\/Block8\/Conv2d_1x1\/Conv2D",
      "has_batch_norm" : 0,
      "type" : "convolution",
      "n_groups" : 1,
      "pad_t" : 0,
      "has_biases" : 1,
      "C" : 1792,
      "bottom" : "InceptionResnetV1\/Block8\/concat",
      "weights" : {
        "per_ch_qbias" : 1101,
        "per_ch_qscale" : 1103,
        "W_U6" : 1099
      },
      "Nx" : 1,
      "pad_mode" : 1,
      "pad_value" : 0,
      "Ny" : 1,
      "n_parallel" : 1
    },
    {
      "bottom" : "InceptionResnetV1\/Block8\/mul\/x,InceptionResnetV1\/Block8\/Conv2d_1x1\/Conv2D",
      "alpha" : 1,
      "operation" : 1,
      "weights" : {

      },
      "fused_relu" : 0,
      "debug_info" : "InceptionResnetV1\/Block8\/mul",
      "nd_mode" : true,
      "top" : "InceptionResnetV1\/Block8\/mul",
      "type" : "elementwise",
      "name" : "InceptionResnetV1\/Block8\/mul",
      "beta" : 0
    },
    {
      "bottom" : "InceptionResnetV1\/Repeat_2\/block8_5\/Relu,InceptionResnetV1\/Block8\/mul",
      "alpha" : 1,
      "operation" : 0,
      "weights" : {

      },
      "fused_relu" : 0,
      "debug_info" : "InceptionResnetV1\/Block8\/add",
      "nd_mode" : true,
      "top" : "InceptionResnetV1\/Block8\/add",
      "type" : "elementwise",
      "name" : "InceptionResnetV1\/Block8\/add",
      "beta" : 0
    },
    {
      "pad_r" : 0,
      "debug_info" : "InceptionResnetV1\/Logits\/AvgPool_1a_8x8\/AvgPool",
      "pad_fill_mode" : 0,
      "pad_b" : 0,
      "pad_l" : 0,
      "size_x" : 3,
      "top" : "InceptionResnetV1\/Logits\/AvgPool_1a_8x8\/AvgPool",
      "top_shape_style" : 0,
      "stride_x" : 1,
      "avg_or_max" : 0,
      "average_count_exclude_padding" : 1,
      "type" : "pool",
      "name" : "InceptionResnetV1\/Logits\/AvgPool_1a_8x8\/AvgPool",
      "pad_t" : 0,
      "stride_y" : 1,
      "bottom" : "InceptionResnetV1\/Block8\/add",
      "weights" : {

      },
      "pad_mode" : 2,
      "size_y" : 3,
      "pad_value" : 0
    },
    {
      "axis_h" : 0,
      "axis_w" : 2,
      "bottom" : "InceptionResnetV1\/Logits\/AvgPool_1a_8x8\/AvgPool",
      "axis_k" : 1,
      "axis_n" : 3,
      "axis_seq" : 4,
      "weights" : {

      },
      "debug_info" : "InceptionResnetV1\/Logits\/AvgPool_1a_8x8\/AvgPool_to_nhwc",
      "top" : "InceptionResnetV1\/Logits\/AvgPool_1a_8x8\/AvgPool_to_nhwc",
      "type" : "transpose",
      "name" : "InceptionResnetV1\/Logits\/AvgPool_1a_8x8\/AvgPool_to_nhwc"
    },
    {
      "name" : "InceptionResnetV1\/Logits\/Flatten\/flatten\/Reshape",
      "weights" : {

      },
      "dst_w" : 1792,
      "version" : 1,
      "dst_n" : 1,
      "dst_nd_rank" : 2,
      "type" : "reshape",
      "dst_h" : 1,
      "mode" : 0,
      "dynamic_shape" : false,
      "bottom" : "InceptionResnetV1\/Logits\/AvgPool_1a_8x8\/AvgPool_to_nhwc",
      "debug_info" : "InceptionResnetV1\/Logits\/Flatten\/flatten\/Reshape",
      "dst_seq" : 1,
      "dst_k" : 1,
      "top" : "InceptionResnetV1\/Logits\/Flatten\/flatten\/Reshape"
    },
    {
      "nB" : 1792,
      "top" : "InceptionResnetV1\/Bottleneck\/MatMul",
      "has_biases" : 0,
      "name" : "InceptionResnetV1\/Bottleneck\/MatMul",
      "nC" : 512,
      "type" : "inner_product",
      "has_relu" : 0,
      "bottom" : "InceptionResnetV1\/Logits\/Flatten\/flatten\/Reshape",
      "debug_info" : "InceptionResnetV1\/Bottleneck\/MatMul",
      "has_tanh" : 0,
      "weights" : {
        "per_ch_qbias" : 1107,
        "per_ch_qscale" : 1109,
        "W_U6" : 1105
      },
      "has_prelu" : 0
    },
    {
      "name" : "InceptionResnetV1\/Bottleneck\/BatchNorm\/Reshape",
      "weights" : {

      },
      "dst_w" : 512,
      "version" : 1,
      "dst_n" : 1,
      "dst_nd_rank" : 4,
      "type" : "reshape",
      "dst_h" : 1,
      "mode" : 0,
      "dynamic_shape" : false,
      "bottom" : "InceptionResnetV1\/Bottleneck\/MatMul",
      "debug_info" : "InceptionResnetV1\/Bottleneck\/BatchNorm\/Reshape",
      "dst_seq" : 1,
      "dst_k" : 1,
      "top" : "InceptionResnetV1\/Bottleneck\/BatchNorm\/Reshape"
    },
    {
      "size_of_axes" : 3,
      "bottom" : "InceptionResnetV1\/Bottleneck\/BatchNorm\/moving_mean\/read",
      "axes_0" : 0,
      "axes_1" : 1,
      "axes_2" : 2,
      "nd_axis" : 0,
      "weights" : {

      },
      "debug_info" : "InceptionResnetV1\/Bottleneck\/BatchNorm\/FusedBatchNorm\/Sub_InceptionResnetV1\/Bottleneck\/BatchNorm\/moving_mean\/read__expand_dims",
      "top" : "InceptionResnetV1\/Bottleneck\/BatchNorm\/moving_mean\/read_expanded",
      "type" : "expand_dims",
      "name" : "InceptionResnetV1\/Bottleneck\/BatchNorm\/FusedBatchNorm\/Sub_InceptionResnetV1\/Bottleneck\/BatchNorm\/moving_mean\/read__expand_dims"
    },
    {
      "bottom" : "InceptionResnetV1\/Bottleneck\/BatchNorm\/moving_mean\/read_expanded",
      "alpha" : -1,
      "operation" : 1,
      "weights" : {

      },
      "fused_relu" : 0,
      "debug_info" : "InceptionResnetV1\/Bottleneck\/BatchNorm\/FusedBatchNorm\/Sub_InceptionResnetV1\/Bottleneck\/BatchNorm\/moving_mean\/read_expanded_neg",
      "top" : "InceptionResnetV1\/Bottleneck\/BatchNorm\/moving_mean\/read_expanded_neg",
      "type" : "elementwise",
      "name" : "InceptionResnetV1\/Bottleneck\/BatchNorm\/FusedBatchNorm\/Sub_InceptionResnetV1\/Bottleneck\/BatchNorm\/moving_mean\/read_expanded_neg",
      "beta" : 0
    },
    {
      "bottom" : "InceptionResnetV1\/Bottleneck\/BatchNorm\/Reshape,InceptionResnetV1\/Bottleneck\/BatchNorm\/moving_mean\/read_expanded_neg",
      "alpha" : 1,
      "operation" : 0,
      "weights" : {

      },
      "fused_relu" : 0,
      "debug_info" : "InceptionResnetV1\/Bottleneck\/BatchNorm\/FusedBatchNorm\/Sub",
      "top" : "InceptionResnetV1\/Bottleneck\/BatchNorm\/FusedBatchNorm\/Sub",
      "type" : "elementwise",
      "name" : "InceptionResnetV1\/Bottleneck\/BatchNorm\/FusedBatchNorm\/Sub",
      "beta" : 0
    },
    {
      "size_of_axes" : 3,
      "bottom" : "InceptionResnetV1\/Bottleneck\/BatchNorm\/FusedBatchNorm\/Mul",
      "axes_0" : 0,
      "axes_1" : 1,
      "axes_2" : 2,
      "nd_axis" : 0,
      "weights" : {

      },
      "debug_info" : "InceptionResnetV1\/Bottleneck\/BatchNorm\/FusedBatchNorm\/Mul_0_InceptionResnetV1\/Bottleneck\/BatchNorm\/FusedBatchNorm\/Mul__expand_dims",
      "top" : "InceptionResnetV1\/Bottleneck\/BatchNorm\/FusedBatchNorm\/Mul_expanded",
      "type" : "expand_dims",
      "name" : "InceptionResnetV1\/Bottleneck\/BatchNorm\/FusedBatchNorm\/Mul_0_InceptionResnetV1\/Bottleneck\/BatchNorm\/FusedBatchNorm\/Mul__expand_dims"
    },
    {
      "bottom" : "InceptionResnetV1\/Bottleneck\/BatchNorm\/FusedBatchNorm\/Sub,InceptionResnetV1\/Bottleneck\/BatchNorm\/FusedBatchNorm\/Mul_expanded",
      "alpha" : 1,
      "operation" : 1,
      "weights" : {

      },
      "fused_relu" : 0,
      "debug_info" : "InceptionResnetV1\/Bottleneck\/BatchNorm\/FusedBatchNorm\/Mul_0",
      "top" : "InceptionResnetV1\/Bottleneck\/BatchNorm\/FusedBatchNorm\/Mul_0",
      "type" : "elementwise",
      "name" : "InceptionResnetV1\/Bottleneck\/BatchNorm\/FusedBatchNorm\/Mul_0",
      "beta" : 0
    },
    {
      "size_of_axes" : 3,
      "bottom" : "InceptionResnetV1\/Bottleneck\/BatchNorm\/beta\/read",
      "axes_0" : 0,
      "axes_1" : 1,
      "axes_2" : 2,
      "nd_axis" : 0,
      "weights" : {

      },
      "debug_info" : "InceptionResnetV1\/Bottleneck\/BatchNorm\/FusedBatchNorm\/Add_InceptionResnetV1\/Bottleneck\/BatchNorm\/beta\/read__expand_dims",
      "top" : "InceptionResnetV1\/Bottleneck\/BatchNorm\/beta\/read_expanded",
      "type" : "expand_dims",
      "name" : "InceptionResnetV1\/Bottleneck\/BatchNorm\/FusedBatchNorm\/Add_InceptionResnetV1\/Bottleneck\/BatchNorm\/beta\/read__expand_dims"
    },
    {
      "bottom" : "InceptionResnetV1\/Bottleneck\/BatchNorm\/FusedBatchNorm\/Mul_0,InceptionResnetV1\/Bottleneck\/BatchNorm\/beta\/read_expanded",
      "alpha" : 1,
      "operation" : 0,
      "weights" : {

      },
      "fused_relu" : 0,
      "debug_info" : "InceptionResnetV1\/Bottleneck\/BatchNorm\/FusedBatchNorm\/Add",
      "top" : "InceptionResnetV1\/Bottleneck\/BatchNorm\/FusedBatchNorm\/Add",
      "type" : "elementwise",
      "name" : "InceptionResnetV1\/Bottleneck\/BatchNorm\/FusedBatchNorm\/Add",
      "beta" : 0
    },
    {
      "name" : "embeddings",
      "weights" : {

      },
      "dst_w" : 512,
      "version" : 1,
      "dst_n" : 1,
      "dst_nd_rank" : 2,
      "type" : "reshape",
      "dst_h" : 1,
      "mode" : 0,
      "attributes" : {
        "is_output" : 1
      },
      "dynamic_shape" : false,
      "bottom" : "InceptionResnetV1\/Bottleneck\/BatchNorm\/FusedBatchNorm\/Add",
      "debug_info" : "embeddings",
      "dst_k" : 1,
      "dst_seq" : 1,
      "top" : "embeddings"
    }
  ]
}