{
  "layers" : [
    {
      "pad_r" : 0,
      "fused_relu" : 1,
      "fused_tanh" : 0,
      "debug_info" : "Conv2d_1a_3x3",
      "pad_fill_mode" : 0,
      "pad_b" : 0,
      "pad_l" : 0,
      "top" : "Conv2d_1a_3x3_Activation_output",
      "blob_weights" : 3,
      "K" : 3,
      "blob_biases" : 1,
      "stride_x" : 2,
      "name" : "Conv2d_1a_3x3",
      "has_batch_norm" : 0,
      "type" : "convolution",
      "n_groups" : 1,
      "pad_t" : 0,
      "stride_y" : 2,
      "has_biases" : 1,
      "C" : 32,
      "bottom" : "image",
      "weights" : {

      },
      "Nx" : 3,
      "pad_mode" : 0,
      "pad_value" : 0,
      "Ny" : 3,
      "n_parallel" : 1
    },
    {
      "pad_r" : 0,
      "fused_relu" : 1,
      "fused_tanh" : 0,
      "debug_info" : "Conv2d_2a_3x3",
      "pad_fill_mode" : 0,
      "pad_b" : 0,
      "pad_l" : 0,
      "top" : "Conv2d_2a_3x3_Activation_output",
      "blob_weights" : 7,
      "K" : 32,
      "blob_biases" : 5,
      "name" : "Conv2d_2a_3x3",
      "has_batch_norm" : 0,
      "type" : "convolution",
      "n_groups" : 1,
      "pad_t" : 0,
      "has_biases" : 1,
      "C" : 32,
      "bottom" : "Conv2d_1a_3x3_Activation_output",
      "weights" : {

      },
      "Nx" : 3,
      "pad_mode" : 0,
      "pad_value" : 0,
      "Ny" : 3,
      "n_parallel" : 1
    },
    {
      "pad_r" : 0,
      "fused_relu" : 1,
      "fused_tanh" : 0,
      "debug_info" : "Conv2d_2b_3x3",
      "pad_fill_mode" : 0,
      "pad_b" : 0,
      "pad_l" : 0,
      "top" : "Conv2d_2b_3x3_Activation_output",
      "blob_weights" : 11,
      "K" : 32,
      "blob_biases" : 9,
      "name" : "Conv2d_2b_3x3",
      "has_batch_norm" : 0,
      "type" : "convolution",
      "n_groups" : 1,
      "pad_t" : 0,
      "has_biases" : 1,
      "C" : 64,
      "bottom" : "Conv2d_2a_3x3_Activation_output",
      "weights" : {

      },
      "Nx" : 3,
      "pad_mode" : 1,
      "pad_value" : 0,
      "Ny" : 3,
      "n_parallel" : 1
    },
    {
      "pad_r" : 0,
      "debug_info" : "MaxPool_3a_3x3",
      "pad_fill_mode" : 0,
      "pad_b" : 0,
      "pad_l" : 0,
      "size_x" : 3,
      "top" : "MaxPool_3a_3x3_output",
      "top_shape_style" : 0,
      "stride_x" : 2,
      "avg_or_max" : 1,
      "average_count_exclude_padding" : 1,
      "type" : "pool",
      "name" : "MaxPool_3a_3x3",
      "pad_t" : 0,
      "stride_y" : 2,
      "bottom" : "Conv2d_2b_3x3_Activation_output",
      "weights" : {

      },
      "pad_mode" : 2,
      "size_y" : 3,
      "pad_value" : 0
    },
    {
      "pad_r" : 0,
      "fused_relu" : 1,
      "fused_tanh" : 0,
      "debug_info" : "Conv2d_3b_1x1",
      "pad_fill_mode" : 0,
      "pad_b" : 0,
      "pad_l" : 0,
      "top" : "Conv2d_3b_1x1_Activation_output",
      "blob_weights" : 15,
      "K" : 64,
      "blob_biases" : 13,
      "name" : "Conv2d_3b_1x1",
      "has_batch_norm" : 0,
      "type" : "convolution",
      "n_groups" : 1,
      "pad_t" : 0,
      "has_biases" : 1,
      "C" : 80,
      "bottom" : "MaxPool_3a_3x3_output",
      "weights" : {

      },
      "Nx" : 1,
      "pad_mode" : 0,
      "pad_value" : 0,
      "Ny" : 1,
      "n_parallel" : 1
    },
    {
      "pad_r" : 0,
      "fused_relu" : 1,
      "fused_tanh" : 0,
      "debug_info" : "Conv2d_4a_3x3",
      "pad_fill_mode" : 0,
      "pad_b" : 0,
      "pad_l" : 0,
      "top" : "Conv2d_4a_3x3_Activation_output",
      "blob_weights" : 19,
      "K" : 80,
      "blob_biases" : 17,
      "name" : "Conv2d_4a_3x3",
      "has_batch_norm" : 0,
      "type" : "convolution",
      "n_groups" : 1,
      "pad_t" : 0,
      "has_biases" : 1,
      "C" : 192,
      "bottom" : "Conv2d_3b_1x1_Activation_output",
      "weights" : {

      },
      "Nx" : 3,
      "pad_mode" : 0,
      "pad_value" : 0,
      "Ny" : 3,
      "n_parallel" : 1
    },
    {
      "pad_r" : 0,
      "fused_relu" : 1,
      "fused_tanh" : 0,
      "debug_info" : "Conv2d_4b_3x3",
      "pad_fill_mode" : 0,
      "pad_b" : 0,
      "pad_l" : 0,
      "top" : "Conv2d_4b_3x3_Activation_output",
      "blob_weights" : 23,
      "K" : 192,
      "blob_biases" : 21,
      "stride_x" : 2,
      "name" : "Conv2d_4b_3x3",
      "has_batch_norm" : 0,
      "type" : "convolution",
      "n_groups" : 1,
      "pad_t" : 0,
      "stride_y" : 2,
      "has_biases" : 1,
      "C" : 256,
      "bottom" : "Conv2d_4a_3x3_Activation_output",
      "weights" : {

      },
      "Nx" : 3,
      "pad_mode" : 0,
      "pad_value" : 0,
      "Ny" : 3,
      "n_parallel" : 1
    },
    {
      "pad_r" : 0,
      "fused_relu" : 1,
      "fused_tanh" : 0,
      "debug_info" : "Block35_1_Branch_2_Conv2d_0a_1x1",
      "pad_fill_mode" : 0,
      "pad_b" : 0,
      "pad_l" : 0,
      "top" : "Block35_1_Branch_2_Conv2d_0a_1x1_Activation_output",
      "blob_weights" : 27,
      "K" : 256,
      "blob_biases" : 25,
      "name" : "Block35_1_Branch_2_Conv2d_0a_1x1",
      "has_batch_norm" : 0,
      "type" : "convolution",
      "n_groups" : 1,
      "pad_t" : 0,
      "has_biases" : 1,
      "C" : 32,
      "bottom" : "Conv2d_4b_3x3_Activation_output",
      "weights" : {

      },
      "Nx" : 1,
      "pad_mode" : 1,
      "pad_value" : 0,
      "Ny" : 1,
      "n_parallel" : 1
    },
    {
      "pad_r" : 0,
      "fused_relu" : 1,
      "fused_tanh" : 0,
      "debug_info" : "Block35_1_Branch_1_Conv2d_0a_1x1",
      "pad_fill_mode" : 0,
      "pad_b" : 0,
      "pad_l" : 0,
      "top" : "Block35_1_Branch_1_Conv2d_0a_1x1_Activation_output",
      "blob_weights" : 31,
      "K" : 256,
      "blob_biases" : 29,
      "name" : "Block35_1_Branch_1_Conv2d_0a_1x1",
      "has_batch_norm" : 0,
      "type" : "convolution",
      "n_groups" : 1,
      "pad_t" : 0,
      "has_biases" : 1,
      "C" : 32,
      "bottom" : "Conv2d_4b_3x3_Activation_output",
      "weights" : {

      },
      "Nx" : 1,
      "pad_mode" : 1,
      "pad_value" : 0,
      "Ny" : 1,
      "n_parallel" : 1
    },
    {
      "pad_r" : 0,
      "fused_relu" : 1,
      "fused_tanh" : 0,
      "debug_info" : "Block35_1_Branch_2_Conv2d_0b_3x3",
      "pad_fill_mode" : 0,
      "pad_b" : 0,
      "pad_l" : 0,
      "top" : "Block35_1_Branch_2_Conv2d_0b_3x3_Activation_output",
      "blob_weights" : 35,
      "K" : 32,
      "blob_biases" : 33,
      "name" : "Block35_1_Branch_2_Conv2d_0b_3x3",
      "has_batch_norm" : 0,
      "type" : "convolution",
      "n_groups" : 1,
      "pad_t" : 0,
      "has_biases" : 1,
      "C" : 32,
      "bottom" : "Block35_1_Branch_2_Conv2d_0a_1x1_Activation_output",
      "weights" : {

      },
      "Nx" : 3,
      "pad_mode" : 1,
      "pad_value" : 0,
      "Ny" : 3,
      "n_parallel" : 1
    },
    {
      "pad_r" : 0,
      "fused_relu" : 1,
      "fused_tanh" : 0,
      "debug_info" : "Block35_1_Branch_0_Conv2d_1x1",
      "pad_fill_mode" : 0,
      "pad_b" : 0,
      "pad_l" : 0,
      "top" : "Block35_1_Branch_0_Conv2d_1x1_Activation_output",
      "blob_weights" : 39,
      "K" : 256,
      "blob_biases" : 37,
      "name" : "Block35_1_Branch_0_Conv2d_1x1",
      "has_batch_norm" : 0,
      "type" : "convolution",
      "n_groups" : 1,
      "pad_t" : 0,
      "has_biases" : 1,
      "C" : 32,
      "bottom" : "Conv2d_4b_3x3_Activation_output",
      "weights" : {

      },
      "Nx" : 1,
      "pad_mode" : 1,
      "pad_value" : 0,
      "Ny" : 1,
      "n_parallel" : 1
    },
    {
      "pad_r" : 0,
      "fused_relu" : 1,
      "fused_tanh" : 0,
      "debug_info" : "Block35_1_Branch_1_Conv2d_0b_3x3",
      "pad_fill_mode" : 0,
      "pad_b" : 0,
      "pad_l" : 0,
      "top" : "Block35_1_Branch_1_Conv2d_0b_3x3_Activation_output",
      "blob_weights" : 43,
      "K" : 32,
      "blob_biases" : 41,
      "name" : "Block35_1_Branch_1_Conv2d_0b_3x3",
      "has_batch_norm" : 0,
      "type" : "convolution",
      "n_groups" : 1,
      "pad_t" : 0,
      "has_biases" : 1,
      "C" : 32,
      "bottom" : "Block35_1_Branch_1_Conv2d_0a_1x1_Activation_output",
      "weights" : {

      },
      "Nx" : 3,
      "pad_mode" : 1,
      "pad_value" : 0,
      "Ny" : 3,
      "n_parallel" : 1
    },
    {
      "pad_r" : 0,
      "fused_relu" : 1,
      "fused_tanh" : 0,
      "debug_info" : "Block35_1_Branch_2_Conv2d_0c_3x3",
      "pad_fill_mode" : 0,
      "pad_b" : 0,
      "pad_l" : 0,
      "top" : "Block35_1_Branch_2_Conv2d_0c_3x3_Activation_output",
      "blob_weights" : 47,
      "K" : 32,
      "blob_biases" : 45,
      "name" : "Block35_1_Branch_2_Conv2d_0c_3x3",
      "has_batch_norm" : 0,
      "type" : "convolution",
      "n_groups" : 1,
      "pad_t" : 0,
      "has_biases" : 1,
      "C" : 32,
      "bottom" : "Block35_1_Branch_2_Conv2d_0b_3x3_Activation_output",
      "weights" : {

      },
      "Nx" : 3,
      "pad_mode" : 1,
      "pad_value" : 0,
      "Ny" : 3,
      "n_parallel" : 1
    },
    {
      "weights" : {

      },
      "debug_info" : "Block35_1_Concatenate",
      "top" : "Block35_1_Concatenate_output",
      "type" : "concat",
      "name" : "Block35_1_Concatenate",
      "bottom" : "Block35_1_Branch_0_Conv2d_1x1_Activation_output,Block35_1_Branch_1_Conv2d_0b_3x3_Activation_output,Block35_1_Branch_2_Conv2d_0c_3x3_Activation_output"
    },
    {
      "pad_r" : 0,
      "fused_relu" : 0,
      "fused_tanh" : 0,
      "debug_info" : "Block35_1_Conv2d_1x1",
      "pad_fill_mode" : 0,
      "pad_b" : 0,
      "pad_l" : 0,
      "top" : "Block35_1_Conv2d_1x1_output",
      "blob_weights" : 51,
      "K" : 96,
      "blob_biases" : 49,
      "name" : "Block35_1_Conv2d_1x1",
      "has_batch_norm" : 0,
      "type" : "convolution",
      "n_groups" : 1,
      "pad_t" : 0,
      "has_biases" : 1,
      "C" : 256,
      "bottom" : "Block35_1_Concatenate_output",
      "weights" : {

      },
      "Nx" : 1,
      "pad_mode" : 1,
      "pad_value" : 0,
      "Ny" : 1,
      "n_parallel" : 1
    },
    {
      "bottom" : "Block35_1_Conv2d_1x1_output",
      "MLCustomLayerWeights" : 53,
      "weights" : {
        "MLCustomLayerWeights" : 55
      },
      "parameters_json" : "{\"engineName\":\"scaling\"}",
      "class_name" : "MLCustomLayerWrapper",
      "debug_info" : "lambda_1",
      "top" : "lambda_1_output",
      "type" : "brick",
      "name" : "lambda_1"
    },
    {
      "bottom" : "Conv2d_4b_3x3_Activation_output,lambda_1_output",
      "alpha" : 1,
      "operation" : 0,
      "weights" : {

      },
      "fused_relu" : 0,
      "debug_info" : "add_1",
      "top" : "add_1_output",
      "type" : "elementwise",
      "name" : "add_1",
      "beta" : 0
    },
    {
      "bottom" : "add_1_output",
      "weights" : {

      },
      "mode" : 0,
      "debug_info" : "Block35_1_Activation",
      "top" : "Block35_1_Activation_output",
      "type" : "activation",
      "name" : "Block35_1_Activation"
    },
    {
      "pad_r" : 0,
      "fused_relu" : 1,
      "fused_tanh" : 0,
      "debug_info" : "Block35_2_Branch_2_Conv2d_0a_1x1",
      "pad_fill_mode" : 0,
      "pad_b" : 0,
      "pad_l" : 0,
      "top" : "Block35_2_Branch_2_Conv2d_0a_1x1_Activation_output",
      "blob_weights" : 59,
      "K" : 256,
      "blob_biases" : 57,
      "name" : "Block35_2_Branch_2_Conv2d_0a_1x1",
      "has_batch_norm" : 0,
      "type" : "convolution",
      "n_groups" : 1,
      "pad_t" : 0,
      "has_biases" : 1,
      "C" : 32,
      "bottom" : "Block35_1_Activation_output",
      "weights" : {

      },
      "Nx" : 1,
      "pad_mode" : 1,
      "pad_value" : 0,
      "Ny" : 1,
      "n_parallel" : 1
    },
    {
      "pad_r" : 0,
      "fused_relu" : 1,
      "fused_tanh" : 0,
      "debug_info" : "Block35_2_Branch_1_Conv2d_0a_1x1",
      "pad_fill_mode" : 0,
      "pad_b" : 0,
      "pad_l" : 0,
      "top" : "Block35_2_Branch_1_Conv2d_0a_1x1_Activation_output",
      "blob_weights" : 63,
      "K" : 256,
      "blob_biases" : 61,
      "name" : "Block35_2_Branch_1_Conv2d_0a_1x1",
      "has_batch_norm" : 0,
      "type" : "convolution",
      "n_groups" : 1,
      "pad_t" : 0,
      "has_biases" : 1,
      "C" : 32,
      "bottom" : "Block35_1_Activation_output",
      "weights" : {

      },
      "Nx" : 1,
      "pad_mode" : 1,
      "pad_value" : 0,
      "Ny" : 1,
      "n_parallel" : 1
    },
    {
      "pad_r" : 0,
      "fused_relu" : 1,
      "fused_tanh" : 0,
      "debug_info" : "Block35_2_Branch_2_Conv2d_0b_3x3",
      "pad_fill_mode" : 0,
      "pad_b" : 0,
      "pad_l" : 0,
      "top" : "Block35_2_Branch_2_Conv2d_0b_3x3_Activation_output",
      "blob_weights" : 67,
      "K" : 32,
      "blob_biases" : 65,
      "name" : "Block35_2_Branch_2_Conv2d_0b_3x3",
      "has_batch_norm" : 0,
      "type" : "convolution",
      "n_groups" : 1,
      "pad_t" : 0,
      "has_biases" : 1,
      "C" : 32,
      "bottom" : "Block35_2_Branch_2_Conv2d_0a_1x1_Activation_output",
      "weights" : {

      },
      "Nx" : 3,
      "pad_mode" : 1,
      "pad_value" : 0,
      "Ny" : 3,
      "n_parallel" : 1
    },
    {
      "pad_r" : 0,
      "fused_relu" : 1,
      "fused_tanh" : 0,
      "debug_info" : "Block35_2_Branch_0_Conv2d_1x1",
      "pad_fill_mode" : 0,
      "pad_b" : 0,
      "pad_l" : 0,
      "top" : "Block35_2_Branch_0_Conv2d_1x1_Activation_output",
      "blob_weights" : 71,
      "K" : 256,
      "blob_biases" : 69,
      "name" : "Block35_2_Branch_0_Conv2d_1x1",
      "has_batch_norm" : 0,
      "type" : "convolution",
      "n_groups" : 1,
      "pad_t" : 0,
      "has_biases" : 1,
      "C" : 32,
      "bottom" : "Block35_1_Activation_output",
      "weights" : {

      },
      "Nx" : 1,
      "pad_mode" : 1,
      "pad_value" : 0,
      "Ny" : 1,
      "n_parallel" : 1
    },
    {
      "pad_r" : 0,
      "fused_relu" : 1,
      "fused_tanh" : 0,
      "debug_info" : "Block35_2_Branch_1_Conv2d_0b_3x3",
      "pad_fill_mode" : 0,
      "pad_b" : 0,
      "pad_l" : 0,
      "top" : "Block35_2_Branch_1_Conv2d_0b_3x3_Activation_output",
      "blob_weights" : 75,
      "K" : 32,
      "blob_biases" : 73,
      "name" : "Block35_2_Branch_1_Conv2d_0b_3x3",
      "has_batch_norm" : 0,
      "type" : "convolution",
      "n_groups" : 1,
      "pad_t" : 0,
      "has_biases" : 1,
      "C" : 32,
      "bottom" : "Block35_2_Branch_1_Conv2d_0a_1x1_Activation_output",
      "weights" : {

      },
      "Nx" : 3,
      "pad_mode" : 1,
      "pad_value" : 0,
      "Ny" : 3,
      "n_parallel" : 1
    },
    {
      "pad_r" : 0,
      "fused_relu" : 1,
      "fused_tanh" : 0,
      "debug_info" : "Block35_2_Branch_2_Conv2d_0c_3x3",
      "pad_fill_mode" : 0,
      "pad_b" : 0,
      "pad_l" : 0,
      "top" : "Block35_2_Branch_2_Conv2d_0c_3x3_Activation_output",
      "blob_weights" : 79,
      "K" : 32,
      "blob_biases" : 77,
      "name" : "Block35_2_Branch_2_Conv2d_0c_3x3",
      "has_batch_norm" : 0,
      "type" : "convolution",
      "n_groups" : 1,
      "pad_t" : 0,
      "has_biases" : 1,
      "C" : 32,
      "bottom" : "Block35_2_Branch_2_Conv2d_0b_3x3_Activation_output",
      "weights" : {

      },
      "Nx" : 3,
      "pad_mode" : 1,
      "pad_value" : 0,
      "Ny" : 3,
      "n_parallel" : 1
    },
    {
      "weights" : {

      },
      "debug_info" : "Block35_2_Concatenate",
      "top" : "Block35_2_Concatenate_output",
      "type" : "concat",
      "name" : "Block35_2_Concatenate",
      "bottom" : "Block35_2_Branch_0_Conv2d_1x1_Activation_output,Block35_2_Branch_1_Conv2d_0b_3x3_Activation_output,Block35_2_Branch_2_Conv2d_0c_3x3_Activation_output"
    },
    {
      "pad_r" : 0,
      "fused_relu" : 0,
      "fused_tanh" : 0,
      "debug_info" : "Block35_2_Conv2d_1x1",
      "pad_fill_mode" : 0,
      "pad_b" : 0,
      "pad_l" : 0,
      "top" : "Block35_2_Conv2d_1x1_output",
      "blob_weights" : 83,
      "K" : 96,
      "blob_biases" : 81,
      "name" : "Block35_2_Conv2d_1x1",
      "has_batch_norm" : 0,
      "type" : "convolution",
      "n_groups" : 1,
      "pad_t" : 0,
      "has_biases" : 1,
      "C" : 256,
      "bottom" : "Block35_2_Concatenate_output",
      "weights" : {

      },
      "Nx" : 1,
      "pad_mode" : 1,
      "pad_value" : 0,
      "Ny" : 1,
      "n_parallel" : 1
    },
    {
      "bottom" : "Block35_2_Conv2d_1x1_output",
      "MLCustomLayerWeights" : 85,
      "weights" : {
        "MLCustomLayerWeights" : 87
      },
      "parameters_json" : "{\"engineName\":\"scaling\"}",
      "class_name" : "MLCustomLayerWrapper",
      "debug_info" : "lambda_2",
      "top" : "lambda_2_output",
      "type" : "brick",
      "name" : "lambda_2"
    },
    {
      "bottom" : "Block35_1_Activation_output,lambda_2_output",
      "alpha" : 1,
      "operation" : 0,
      "weights" : {

      },
      "fused_relu" : 0,
      "debug_info" : "add_2",
      "top" : "add_2_output",
      "type" : "elementwise",
      "name" : "add_2",
      "beta" : 0
    },
    {
      "bottom" : "add_2_output",
      "weights" : {

      },
      "mode" : 0,
      "debug_info" : "Block35_2_Activation",
      "top" : "Block35_2_Activation_output",
      "type" : "activation",
      "name" : "Block35_2_Activation"
    },
    {
      "pad_r" : 0,
      "fused_relu" : 1,
      "fused_tanh" : 0,
      "debug_info" : "Block35_3_Branch_2_Conv2d_0a_1x1",
      "pad_fill_mode" : 0,
      "pad_b" : 0,
      "pad_l" : 0,
      "top" : "Block35_3_Branch_2_Conv2d_0a_1x1_Activation_output",
      "blob_weights" : 91,
      "K" : 256,
      "blob_biases" : 89,
      "name" : "Block35_3_Branch_2_Conv2d_0a_1x1",
      "has_batch_norm" : 0,
      "type" : "convolution",
      "n_groups" : 1,
      "pad_t" : 0,
      "has_biases" : 1,
      "C" : 32,
      "bottom" : "Block35_2_Activation_output",
      "weights" : {

      },
      "Nx" : 1,
      "pad_mode" : 1,
      "pad_value" : 0,
      "Ny" : 1,
      "n_parallel" : 1
    },
    {
      "pad_r" : 0,
      "fused_relu" : 1,
      "fused_tanh" : 0,
      "debug_info" : "Block35_3_Branch_1_Conv2d_0a_1x1",
      "pad_fill_mode" : 0,
      "pad_b" : 0,
      "pad_l" : 0,
      "top" : "Block35_3_Branch_1_Conv2d_0a_1x1_Activation_output",
      "blob_weights" : 95,
      "K" : 256,
      "blob_biases" : 93,
      "name" : "Block35_3_Branch_1_Conv2d_0a_1x1",
      "has_batch_norm" : 0,
      "type" : "convolution",
      "n_groups" : 1,
      "pad_t" : 0,
      "has_biases" : 1,
      "C" : 32,
      "bottom" : "Block35_2_Activation_output",
      "weights" : {

      },
      "Nx" : 1,
      "pad_mode" : 1,
      "pad_value" : 0,
      "Ny" : 1,
      "n_parallel" : 1
    },
    {
      "pad_r" : 0,
      "fused_relu" : 1,
      "fused_tanh" : 0,
      "debug_info" : "Block35_3_Branch_2_Conv2d_0b_3x3",
      "pad_fill_mode" : 0,
      "pad_b" : 0,
      "pad_l" : 0,
      "top" : "Block35_3_Branch_2_Conv2d_0b_3x3_Activation_output",
      "blob_weights" : 99,
      "K" : 32,
      "blob_biases" : 97,
      "name" : "Block35_3_Branch_2_Conv2d_0b_3x3",
      "has_batch_norm" : 0,
      "type" : "convolution",
      "n_groups" : 1,
      "pad_t" : 0,
      "has_biases" : 1,
      "C" : 32,
      "bottom" : "Block35_3_Branch_2_Conv2d_0a_1x1_Activation_output",
      "weights" : {

      },
      "Nx" : 3,
      "pad_mode" : 1,
      "pad_value" : 0,
      "Ny" : 3,
      "n_parallel" : 1
    },
    {
      "pad_r" : 0,
      "fused_relu" : 1,
      "fused_tanh" : 0,
      "debug_info" : "Block35_3_Branch_0_Conv2d_1x1",
      "pad_fill_mode" : 0,
      "pad_b" : 0,
      "pad_l" : 0,
      "top" : "Block35_3_Branch_0_Conv2d_1x1_Activation_output",
      "blob_weights" : 103,
      "K" : 256,
      "blob_biases" : 101,
      "name" : "Block35_3_Branch_0_Conv2d_1x1",
      "has_batch_norm" : 0,
      "type" : "convolution",
      "n_groups" : 1,
      "pad_t" : 0,
      "has_biases" : 1,
      "C" : 32,
      "bottom" : "Block35_2_Activation_output",
      "weights" : {

      },
      "Nx" : 1,
      "pad_mode" : 1,
      "pad_value" : 0,
      "Ny" : 1,
      "n_parallel" : 1
    },
    {
      "pad_r" : 0,
      "fused_relu" : 1,
      "fused_tanh" : 0,
      "debug_info" : "Block35_3_Branch_1_Conv2d_0b_3x3",
      "pad_fill_mode" : 0,
      "pad_b" : 0,
      "pad_l" : 0,
      "top" : "Block35_3_Branch_1_Conv2d_0b_3x3_Activation_output",
      "blob_weights" : 107,
      "K" : 32,
      "blob_biases" : 105,
      "name" : "Block35_3_Branch_1_Conv2d_0b_3x3",
      "has_batch_norm" : 0,
      "type" : "convolution",
      "n_groups" : 1,
      "pad_t" : 0,
      "has_biases" : 1,
      "C" : 32,
      "bottom" : "Block35_3_Branch_1_Conv2d_0a_1x1_Activation_output",
      "weights" : {

      },
      "Nx" : 3,
      "pad_mode" : 1,
      "pad_value" : 0,
      "Ny" : 3,
      "n_parallel" : 1
    },
    {
      "pad_r" : 0,
      "fused_relu" : 1,
      "fused_tanh" : 0,
      "debug_info" : "Block35_3_Branch_2_Conv2d_0c_3x3",
      "pad_fill_mode" : 0,
      "pad_b" : 0,
      "pad_l" : 0,
      "top" : "Block35_3_Branch_2_Conv2d_0c_3x3_Activation_output",
      "blob_weights" : 111,
      "K" : 32,
      "blob_biases" : 109,
      "name" : "Block35_3_Branch_2_Conv2d_0c_3x3",
      "has_batch_norm" : 0,
      "type" : "convolution",
      "n_groups" : 1,
      "pad_t" : 0,
      "has_biases" : 1,
      "C" : 32,
      "bottom" : "Block35_3_Branch_2_Conv2d_0b_3x3_Activation_output",
      "weights" : {

      },
      "Nx" : 3,
      "pad_mode" : 1,
      "pad_value" : 0,
      "Ny" : 3,
      "n_parallel" : 1
    },
    {
      "weights" : {

      },
      "debug_info" : "Block35_3_Concatenate",
      "top" : "Block35_3_Concatenate_output",
      "type" : "concat",
      "name" : "Block35_3_Concatenate",
      "bottom" : "Block35_3_Branch_0_Conv2d_1x1_Activation_output,Block35_3_Branch_1_Conv2d_0b_3x3_Activation_output,Block35_3_Branch_2_Conv2d_0c_3x3_Activation_output"
    },
    {
      "pad_r" : 0,
      "fused_relu" : 0,
      "fused_tanh" : 0,
      "debug_info" : "Block35_3_Conv2d_1x1",
      "pad_fill_mode" : 0,
      "pad_b" : 0,
      "pad_l" : 0,
      "top" : "Block35_3_Conv2d_1x1_output",
      "blob_weights" : 115,
      "K" : 96,
      "blob_biases" : 113,
      "name" : "Block35_3_Conv2d_1x1",
      "has_batch_norm" : 0,
      "type" : "convolution",
      "n_groups" : 1,
      "pad_t" : 0,
      "has_biases" : 1,
      "C" : 256,
      "bottom" : "Block35_3_Concatenate_output",
      "weights" : {

      },
      "Nx" : 1,
      "pad_mode" : 1,
      "pad_value" : 0,
      "Ny" : 1,
      "n_parallel" : 1
    },
    {
      "bottom" : "Block35_3_Conv2d_1x1_output",
      "MLCustomLayerWeights" : 117,
      "weights" : {
        "MLCustomLayerWeights" : 119
      },
      "parameters_json" : "{\"engineName\":\"scaling\"}",
      "class_name" : "MLCustomLayerWrapper",
      "debug_info" : "lambda_3",
      "top" : "lambda_3_output",
      "type" : "brick",
      "name" : "lambda_3"
    },
    {
      "bottom" : "Block35_2_Activation_output,lambda_3_output",
      "alpha" : 1,
      "operation" : 0,
      "weights" : {

      },
      "fused_relu" : 0,
      "debug_info" : "add_3",
      "top" : "add_3_output",
      "type" : "elementwise",
      "name" : "add_3",
      "beta" : 0
    },
    {
      "bottom" : "add_3_output",
      "weights" : {

      },
      "mode" : 0,
      "debug_info" : "Block35_3_Activation",
      "top" : "Block35_3_Activation_output",
      "type" : "activation",
      "name" : "Block35_3_Activation"
    },
    {
      "pad_r" : 0,
      "fused_relu" : 1,
      "fused_tanh" : 0,
      "debug_info" : "Block35_4_Branch_2_Conv2d_0a_1x1",
      "pad_fill_mode" : 0,
      "pad_b" : 0,
      "pad_l" : 0,
      "top" : "Block35_4_Branch_2_Conv2d_0a_1x1_Activation_output",
      "blob_weights" : 123,
      "K" : 256,
      "blob_biases" : 121,
      "name" : "Block35_4_Branch_2_Conv2d_0a_1x1",
      "has_batch_norm" : 0,
      "type" : "convolution",
      "n_groups" : 1,
      "pad_t" : 0,
      "has_biases" : 1,
      "C" : 32,
      "bottom" : "Block35_3_Activation_output",
      "weights" : {

      },
      "Nx" : 1,
      "pad_mode" : 1,
      "pad_value" : 0,
      "Ny" : 1,
      "n_parallel" : 1
    },
    {
      "pad_r" : 0,
      "fused_relu" : 1,
      "fused_tanh" : 0,
      "debug_info" : "Block35_4_Branch_1_Conv2d_0a_1x1",
      "pad_fill_mode" : 0,
      "pad_b" : 0,
      "pad_l" : 0,
      "top" : "Block35_4_Branch_1_Conv2d_0a_1x1_Activation_output",
      "blob_weights" : 127,
      "K" : 256,
      "blob_biases" : 125,
      "name" : "Block35_4_Branch_1_Conv2d_0a_1x1",
      "has_batch_norm" : 0,
      "type" : "convolution",
      "n_groups" : 1,
      "pad_t" : 0,
      "has_biases" : 1,
      "C" : 32,
      "bottom" : "Block35_3_Activation_output",
      "weights" : {

      },
      "Nx" : 1,
      "pad_mode" : 1,
      "pad_value" : 0,
      "Ny" : 1,
      "n_parallel" : 1
    },
    {
      "pad_r" : 0,
      "fused_relu" : 1,
      "fused_tanh" : 0,
      "debug_info" : "Block35_4_Branch_2_Conv2d_0b_3x3",
      "pad_fill_mode" : 0,
      "pad_b" : 0,
      "pad_l" : 0,
      "top" : "Block35_4_Branch_2_Conv2d_0b_3x3_Activation_output",
      "blob_weights" : 131,
      "K" : 32,
      "blob_biases" : 129,
      "name" : "Block35_4_Branch_2_Conv2d_0b_3x3",
      "has_batch_norm" : 0,
      "type" : "convolution",
      "n_groups" : 1,
      "pad_t" : 0,
      "has_biases" : 1,
      "C" : 32,
      "bottom" : "Block35_4_Branch_2_Conv2d_0a_1x1_Activation_output",
      "weights" : {

      },
      "Nx" : 3,
      "pad_mode" : 1,
      "pad_value" : 0,
      "Ny" : 3,
      "n_parallel" : 1
    },
    {
      "pad_r" : 0,
      "fused_relu" : 1,
      "fused_tanh" : 0,
      "debug_info" : "Block35_4_Branch_0_Conv2d_1x1",
      "pad_fill_mode" : 0,
      "pad_b" : 0,
      "pad_l" : 0,
      "top" : "Block35_4_Branch_0_Conv2d_1x1_Activation_output",
      "blob_weights" : 135,
      "K" : 256,
      "blob_biases" : 133,
      "name" : "Block35_4_Branch_0_Conv2d_1x1",
      "has_batch_norm" : 0,
      "type" : "convolution",
      "n_groups" : 1,
      "pad_t" : 0,
      "has_biases" : 1,
      "C" : 32,
      "bottom" : "Block35_3_Activation_output",
      "weights" : {

      },
      "Nx" : 1,
      "pad_mode" : 1,
      "pad_value" : 0,
      "Ny" : 1,
      "n_parallel" : 1
    },
    {
      "pad_r" : 0,
      "fused_relu" : 1,
      "fused_tanh" : 0,
      "debug_info" : "Block35_4_Branch_1_Conv2d_0b_3x3",
      "pad_fill_mode" : 0,
      "pad_b" : 0,
      "pad_l" : 0,
      "top" : "Block35_4_Branch_1_Conv2d_0b_3x3_Activation_output",
      "blob_weights" : 139,
      "K" : 32,
      "blob_biases" : 137,
      "name" : "Block35_4_Branch_1_Conv2d_0b_3x3",
      "has_batch_norm" : 0,
      "type" : "convolution",
      "n_groups" : 1,
      "pad_t" : 0,
      "has_biases" : 1,
      "C" : 32,
      "bottom" : "Block35_4_Branch_1_Conv2d_0a_1x1_Activation_output",
      "weights" : {

      },
      "Nx" : 3,
      "pad_mode" : 1,
      "pad_value" : 0,
      "Ny" : 3,
      "n_parallel" : 1
    },
    {
      "pad_r" : 0,
      "fused_relu" : 1,
      "fused_tanh" : 0,
      "debug_info" : "Block35_4_Branch_2_Conv2d_0c_3x3",
      "pad_fill_mode" : 0,
      "pad_b" : 0,
      "pad_l" : 0,
      "top" : "Block35_4_Branch_2_Conv2d_0c_3x3_Activation_output",
      "blob_weights" : 143,
      "K" : 32,
      "blob_biases" : 141,
      "name" : "Block35_4_Branch_2_Conv2d_0c_3x3",
      "has_batch_norm" : 0,
      "type" : "convolution",
      "n_groups" : 1,
      "pad_t" : 0,
      "has_biases" : 1,
      "C" : 32,
      "bottom" : "Block35_4_Branch_2_Conv2d_0b_3x3_Activation_output",
      "weights" : {

      },
      "Nx" : 3,
      "pad_mode" : 1,
      "pad_value" : 0,
      "Ny" : 3,
      "n_parallel" : 1
    },
    {
      "weights" : {

      },
      "debug_info" : "Block35_4_Concatenate",
      "top" : "Block35_4_Concatenate_output",
      "type" : "concat",
      "name" : "Block35_4_Concatenate",
      "bottom" : "Block35_4_Branch_0_Conv2d_1x1_Activation_output,Block35_4_Branch_1_Conv2d_0b_3x3_Activation_output,Block35_4_Branch_2_Conv2d_0c_3x3_Activation_output"
    },
    {
      "pad_r" : 0,
      "fused_relu" : 0,
      "fused_tanh" : 0,
      "debug_info" : "Block35_4_Conv2d_1x1",
      "pad_fill_mode" : 0,
      "pad_b" : 0,
      "pad_l" : 0,
      "top" : "Block35_4_Conv2d_1x1_output",
      "blob_weights" : 147,
      "K" : 96,
      "blob_biases" : 145,
      "name" : "Block35_4_Conv2d_1x1",
      "has_batch_norm" : 0,
      "type" : "convolution",
      "n_groups" : 1,
      "pad_t" : 0,
      "has_biases" : 1,
      "C" : 256,
      "bottom" : "Block35_4_Concatenate_output",
      "weights" : {

      },
      "Nx" : 1,
      "pad_mode" : 1,
      "pad_value" : 0,
      "Ny" : 1,
      "n_parallel" : 1
    },
    {
      "bottom" : "Block35_4_Conv2d_1x1_output",
      "MLCustomLayerWeights" : 149,
      "weights" : {
        "MLCustomLayerWeights" : 151
      },
      "parameters_json" : "{\"engineName\":\"scaling\"}",
      "class_name" : "MLCustomLayerWrapper",
      "debug_info" : "lambda_4",
      "top" : "lambda_4_output",
      "type" : "brick",
      "name" : "lambda_4"
    },
    {
      "bottom" : "Block35_3_Activation_output,lambda_4_output",
      "alpha" : 1,
      "operation" : 0,
      "weights" : {

      },
      "fused_relu" : 0,
      "debug_info" : "add_4",
      "top" : "add_4_output",
      "type" : "elementwise",
      "name" : "add_4",
      "beta" : 0
    },
    {
      "bottom" : "add_4_output",
      "weights" : {

      },
      "mode" : 0,
      "debug_info" : "Block35_4_Activation",
      "top" : "Block35_4_Activation_output",
      "type" : "activation",
      "name" : "Block35_4_Activation"
    },
    {
      "pad_r" : 0,
      "fused_relu" : 1,
      "fused_tanh" : 0,
      "debug_info" : "Block35_5_Branch_2_Conv2d_0a_1x1",
      "pad_fill_mode" : 0,
      "pad_b" : 0,
      "pad_l" : 0,
      "top" : "Block35_5_Branch_2_Conv2d_0a_1x1_Activation_output",
      "blob_weights" : 155,
      "K" : 256,
      "blob_biases" : 153,
      "name" : "Block35_5_Branch_2_Conv2d_0a_1x1",
      "has_batch_norm" : 0,
      "type" : "convolution",
      "n_groups" : 1,
      "pad_t" : 0,
      "has_biases" : 1,
      "C" : 32,
      "bottom" : "Block35_4_Activation_output",
      "weights" : {

      },
      "Nx" : 1,
      "pad_mode" : 1,
      "pad_value" : 0,
      "Ny" : 1,
      "n_parallel" : 1
    },
    {
      "pad_r" : 0,
      "fused_relu" : 1,
      "fused_tanh" : 0,
      "debug_info" : "Block35_5_Branch_1_Conv2d_0a_1x1",
      "pad_fill_mode" : 0,
      "pad_b" : 0,
      "pad_l" : 0,
      "top" : "Block35_5_Branch_1_Conv2d_0a_1x1_Activation_output",
      "blob_weights" : 159,
      "K" : 256,
      "blob_biases" : 157,
      "name" : "Block35_5_Branch_1_Conv2d_0a_1x1",
      "has_batch_norm" : 0,
      "type" : "convolution",
      "n_groups" : 1,
      "pad_t" : 0,
      "has_biases" : 1,
      "C" : 32,
      "bottom" : "Block35_4_Activation_output",
      "weights" : {

      },
      "Nx" : 1,
      "pad_mode" : 1,
      "pad_value" : 0,
      "Ny" : 1,
      "n_parallel" : 1
    },
    {
      "pad_r" : 0,
      "fused_relu" : 1,
      "fused_tanh" : 0,
      "debug_info" : "Block35_5_Branch_2_Conv2d_0b_3x3",
      "pad_fill_mode" : 0,
      "pad_b" : 0,
      "pad_l" : 0,
      "top" : "Block35_5_Branch_2_Conv2d_0b_3x3_Activation_output",
      "blob_weights" : 163,
      "K" : 32,
      "blob_biases" : 161,
      "name" : "Block35_5_Branch_2_Conv2d_0b_3x3",
      "has_batch_norm" : 0,
      "type" : "convolution",
      "n_groups" : 1,
      "pad_t" : 0,
      "has_biases" : 1,
      "C" : 32,
      "bottom" : "Block35_5_Branch_2_Conv2d_0a_1x1_Activation_output",
      "weights" : {

      },
      "Nx" : 3,
      "pad_mode" : 1,
      "pad_value" : 0,
      "Ny" : 3,
      "n_parallel" : 1
    },
    {
      "pad_r" : 0,
      "fused_relu" : 1,
      "fused_tanh" : 0,
      "debug_info" : "Block35_5_Branch_0_Conv2d_1x1",
      "pad_fill_mode" : 0,
      "pad_b" : 0,
      "pad_l" : 0,
      "top" : "Block35_5_Branch_0_Conv2d_1x1_Activation_output",
      "blob_weights" : 167,
      "K" : 256,
      "blob_biases" : 165,
      "name" : "Block35_5_Branch_0_Conv2d_1x1",
      "has_batch_norm" : 0,
      "type" : "convolution",
      "n_groups" : 1,
      "pad_t" : 0,
      "has_biases" : 1,
      "C" : 32,
      "bottom" : "Block35_4_Activation_output",
      "weights" : {

      },
      "Nx" : 1,
      "pad_mode" : 1,
      "pad_value" : 0,
      "Ny" : 1,
      "n_parallel" : 1
    },
    {
      "pad_r" : 0,
      "fused_relu" : 1,
      "fused_tanh" : 0,
      "debug_info" : "Block35_5_Branch_1_Conv2d_0b_3x3",
      "pad_fill_mode" : 0,
      "pad_b" : 0,
      "pad_l" : 0,
      "top" : "Block35_5_Branch_1_Conv2d_0b_3x3_Activation_output",
      "blob_weights" : 171,
      "K" : 32,
      "blob_biases" : 169,
      "name" : "Block35_5_Branch_1_Conv2d_0b_3x3",
      "has_batch_norm" : 0,
      "type" : "convolution",
      "n_groups" : 1,
      "pad_t" : 0,
      "has_biases" : 1,
      "C" : 32,
      "bottom" : "Block35_5_Branch_1_Conv2d_0a_1x1_Activation_output",
      "weights" : {

      },
      "Nx" : 3,
      "pad_mode" : 1,
      "pad_value" : 0,
      "Ny" : 3,
      "n_parallel" : 1
    },
    {
      "pad_r" : 0,
      "fused_relu" : 1,
      "fused_tanh" : 0,
      "debug_info" : "Block35_5_Branch_2_Conv2d_0c_3x3",
      "pad_fill_mode" : 0,
      "pad_b" : 0,
      "pad_l" : 0,
      "top" : "Block35_5_Branch_2_Conv2d_0c_3x3_Activation_output",
      "blob_weights" : 175,
      "K" : 32,
      "blob_biases" : 173,
      "name" : "Block35_5_Branch_2_Conv2d_0c_3x3",
      "has_batch_norm" : 0,
      "type" : "convolution",
      "n_groups" : 1,
      "pad_t" : 0,
      "has_biases" : 1,
      "C" : 32,
      "bottom" : "Block35_5_Branch_2_Conv2d_0b_3x3_Activation_output",
      "weights" : {

      },
      "Nx" : 3,
      "pad_mode" : 1,
      "pad_value" : 0,
      "Ny" : 3,
      "n_parallel" : 1
    },
    {
      "weights" : {

      },
      "debug_info" : "Block35_5_Concatenate",
      "top" : "Block35_5_Concatenate_output",
      "type" : "concat",
      "name" : "Block35_5_Concatenate",
      "bottom" : "Block35_5_Branch_0_Conv2d_1x1_Activation_output,Block35_5_Branch_1_Conv2d_0b_3x3_Activation_output,Block35_5_Branch_2_Conv2d_0c_3x3_Activation_output"
    },
    {
      "pad_r" : 0,
      "fused_relu" : 0,
      "fused_tanh" : 0,
      "debug_info" : "Block35_5_Conv2d_1x1",
      "pad_fill_mode" : 0,
      "pad_b" : 0,
      "pad_l" : 0,
      "top" : "Block35_5_Conv2d_1x1_output",
      "blob_weights" : 179,
      "K" : 96,
      "blob_biases" : 177,
      "name" : "Block35_5_Conv2d_1x1",
      "has_batch_norm" : 0,
      "type" : "convolution",
      "n_groups" : 1,
      "pad_t" : 0,
      "has_biases" : 1,
      "C" : 256,
      "bottom" : "Block35_5_Concatenate_output",
      "weights" : {

      },
      "Nx" : 1,
      "pad_mode" : 1,
      "pad_value" : 0,
      "Ny" : 1,
      "n_parallel" : 1
    },
    {
      "bottom" : "Block35_5_Conv2d_1x1_output",
      "MLCustomLayerWeights" : 181,
      "weights" : {
        "MLCustomLayerWeights" : 183
      },
      "parameters_json" : "{\"engineName\":\"scaling\"}",
      "class_name" : "MLCustomLayerWrapper",
      "debug_info" : "lambda_5",
      "top" : "lambda_5_output",
      "type" : "brick",
      "name" : "lambda_5"
    },
    {
      "bottom" : "Block35_4_Activation_output,lambda_5_output",
      "alpha" : 1,
      "operation" : 0,
      "weights" : {

      },
      "fused_relu" : 0,
      "debug_info" : "add_5",
      "top" : "add_5_output",
      "type" : "elementwise",
      "name" : "add_5",
      "beta" : 0
    },
    {
      "bottom" : "add_5_output",
      "weights" : {

      },
      "mode" : 0,
      "debug_info" : "Block35_5_Activation",
      "top" : "Block35_5_Activation_output",
      "type" : "activation",
      "name" : "Block35_5_Activation"
    },
    {
      "pad_r" : 0,
      "fused_relu" : 1,
      "fused_tanh" : 0,
      "debug_info" : "Mixed_6a_Branch_1_Conv2d_0a_1x1",
      "pad_fill_mode" : 0,
      "pad_b" : 0,
      "pad_l" : 0,
      "top" : "Mixed_6a_Branch_1_Conv2d_0a_1x1_Activation_output",
      "blob_weights" : 187,
      "K" : 256,
      "blob_biases" : 185,
      "name" : "Mixed_6a_Branch_1_Conv2d_0a_1x1",
      "has_batch_norm" : 0,
      "type" : "convolution",
      "n_groups" : 1,
      "pad_t" : 0,
      "has_biases" : 1,
      "C" : 192,
      "bottom" : "Block35_5_Activation_output",
      "weights" : {

      },
      "Nx" : 1,
      "pad_mode" : 1,
      "pad_value" : 0,
      "Ny" : 1,
      "n_parallel" : 1
    },
    {
      "pad_r" : 0,
      "fused_relu" : 1,
      "fused_tanh" : 0,
      "debug_info" : "Mixed_6a_Branch_1_Conv2d_0b_3x3",
      "pad_fill_mode" : 0,
      "pad_b" : 0,
      "pad_l" : 0,
      "top" : "Mixed_6a_Branch_1_Conv2d_0b_3x3_Activation_output",
      "blob_weights" : 191,
      "K" : 192,
      "blob_biases" : 189,
      "name" : "Mixed_6a_Branch_1_Conv2d_0b_3x3",
      "has_batch_norm" : 0,
      "type" : "convolution",
      "n_groups" : 1,
      "pad_t" : 0,
      "has_biases" : 1,
      "C" : 192,
      "bottom" : "Mixed_6a_Branch_1_Conv2d_0a_1x1_Activation_output",
      "weights" : {

      },
      "Nx" : 3,
      "pad_mode" : 1,
      "pad_value" : 0,
      "Ny" : 3,
      "n_parallel" : 1
    },
    {
      "pad_r" : 0,
      "fused_relu" : 1,
      "fused_tanh" : 0,
      "debug_info" : "Mixed_6a_Branch_0_Conv2d_1a_3x3",
      "pad_fill_mode" : 0,
      "pad_b" : 0,
      "pad_l" : 0,
      "top" : "Mixed_6a_Branch_0_Conv2d_1a_3x3_Activation_output",
      "blob_weights" : 195,
      "K" : 256,
      "blob_biases" : 193,
      "stride_x" : 2,
      "name" : "Mixed_6a_Branch_0_Conv2d_1a_3x3",
      "has_batch_norm" : 0,
      "type" : "convolution",
      "n_groups" : 1,
      "pad_t" : 0,
      "stride_y" : 2,
      "has_biases" : 1,
      "C" : 384,
      "bottom" : "Block35_5_Activation_output",
      "weights" : {

      },
      "Nx" : 3,
      "pad_mode" : 0,
      "pad_value" : 0,
      "Ny" : 3,
      "n_parallel" : 1
    },
    {
      "pad_r" : 0,
      "fused_relu" : 1,
      "fused_tanh" : 0,
      "debug_info" : "Mixed_6a_Branch_1_Conv2d_1a_3x3",
      "pad_fill_mode" : 0,
      "pad_b" : 0,
      "pad_l" : 0,
      "top" : "Mixed_6a_Branch_1_Conv2d_1a_3x3_Activation_output",
      "blob_weights" : 199,
      "K" : 192,
      "blob_biases" : 197,
      "stride_x" : 2,
      "name" : "Mixed_6a_Branch_1_Conv2d_1a_3x3",
      "has_batch_norm" : 0,
      "type" : "convolution",
      "n_groups" : 1,
      "pad_t" : 0,
      "stride_y" : 2,
      "has_biases" : 1,
      "C" : 256,
      "bottom" : "Mixed_6a_Branch_1_Conv2d_0b_3x3_Activation_output",
      "weights" : {

      },
      "Nx" : 3,
      "pad_mode" : 0,
      "pad_value" : 0,
      "Ny" : 3,
      "n_parallel" : 1
    },
    {
      "pad_r" : 0,
      "debug_info" : "Mixed_6a_Branch_2_MaxPool_1a_3x3",
      "pad_fill_mode" : 0,
      "pad_b" : 0,
      "pad_l" : 0,
      "size_x" : 3,
      "top" : "Mixed_6a_Branch_2_MaxPool_1a_3x3_output",
      "top_shape_style" : 0,
      "stride_x" : 2,
      "avg_or_max" : 1,
      "average_count_exclude_padding" : 1,
      "type" : "pool",
      "name" : "Mixed_6a_Branch_2_MaxPool_1a_3x3",
      "pad_t" : 0,
      "stride_y" : 2,
      "bottom" : "Block35_5_Activation_output",
      "weights" : {

      },
      "pad_mode" : 2,
      "size_y" : 3,
      "pad_value" : 0
    },
    {
      "weights" : {

      },
      "debug_info" : "Mixed_6a",
      "top" : "Mixed_6a_output",
      "type" : "concat",
      "name" : "Mixed_6a",
      "bottom" : "Mixed_6a_Branch_0_Conv2d_1a_3x3_Activation_output,Mixed_6a_Branch_1_Conv2d_1a_3x3_Activation_output,Mixed_6a_Branch_2_MaxPool_1a_3x3_output"
    },
    {
      "pad_r" : 0,
      "fused_relu" : 1,
      "fused_tanh" : 0,
      "debug_info" : "Block17_1_Branch_1_Conv2d_0a_1x1",
      "pad_fill_mode" : 0,
      "pad_b" : 0,
      "pad_l" : 0,
      "top" : "Block17_1_Branch_1_Conv2d_0a_1x1_Activation_output",
      "blob_weights" : 203,
      "K" : 896,
      "blob_biases" : 201,
      "name" : "Block17_1_Branch_1_Conv2d_0a_1x1",
      "has_batch_norm" : 0,
      "type" : "convolution",
      "n_groups" : 1,
      "pad_t" : 0,
      "has_biases" : 1,
      "C" : 128,
      "bottom" : "Mixed_6a_output",
      "weights" : {

      },
      "Nx" : 1,
      "pad_mode" : 1,
      "pad_value" : 0,
      "Ny" : 1,
      "n_parallel" : 1
    },
    {
      "pad_r" : 0,
      "fused_relu" : 1,
      "fused_tanh" : 0,
      "debug_info" : "Block17_1_Branch_1_Conv2d_0b_1x7",
      "pad_fill_mode" : 0,
      "pad_b" : 0,
      "pad_l" : 0,
      "top" : "Block17_1_Branch_1_Conv2d_0b_1x7_Activation_output",
      "blob_weights" : 207,
      "K" : 128,
      "blob_biases" : 205,
      "name" : "Block17_1_Branch_1_Conv2d_0b_1x7",
      "has_batch_norm" : 0,
      "type" : "convolution",
      "n_groups" : 1,
      "pad_t" : 0,
      "has_biases" : 1,
      "C" : 128,
      "bottom" : "Block17_1_Branch_1_Conv2d_0a_1x1_Activation_output",
      "weights" : {

      },
      "Nx" : 7,
      "pad_mode" : 1,
      "pad_value" : 0,
      "Ny" : 1,
      "n_parallel" : 1
    },
    {
      "pad_r" : 0,
      "fused_relu" : 1,
      "fused_tanh" : 0,
      "debug_info" : "Block17_1_Branch_0_Conv2d_1x1",
      "pad_fill_mode" : 0,
      "pad_b" : 0,
      "pad_l" : 0,
      "top" : "Block17_1_Branch_0_Conv2d_1x1_Activation_output",
      "blob_weights" : 211,
      "K" : 896,
      "blob_biases" : 209,
      "name" : "Block17_1_Branch_0_Conv2d_1x1",
      "has_batch_norm" : 0,
      "type" : "convolution",
      "n_groups" : 1,
      "pad_t" : 0,
      "has_biases" : 1,
      "C" : 128,
      "bottom" : "Mixed_6a_output",
      "weights" : {

      },
      "Nx" : 1,
      "pad_mode" : 1,
      "pad_value" : 0,
      "Ny" : 1,
      "n_parallel" : 1
    },
    {
      "pad_r" : 0,
      "fused_relu" : 1,
      "fused_tanh" : 0,
      "debug_info" : "Block17_1_Branch_1_Conv2d_0c_7x1",
      "pad_fill_mode" : 0,
      "pad_b" : 0,
      "pad_l" : 0,
      "top" : "Block17_1_Branch_1_Conv2d_0c_7x1_Activation_output",
      "blob_weights" : 215,
      "K" : 128,
      "blob_biases" : 213,
      "name" : "Block17_1_Branch_1_Conv2d_0c_7x1",
      "has_batch_norm" : 0,
      "type" : "convolution",
      "n_groups" : 1,
      "pad_t" : 0,
      "has_biases" : 1,
      "C" : 128,
      "bottom" : "Block17_1_Branch_1_Conv2d_0b_1x7_Activation_output",
      "weights" : {

      },
      "Nx" : 1,
      "pad_mode" : 1,
      "pad_value" : 0,
      "Ny" : 7,
      "n_parallel" : 1
    },
    {
      "weights" : {

      },
      "debug_info" : "Block17_1_Concatenate",
      "top" : "Block17_1_Concatenate_output",
      "type" : "concat",
      "name" : "Block17_1_Concatenate",
      "bottom" : "Block17_1_Branch_0_Conv2d_1x1_Activation_output,Block17_1_Branch_1_Conv2d_0c_7x1_Activation_output"
    },
    {
      "pad_r" : 0,
      "fused_relu" : 0,
      "fused_tanh" : 0,
      "debug_info" : "Block17_1_Conv2d_1x1",
      "pad_fill_mode" : 0,
      "pad_b" : 0,
      "pad_l" : 0,
      "top" : "Block17_1_Conv2d_1x1_output",
      "blob_weights" : 219,
      "K" : 256,
      "blob_biases" : 217,
      "name" : "Block17_1_Conv2d_1x1",
      "has_batch_norm" : 0,
      "type" : "convolution",
      "n_groups" : 1,
      "pad_t" : 0,
      "has_biases" : 1,
      "C" : 896,
      "bottom" : "Block17_1_Concatenate_output",
      "weights" : {

      },
      "Nx" : 1,
      "pad_mode" : 1,
      "pad_value" : 0,
      "Ny" : 1,
      "n_parallel" : 1
    },
    {
      "bottom" : "Block17_1_Conv2d_1x1_output",
      "MLCustomLayerWeights" : 221,
      "weights" : {
        "MLCustomLayerWeights" : 223
      },
      "parameters_json" : "{\"engineName\":\"scaling\"}",
      "class_name" : "MLCustomLayerWrapper",
      "debug_info" : "lambda_6",
      "top" : "lambda_6_output",
      "type" : "brick",
      "name" : "lambda_6"
    },
    {
      "bottom" : "Mixed_6a_output,lambda_6_output",
      "alpha" : 1,
      "operation" : 0,
      "weights" : {

      },
      "fused_relu" : 0,
      "debug_info" : "add_6",
      "top" : "add_6_output",
      "type" : "elementwise",
      "name" : "add_6",
      "beta" : 0
    },
    {
      "bottom" : "add_6_output",
      "weights" : {

      },
      "mode" : 0,
      "debug_info" : "Block17_1_Activation",
      "top" : "Block17_1_Activation_output",
      "type" : "activation",
      "name" : "Block17_1_Activation"
    },
    {
      "pad_r" : 0,
      "fused_relu" : 1,
      "fused_tanh" : 0,
      "debug_info" : "Block17_2_Branch_1_Conv2d_0a_1x1",
      "pad_fill_mode" : 0,
      "pad_b" : 0,
      "pad_l" : 0,
      "top" : "Block17_2_Branch_1_Conv2d_0a_1x1_Activation_output",
      "blob_weights" : 227,
      "K" : 896,
      "blob_biases" : 225,
      "name" : "Block17_2_Branch_1_Conv2d_0a_1x1",
      "has_batch_norm" : 0,
      "type" : "convolution",
      "n_groups" : 1,
      "pad_t" : 0,
      "has_biases" : 1,
      "C" : 128,
      "bottom" : "Block17_1_Activation_output",
      "weights" : {

      },
      "Nx" : 1,
      "pad_mode" : 1,
      "pad_value" : 0,
      "Ny" : 1,
      "n_parallel" : 1
    },
    {
      "pad_r" : 0,
      "fused_relu" : 1,
      "fused_tanh" : 0,
      "debug_info" : "Block17_2_Branch_1_Conv2d_0b_1x7",
      "pad_fill_mode" : 0,
      "pad_b" : 0,
      "pad_l" : 0,
      "top" : "Block17_2_Branch_1_Conv2d_0b_1x7_Activation_output",
      "blob_weights" : 231,
      "K" : 128,
      "blob_biases" : 229,
      "name" : "Block17_2_Branch_1_Conv2d_0b_1x7",
      "has_batch_norm" : 0,
      "type" : "convolution",
      "n_groups" : 1,
      "pad_t" : 0,
      "has_biases" : 1,
      "C" : 128,
      "bottom" : "Block17_2_Branch_1_Conv2d_0a_1x1_Activation_output",
      "weights" : {

      },
      "Nx" : 7,
      "pad_mode" : 1,
      "pad_value" : 0,
      "Ny" : 1,
      "n_parallel" : 1
    },
    {
      "pad_r" : 0,
      "fused_relu" : 1,
      "fused_tanh" : 0,
      "debug_info" : "Block17_2_Branch_0_Conv2d_1x1",
      "pad_fill_mode" : 0,
      "pad_b" : 0,
      "pad_l" : 0,
      "top" : "Block17_2_Branch_0_Conv2d_1x1_Activation_output",
      "blob_weights" : 235,
      "K" : 896,
      "blob_biases" : 233,
      "name" : "Block17_2_Branch_0_Conv2d_1x1",
      "has_batch_norm" : 0,
      "type" : "convolution",
      "n_groups" : 1,
      "pad_t" : 0,
      "has_biases" : 1,
      "C" : 128,
      "bottom" : "Block17_1_Activation_output",
      "weights" : {

      },
      "Nx" : 1,
      "pad_mode" : 1,
      "pad_value" : 0,
      "Ny" : 1,
      "n_parallel" : 1
    },
    {
      "pad_r" : 0,
      "fused_relu" : 1,
      "fused_tanh" : 0,
      "debug_info" : "Block17_2_Branch_1_Conv2d_0c_7x1",
      "pad_fill_mode" : 0,
      "pad_b" : 0,
      "pad_l" : 0,
      "top" : "Block17_2_Branch_1_Conv2d_0c_7x1_Activation_output",
      "blob_weights" : 239,
      "K" : 128,
      "blob_biases" : 237,
      "name" : "Block17_2_Branch_1_Conv2d_0c_7x1",
      "has_batch_norm" : 0,
      "type" : "convolution",
      "n_groups" : 1,
      "pad_t" : 0,
      "has_biases" : 1,
      "C" : 128,
      "bottom" : "Block17_2_Branch_1_Conv2d_0b_1x7_Activation_output",
      "weights" : {

      },
      "Nx" : 1,
      "pad_mode" : 1,
      "pad_value" : 0,
      "Ny" : 7,
      "n_parallel" : 1
    },
    {
      "weights" : {

      },
      "debug_info" : "Block17_2_Concatenate",
      "top" : "Block17_2_Concatenate_output",
      "type" : "concat",
      "name" : "Block17_2_Concatenate",
      "bottom" : "Block17_2_Branch_0_Conv2d_1x1_Activation_output,Block17_2_Branch_1_Conv2d_0c_7x1_Activation_output"
    },
    {
      "pad_r" : 0,
      "fused_relu" : 0,
      "fused_tanh" : 0,
      "debug_info" : "Block17_2_Conv2d_1x1",
      "pad_fill_mode" : 0,
      "pad_b" : 0,
      "pad_l" : 0,
      "top" : "Block17_2_Conv2d_1x1_output",
      "blob_weights" : 243,
      "K" : 256,
      "blob_biases" : 241,
      "name" : "Block17_2_Conv2d_1x1",
      "has_batch_norm" : 0,
      "type" : "convolution",
      "n_groups" : 1,
      "pad_t" : 0,
      "has_biases" : 1,
      "C" : 896,
      "bottom" : "Block17_2_Concatenate_output",
      "weights" : {

      },
      "Nx" : 1,
      "pad_mode" : 1,
      "pad_value" : 0,
      "Ny" : 1,
      "n_parallel" : 1
    },
    {
      "bottom" : "Block17_2_Conv2d_1x1_output",
      "MLCustomLayerWeights" : 245,
      "weights" : {
        "MLCustomLayerWeights" : 247
      },
      "parameters_json" : "{\"engineName\":\"scaling\"}",
      "class_name" : "MLCustomLayerWrapper",
      "debug_info" : "lambda_7",
      "top" : "lambda_7_output",
      "type" : "brick",
      "name" : "lambda_7"
    },
    {
      "bottom" : "Block17_1_Activation_output,lambda_7_output",
      "alpha" : 1,
      "operation" : 0,
      "weights" : {

      },
      "fused_relu" : 0,
      "debug_info" : "add_7",
      "top" : "add_7_output",
      "type" : "elementwise",
      "name" : "add_7",
      "beta" : 0
    },
    {
      "bottom" : "add_7_output",
      "weights" : {

      },
      "mode" : 0,
      "debug_info" : "Block17_2_Activation",
      "top" : "Block17_2_Activation_output",
      "type" : "activation",
      "name" : "Block17_2_Activation"
    },
    {
      "pad_r" : 0,
      "fused_relu" : 1,
      "fused_tanh" : 0,
      "debug_info" : "Block17_3_Branch_1_Conv2d_0a_1x1",
      "pad_fill_mode" : 0,
      "pad_b" : 0,
      "pad_l" : 0,
      "top" : "Block17_3_Branch_1_Conv2d_0a_1x1_Activation_output",
      "blob_weights" : 251,
      "K" : 896,
      "blob_biases" : 249,
      "name" : "Block17_3_Branch_1_Conv2d_0a_1x1",
      "has_batch_norm" : 0,
      "type" : "convolution",
      "n_groups" : 1,
      "pad_t" : 0,
      "has_biases" : 1,
      "C" : 128,
      "bottom" : "Block17_2_Activation_output",
      "weights" : {

      },
      "Nx" : 1,
      "pad_mode" : 1,
      "pad_value" : 0,
      "Ny" : 1,
      "n_parallel" : 1
    },
    {
      "pad_r" : 0,
      "fused_relu" : 1,
      "fused_tanh" : 0,
      "debug_info" : "Block17_3_Branch_1_Conv2d_0b_1x7",
      "pad_fill_mode" : 0,
      "pad_b" : 0,
      "pad_l" : 0,
      "top" : "Block17_3_Branch_1_Conv2d_0b_1x7_Activation_output",
      "blob_weights" : 255,
      "K" : 128,
      "blob_biases" : 253,
      "name" : "Block17_3_Branch_1_Conv2d_0b_1x7",
      "has_batch_norm" : 0,
      "type" : "convolution",
      "n_groups" : 1,
      "pad_t" : 0,
      "has_biases" : 1,
      "C" : 128,
      "bottom" : "Block17_3_Branch_1_Conv2d_0a_1x1_Activation_output",
      "weights" : {

      },
      "Nx" : 7,
      "pad_mode" : 1,
      "pad_value" : 0,
      "Ny" : 1,
      "n_parallel" : 1
    },
    {
      "pad_r" : 0,
      "fused_relu" : 1,
      "fused_tanh" : 0,
      "debug_info" : "Block17_3_Branch_0_Conv2d_1x1",
      "pad_fill_mode" : 0,
      "pad_b" : 0,
      "pad_l" : 0,
      "top" : "Block17_3_Branch_0_Conv2d_1x1_Activation_output",
      "blob_weights" : 259,
      "K" : 896,
      "blob_biases" : 257,
      "name" : "Block17_3_Branch_0_Conv2d_1x1",
      "has_batch_norm" : 0,
      "type" : "convolution",
      "n_groups" : 1,
      "pad_t" : 0,
      "has_biases" : 1,
      "C" : 128,
      "bottom" : "Block17_2_Activation_output",
      "weights" : {

      },
      "Nx" : 1,
      "pad_mode" : 1,
      "pad_value" : 0,
      "Ny" : 1,
      "n_parallel" : 1
    },
    {
      "pad_r" : 0,
      "fused_relu" : 1,
      "fused_tanh" : 0,
      "debug_info" : "Block17_3_Branch_1_Conv2d_0c_7x1",
      "pad_fill_mode" : 0,
      "pad_b" : 0,
      "pad_l" : 0,
      "top" : "Block17_3_Branch_1_Conv2d_0c_7x1_Activation_output",
      "blob_weights" : 263,
      "K" : 128,
      "blob_biases" : 261,
      "name" : "Block17_3_Branch_1_Conv2d_0c_7x1",
      "has_batch_norm" : 0,
      "type" : "convolution",
      "n_groups" : 1,
      "pad_t" : 0,
      "has_biases" : 1,
      "C" : 128,
      "bottom" : "Block17_3_Branch_1_Conv2d_0b_1x7_Activation_output",
      "weights" : {

      },
      "Nx" : 1,
      "pad_mode" : 1,
      "pad_value" : 0,
      "Ny" : 7,
      "n_parallel" : 1
    },
    {
      "weights" : {

      },
      "debug_info" : "Block17_3_Concatenate",
      "top" : "Block17_3_Concatenate_output",
      "type" : "concat",
      "name" : "Block17_3_Concatenate",
      "bottom" : "Block17_3_Branch_0_Conv2d_1x1_Activation_output,Block17_3_Branch_1_Conv2d_0c_7x1_Activation_output"
    },
    {
      "pad_r" : 0,
      "fused_relu" : 0,
      "fused_tanh" : 0,
      "debug_info" : "Block17_3_Conv2d_1x1",
      "pad_fill_mode" : 0,
      "pad_b" : 0,
      "pad_l" : 0,
      "top" : "Block17_3_Conv2d_1x1_output",
      "blob_weights" : 267,
      "K" : 256,
      "blob_biases" : 265,
      "name" : "Block17_3_Conv2d_1x1",
      "has_batch_norm" : 0,
      "type" : "convolution",
      "n_groups" : 1,
      "pad_t" : 0,
      "has_biases" : 1,
      "C" : 896,
      "bottom" : "Block17_3_Concatenate_output",
      "weights" : {

      },
      "Nx" : 1,
      "pad_mode" : 1,
      "pad_value" : 0,
      "Ny" : 1,
      "n_parallel" : 1
    },
    {
      "bottom" : "Block17_3_Conv2d_1x1_output",
      "MLCustomLayerWeights" : 269,
      "weights" : {
        "MLCustomLayerWeights" : 271
      },
      "parameters_json" : "{\"engineName\":\"scaling\"}",
      "class_name" : "MLCustomLayerWrapper",
      "debug_info" : "lambda_8",
      "top" : "lambda_8_output",
      "type" : "brick",
      "name" : "lambda_8"
    },
    {
      "bottom" : "Block17_2_Activation_output,lambda_8_output",
      "alpha" : 1,
      "operation" : 0,
      "weights" : {

      },
      "fused_relu" : 0,
      "debug_info" : "add_8",
      "top" : "add_8_output",
      "type" : "elementwise",
      "name" : "add_8",
      "beta" : 0
    },
    {
      "bottom" : "add_8_output",
      "weights" : {

      },
      "mode" : 0,
      "debug_info" : "Block17_3_Activation",
      "top" : "Block17_3_Activation_output",
      "type" : "activation",
      "name" : "Block17_3_Activation"
    },
    {
      "pad_r" : 0,
      "fused_relu" : 1,
      "fused_tanh" : 0,
      "debug_info" : "Block17_4_Branch_1_Conv2d_0a_1x1",
      "pad_fill_mode" : 0,
      "pad_b" : 0,
      "pad_l" : 0,
      "top" : "Block17_4_Branch_1_Conv2d_0a_1x1_Activation_output",
      "blob_weights" : 275,
      "K" : 896,
      "blob_biases" : 273,
      "name" : "Block17_4_Branch_1_Conv2d_0a_1x1",
      "has_batch_norm" : 0,
      "type" : "convolution",
      "n_groups" : 1,
      "pad_t" : 0,
      "has_biases" : 1,
      "C" : 128,
      "bottom" : "Block17_3_Activation_output",
      "weights" : {

      },
      "Nx" : 1,
      "pad_mode" : 1,
      "pad_value" : 0,
      "Ny" : 1,
      "n_parallel" : 1
    },
    {
      "pad_r" : 0,
      "fused_relu" : 1,
      "fused_tanh" : 0,
      "debug_info" : "Block17_4_Branch_1_Conv2d_0b_1x7",
      "pad_fill_mode" : 0,
      "pad_b" : 0,
      "pad_l" : 0,
      "top" : "Block17_4_Branch_1_Conv2d_0b_1x7_Activation_output",
      "blob_weights" : 279,
      "K" : 128,
      "blob_biases" : 277,
      "name" : "Block17_4_Branch_1_Conv2d_0b_1x7",
      "has_batch_norm" : 0,
      "type" : "convolution",
      "n_groups" : 1,
      "pad_t" : 0,
      "has_biases" : 1,
      "C" : 128,
      "bottom" : "Block17_4_Branch_1_Conv2d_0a_1x1_Activation_output",
      "weights" : {

      },
      "Nx" : 7,
      "pad_mode" : 1,
      "pad_value" : 0,
      "Ny" : 1,
      "n_parallel" : 1
    },
    {
      "pad_r" : 0,
      "fused_relu" : 1,
      "fused_tanh" : 0,
      "debug_info" : "Block17_4_Branch_0_Conv2d_1x1",
      "pad_fill_mode" : 0,
      "pad_b" : 0,
      "pad_l" : 0,
      "top" : "Block17_4_Branch_0_Conv2d_1x1_Activation_output",
      "blob_weights" : 283,
      "K" : 896,
      "blob_biases" : 281,
      "name" : "Block17_4_Branch_0_Conv2d_1x1",
      "has_batch_norm" : 0,
      "type" : "convolution",
      "n_groups" : 1,
      "pad_t" : 0,
      "has_biases" : 1,
      "C" : 128,
      "bottom" : "Block17_3_Activation_output",
      "weights" : {

      },
      "Nx" : 1,
      "pad_mode" : 1,
      "pad_value" : 0,
      "Ny" : 1,
      "n_parallel" : 1
    },
    {
      "pad_r" : 0,
      "fused_relu" : 1,
      "fused_tanh" : 0,
      "debug_info" : "Block17_4_Branch_1_Conv2d_0c_7x1",
      "pad_fill_mode" : 0,
      "pad_b" : 0,
      "pad_l" : 0,
      "top" : "Block17_4_Branch_1_Conv2d_0c_7x1_Activation_output",
      "blob_weights" : 287,
      "K" : 128,
      "blob_biases" : 285,
      "name" : "Block17_4_Branch_1_Conv2d_0c_7x1",
      "has_batch_norm" : 0,
      "type" : "convolution",
      "n_groups" : 1,
      "pad_t" : 0,
      "has_biases" : 1,
      "C" : 128,
      "bottom" : "Block17_4_Branch_1_Conv2d_0b_1x7_Activation_output",
      "weights" : {

      },
      "Nx" : 1,
      "pad_mode" : 1,
      "pad_value" : 0,
      "Ny" : 7,
      "n_parallel" : 1
    },
    {
      "weights" : {

      },
      "debug_info" : "Block17_4_Concatenate",
      "top" : "Block17_4_Concatenate_output",
      "type" : "concat",
      "name" : "Block17_4_Concatenate",
      "bottom" : "Block17_4_Branch_0_Conv2d_1x1_Activation_output,Block17_4_Branch_1_Conv2d_0c_7x1_Activation_output"
    },
    {
      "pad_r" : 0,
      "fused_relu" : 0,
      "fused_tanh" : 0,
      "debug_info" : "Block17_4_Conv2d_1x1",
      "pad_fill_mode" : 0,
      "pad_b" : 0,
      "pad_l" : 0,
      "top" : "Block17_4_Conv2d_1x1_output",
      "blob_weights" : 291,
      "K" : 256,
      "blob_biases" : 289,
      "name" : "Block17_4_Conv2d_1x1",
      "has_batch_norm" : 0,
      "type" : "convolution",
      "n_groups" : 1,
      "pad_t" : 0,
      "has_biases" : 1,
      "C" : 896,
      "bottom" : "Block17_4_Concatenate_output",
      "weights" : {

      },
      "Nx" : 1,
      "pad_mode" : 1,
      "pad_value" : 0,
      "Ny" : 1,
      "n_parallel" : 1
    },
    {
      "bottom" : "Block17_4_Conv2d_1x1_output",
      "MLCustomLayerWeights" : 293,
      "weights" : {
        "MLCustomLayerWeights" : 295
      },
      "parameters_json" : "{\"engineName\":\"scaling\"}",
      "class_name" : "MLCustomLayerWrapper",
      "debug_info" : "lambda_9",
      "top" : "lambda_9_output",
      "type" : "brick",
      "name" : "lambda_9"
    },
    {
      "bottom" : "Block17_3_Activation_output,lambda_9_output",
      "alpha" : 1,
      "operation" : 0,
      "weights" : {

      },
      "fused_relu" : 0,
      "debug_info" : "add_9",
      "top" : "add_9_output",
      "type" : "elementwise",
      "name" : "add_9",
      "beta" : 0
    },
    {
      "bottom" : "add_9_output",
      "weights" : {

      },
      "mode" : 0,
      "debug_info" : "Block17_4_Activation",
      "top" : "Block17_4_Activation_output",
      "type" : "activation",
      "name" : "Block17_4_Activation"
    },
    {
      "pad_r" : 0,
      "fused_relu" : 1,
      "fused_tanh" : 0,
      "debug_info" : "Block17_5_Branch_1_Conv2d_0a_1x1",
      "pad_fill_mode" : 0,
      "pad_b" : 0,
      "pad_l" : 0,
      "top" : "Block17_5_Branch_1_Conv2d_0a_1x1_Activation_output",
      "blob_weights" : 299,
      "K" : 896,
      "blob_biases" : 297,
      "name" : "Block17_5_Branch_1_Conv2d_0a_1x1",
      "has_batch_norm" : 0,
      "type" : "convolution",
      "n_groups" : 1,
      "pad_t" : 0,
      "has_biases" : 1,
      "C" : 128,
      "bottom" : "Block17_4_Activation_output",
      "weights" : {

      },
      "Nx" : 1,
      "pad_mode" : 1,
      "pad_value" : 0,
      "Ny" : 1,
      "n_parallel" : 1
    },
    {
      "pad_r" : 0,
      "fused_relu" : 1,
      "fused_tanh" : 0,
      "debug_info" : "Block17_5_Branch_1_Conv2d_0b_1x7",
      "pad_fill_mode" : 0,
      "pad_b" : 0,
      "pad_l" : 0,
      "top" : "Block17_5_Branch_1_Conv2d_0b_1x7_Activation_output",
      "blob_weights" : 303,
      "K" : 128,
      "blob_biases" : 301,
      "name" : "Block17_5_Branch_1_Conv2d_0b_1x7",
      "has_batch_norm" : 0,
      "type" : "convolution",
      "n_groups" : 1,
      "pad_t" : 0,
      "has_biases" : 1,
      "C" : 128,
      "bottom" : "Block17_5_Branch_1_Conv2d_0a_1x1_Activation_output",
      "weights" : {

      },
      "Nx" : 7,
      "pad_mode" : 1,
      "pad_value" : 0,
      "Ny" : 1,
      "n_parallel" : 1
    },
    {
      "pad_r" : 0,
      "fused_relu" : 1,
      "fused_tanh" : 0,
      "debug_info" : "Block17_5_Branch_0_Conv2d_1x1",
      "pad_fill_mode" : 0,
      "pad_b" : 0,
      "pad_l" : 0,
      "top" : "Block17_5_Branch_0_Conv2d_1x1_Activation_output",
      "blob_weights" : 307,
      "K" : 896,
      "blob_biases" : 305,
      "name" : "Block17_5_Branch_0_Conv2d_1x1",
      "has_batch_norm" : 0,
      "type" : "convolution",
      "n_groups" : 1,
      "pad_t" : 0,
      "has_biases" : 1,
      "C" : 128,
      "bottom" : "Block17_4_Activation_output",
      "weights" : {

      },
      "Nx" : 1,
      "pad_mode" : 1,
      "pad_value" : 0,
      "Ny" : 1,
      "n_parallel" : 1
    },
    {
      "pad_r" : 0,
      "fused_relu" : 1,
      "fused_tanh" : 0,
      "debug_info" : "Block17_5_Branch_1_Conv2d_0c_7x1",
      "pad_fill_mode" : 0,
      "pad_b" : 0,
      "pad_l" : 0,
      "top" : "Block17_5_Branch_1_Conv2d_0c_7x1_Activation_output",
      "blob_weights" : 311,
      "K" : 128,
      "blob_biases" : 309,
      "name" : "Block17_5_Branch_1_Conv2d_0c_7x1",
      "has_batch_norm" : 0,
      "type" : "convolution",
      "n_groups" : 1,
      "pad_t" : 0,
      "has_biases" : 1,
      "C" : 128,
      "bottom" : "Block17_5_Branch_1_Conv2d_0b_1x7_Activation_output",
      "weights" : {

      },
      "Nx" : 1,
      "pad_mode" : 1,
      "pad_value" : 0,
      "Ny" : 7,
      "n_parallel" : 1
    },
    {
      "weights" : {

      },
      "debug_info" : "Block17_5_Concatenate",
      "top" : "Block17_5_Concatenate_output",
      "type" : "concat",
      "name" : "Block17_5_Concatenate",
      "bottom" : "Block17_5_Branch_0_Conv2d_1x1_Activation_output,Block17_5_Branch_1_Conv2d_0c_7x1_Activation_output"
    },
    {
      "pad_r" : 0,
      "fused_relu" : 0,
      "fused_tanh" : 0,
      "debug_info" : "Block17_5_Conv2d_1x1",
      "pad_fill_mode" : 0,
      "pad_b" : 0,
      "pad_l" : 0,
      "top" : "Block17_5_Conv2d_1x1_output",
      "blob_weights" : 315,
      "K" : 256,
      "blob_biases" : 313,
      "name" : "Block17_5_Conv2d_1x1",
      "has_batch_norm" : 0,
      "type" : "convolution",
      "n_groups" : 1,
      "pad_t" : 0,
      "has_biases" : 1,
      "C" : 896,
      "bottom" : "Block17_5_Concatenate_output",
      "weights" : {

      },
      "Nx" : 1,
      "pad_mode" : 1,
      "pad_value" : 0,
      "Ny" : 1,
      "n_parallel" : 1
    },
    {
      "bottom" : "Block17_5_Conv2d_1x1_output",
      "MLCustomLayerWeights" : 317,
      "weights" : {
        "MLCustomLayerWeights" : 319
      },
      "parameters_json" : "{\"engineName\":\"scaling\"}",
      "class_name" : "MLCustomLayerWrapper",
      "debug_info" : "lambda_10",
      "top" : "lambda_10_output",
      "type" : "brick",
      "name" : "lambda_10"
    },
    {
      "bottom" : "Block17_4_Activation_output,lambda_10_output",
      "alpha" : 1,
      "operation" : 0,
      "weights" : {

      },
      "fused_relu" : 0,
      "debug_info" : "add_10",
      "top" : "add_10_output",
      "type" : "elementwise",
      "name" : "add_10",
      "beta" : 0
    },
    {
      "bottom" : "add_10_output",
      "weights" : {

      },
      "mode" : 0,
      "debug_info" : "Block17_5_Activation",
      "top" : "Block17_5_Activation_output",
      "type" : "activation",
      "name" : "Block17_5_Activation"
    },
    {
      "pad_r" : 0,
      "fused_relu" : 1,
      "fused_tanh" : 0,
      "debug_info" : "Block17_6_Branch_1_Conv2d_0a_1x1",
      "pad_fill_mode" : 0,
      "pad_b" : 0,
      "pad_l" : 0,
      "top" : "Block17_6_Branch_1_Conv2d_0a_1x1_Activation_output",
      "blob_weights" : 323,
      "K" : 896,
      "blob_biases" : 321,
      "name" : "Block17_6_Branch_1_Conv2d_0a_1x1",
      "has_batch_norm" : 0,
      "type" : "convolution",
      "n_groups" : 1,
      "pad_t" : 0,
      "has_biases" : 1,
      "C" : 128,
      "bottom" : "Block17_5_Activation_output",
      "weights" : {

      },
      "Nx" : 1,
      "pad_mode" : 1,
      "pad_value" : 0,
      "Ny" : 1,
      "n_parallel" : 1
    },
    {
      "pad_r" : 0,
      "fused_relu" : 1,
      "fused_tanh" : 0,
      "debug_info" : "Block17_6_Branch_1_Conv2d_0b_1x7",
      "pad_fill_mode" : 0,
      "pad_b" : 0,
      "pad_l" : 0,
      "top" : "Block17_6_Branch_1_Conv2d_0b_1x7_Activation_output",
      "blob_weights" : 327,
      "K" : 128,
      "blob_biases" : 325,
      "name" : "Block17_6_Branch_1_Conv2d_0b_1x7",
      "has_batch_norm" : 0,
      "type" : "convolution",
      "n_groups" : 1,
      "pad_t" : 0,
      "has_biases" : 1,
      "C" : 128,
      "bottom" : "Block17_6_Branch_1_Conv2d_0a_1x1_Activation_output",
      "weights" : {

      },
      "Nx" : 7,
      "pad_mode" : 1,
      "pad_value" : 0,
      "Ny" : 1,
      "n_parallel" : 1
    },
    {
      "pad_r" : 0,
      "fused_relu" : 1,
      "fused_tanh" : 0,
      "debug_info" : "Block17_6_Branch_0_Conv2d_1x1",
      "pad_fill_mode" : 0,
      "pad_b" : 0,
      "pad_l" : 0,
      "top" : "Block17_6_Branch_0_Conv2d_1x1_Activation_output",
      "blob_weights" : 331,
      "K" : 896,
      "blob_biases" : 329,
      "name" : "Block17_6_Branch_0_Conv2d_1x1",
      "has_batch_norm" : 0,
      "type" : "convolution",
      "n_groups" : 1,
      "pad_t" : 0,
      "has_biases" : 1,
      "C" : 128,
      "bottom" : "Block17_5_Activation_output",
      "weights" : {

      },
      "Nx" : 1,
      "pad_mode" : 1,
      "pad_value" : 0,
      "Ny" : 1,
      "n_parallel" : 1
    },
    {
      "pad_r" : 0,
      "fused_relu" : 1,
      "fused_tanh" : 0,
      "debug_info" : "Block17_6_Branch_1_Conv2d_0c_7x1",
      "pad_fill_mode" : 0,
      "pad_b" : 0,
      "pad_l" : 0,
      "top" : "Block17_6_Branch_1_Conv2d_0c_7x1_Activation_output",
      "blob_weights" : 335,
      "K" : 128,
      "blob_biases" : 333,
      "name" : "Block17_6_Branch_1_Conv2d_0c_7x1",
      "has_batch_norm" : 0,
      "type" : "convolution",
      "n_groups" : 1,
      "pad_t" : 0,
      "has_biases" : 1,
      "C" : 128,
      "bottom" : "Block17_6_Branch_1_Conv2d_0b_1x7_Activation_output",
      "weights" : {

      },
      "Nx" : 1,
      "pad_mode" : 1,
      "pad_value" : 0,
      "Ny" : 7,
      "n_parallel" : 1
    },
    {
      "weights" : {

      },
      "debug_info" : "Block17_6_Concatenate",
      "top" : "Block17_6_Concatenate_output",
      "type" : "concat",
      "name" : "Block17_6_Concatenate",
      "bottom" : "Block17_6_Branch_0_Conv2d_1x1_Activation_output,Block17_6_Branch_1_Conv2d_0c_7x1_Activation_output"
    },
    {
      "pad_r" : 0,
      "fused_relu" : 0,
      "fused_tanh" : 0,
      "debug_info" : "Block17_6_Conv2d_1x1",
      "pad_fill_mode" : 0,
      "pad_b" : 0,
      "pad_l" : 0,
      "top" : "Block17_6_Conv2d_1x1_output",
      "blob_weights" : 339,
      "K" : 256,
      "blob_biases" : 337,
      "name" : "Block17_6_Conv2d_1x1",
      "has_batch_norm" : 0,
      "type" : "convolution",
      "n_groups" : 1,
      "pad_t" : 0,
      "has_biases" : 1,
      "C" : 896,
      "bottom" : "Block17_6_Concatenate_output",
      "weights" : {

      },
      "Nx" : 1,
      "pad_mode" : 1,
      "pad_value" : 0,
      "Ny" : 1,
      "n_parallel" : 1
    },
    {
      "bottom" : "Block17_6_Conv2d_1x1_output",
      "MLCustomLayerWeights" : 341,
      "weights" : {
        "MLCustomLayerWeights" : 343
      },
      "parameters_json" : "{\"engineName\":\"scaling\"}",
      "class_name" : "MLCustomLayerWrapper",
      "debug_info" : "lambda_11",
      "top" : "lambda_11_output",
      "type" : "brick",
      "name" : "lambda_11"
    },
    {
      "bottom" : "Block17_5_Activation_output,lambda_11_output",
      "alpha" : 1,
      "operation" : 0,
      "weights" : {

      },
      "fused_relu" : 0,
      "debug_info" : "add_11",
      "top" : "add_11_output",
      "type" : "elementwise",
      "name" : "add_11",
      "beta" : 0
    },
    {
      "bottom" : "add_11_output",
      "weights" : {

      },
      "mode" : 0,
      "debug_info" : "Block17_6_Activation",
      "top" : "Block17_6_Activation_output",
      "type" : "activation",
      "name" : "Block17_6_Activation"
    },
    {
      "pad_r" : 0,
      "fused_relu" : 1,
      "fused_tanh" : 0,
      "debug_info" : "Block17_7_Branch_1_Conv2d_0a_1x1",
      "pad_fill_mode" : 0,
      "pad_b" : 0,
      "pad_l" : 0,
      "top" : "Block17_7_Branch_1_Conv2d_0a_1x1_Activation_output",
      "blob_weights" : 347,
      "K" : 896,
      "blob_biases" : 345,
      "name" : "Block17_7_Branch_1_Conv2d_0a_1x1",
      "has_batch_norm" : 0,
      "type" : "convolution",
      "n_groups" : 1,
      "pad_t" : 0,
      "has_biases" : 1,
      "C" : 128,
      "bottom" : "Block17_6_Activation_output",
      "weights" : {

      },
      "Nx" : 1,
      "pad_mode" : 1,
      "pad_value" : 0,
      "Ny" : 1,
      "n_parallel" : 1
    },
    {
      "pad_r" : 0,
      "fused_relu" : 1,
      "fused_tanh" : 0,
      "debug_info" : "Block17_7_Branch_1_Conv2d_0b_1x7",
      "pad_fill_mode" : 0,
      "pad_b" : 0,
      "pad_l" : 0,
      "top" : "Block17_7_Branch_1_Conv2d_0b_1x7_Activation_output",
      "blob_weights" : 351,
      "K" : 128,
      "blob_biases" : 349,
      "name" : "Block17_7_Branch_1_Conv2d_0b_1x7",
      "has_batch_norm" : 0,
      "type" : "convolution",
      "n_groups" : 1,
      "pad_t" : 0,
      "has_biases" : 1,
      "C" : 128,
      "bottom" : "Block17_7_Branch_1_Conv2d_0a_1x1_Activation_output",
      "weights" : {

      },
      "Nx" : 7,
      "pad_mode" : 1,
      "pad_value" : 0,
      "Ny" : 1,
      "n_parallel" : 1
    },
    {
      "pad_r" : 0,
      "fused_relu" : 1,
      "fused_tanh" : 0,
      "debug_info" : "Block17_7_Branch_0_Conv2d_1x1",
      "pad_fill_mode" : 0,
      "pad_b" : 0,
      "pad_l" : 0,
      "top" : "Block17_7_Branch_0_Conv2d_1x1_Activation_output",
      "blob_weights" : 355,
      "K" : 896,
      "blob_biases" : 353,
      "name" : "Block17_7_Branch_0_Conv2d_1x1",
      "has_batch_norm" : 0,
      "type" : "convolution",
      "n_groups" : 1,
      "pad_t" : 0,
      "has_biases" : 1,
      "C" : 128,
      "bottom" : "Block17_6_Activation_output",
      "weights" : {

      },
      "Nx" : 1,
      "pad_mode" : 1,
      "pad_value" : 0,
      "Ny" : 1,
      "n_parallel" : 1
    },
    {
      "pad_r" : 0,
      "fused_relu" : 1,
      "fused_tanh" : 0,
      "debug_info" : "Block17_7_Branch_1_Conv2d_0c_7x1",
      "pad_fill_mode" : 0,
      "pad_b" : 0,
      "pad_l" : 0,
      "top" : "Block17_7_Branch_1_Conv2d_0c_7x1_Activation_output",
      "blob_weights" : 359,
      "K" : 128,
      "blob_biases" : 357,
      "name" : "Block17_7_Branch_1_Conv2d_0c_7x1",
      "has_batch_norm" : 0,
      "type" : "convolution",
      "n_groups" : 1,
      "pad_t" : 0,
      "has_biases" : 1,
      "C" : 128,
      "bottom" : "Block17_7_Branch_1_Conv2d_0b_1x7_Activation_output",
      "weights" : {

      },
      "Nx" : 1,
      "pad_mode" : 1,
      "pad_value" : 0,
      "Ny" : 7,
      "n_parallel" : 1
    },
    {
      "weights" : {

      },
      "debug_info" : "Block17_7_Concatenate",
      "top" : "Block17_7_Concatenate_output",
      "type" : "concat",
      "name" : "Block17_7_Concatenate",
      "bottom" : "Block17_7_Branch_0_Conv2d_1x1_Activation_output,Block17_7_Branch_1_Conv2d_0c_7x1_Activation_output"
    },
    {
      "pad_r" : 0,
      "fused_relu" : 0,
      "fused_tanh" : 0,
      "debug_info" : "Block17_7_Conv2d_1x1",
      "pad_fill_mode" : 0,
      "pad_b" : 0,
      "pad_l" : 0,
      "top" : "Block17_7_Conv2d_1x1_output",
      "blob_weights" : 363,
      "K" : 256,
      "blob_biases" : 361,
      "name" : "Block17_7_Conv2d_1x1",
      "has_batch_norm" : 0,
      "type" : "convolution",
      "n_groups" : 1,
      "pad_t" : 0,
      "has_biases" : 1,
      "C" : 896,
      "bottom" : "Block17_7_Concatenate_output",
      "weights" : {

      },
      "Nx" : 1,
      "pad_mode" : 1,
      "pad_value" : 0,
      "Ny" : 1,
      "n_parallel" : 1
    },
    {
      "bottom" : "Block17_7_Conv2d_1x1_output",
      "MLCustomLayerWeights" : 365,
      "weights" : {
        "MLCustomLayerWeights" : 367
      },
      "parameters_json" : "{\"engineName\":\"scaling\"}",
      "class_name" : "MLCustomLayerWrapper",
      "debug_info" : "lambda_12",
      "top" : "lambda_12_output",
      "type" : "brick",
      "name" : "lambda_12"
    },
    {
      "bottom" : "Block17_6_Activation_output,lambda_12_output",
      "alpha" : 1,
      "operation" : 0,
      "weights" : {

      },
      "fused_relu" : 0,
      "debug_info" : "add_12",
      "top" : "add_12_output",
      "type" : "elementwise",
      "name" : "add_12",
      "beta" : 0
    },
    {
      "bottom" : "add_12_output",
      "weights" : {

      },
      "mode" : 0,
      "debug_info" : "Block17_7_Activation",
      "top" : "Block17_7_Activation_output",
      "type" : "activation",
      "name" : "Block17_7_Activation"
    },
    {
      "pad_r" : 0,
      "fused_relu" : 1,
      "fused_tanh" : 0,
      "debug_info" : "Block17_8_Branch_1_Conv2d_0a_1x1",
      "pad_fill_mode" : 0,
      "pad_b" : 0,
      "pad_l" : 0,
      "top" : "Block17_8_Branch_1_Conv2d_0a_1x1_Activation_output",
      "blob_weights" : 371,
      "K" : 896,
      "blob_biases" : 369,
      "name" : "Block17_8_Branch_1_Conv2d_0a_1x1",
      "has_batch_norm" : 0,
      "type" : "convolution",
      "n_groups" : 1,
      "pad_t" : 0,
      "has_biases" : 1,
      "C" : 128,
      "bottom" : "Block17_7_Activation_output",
      "weights" : {

      },
      "Nx" : 1,
      "pad_mode" : 1,
      "pad_value" : 0,
      "Ny" : 1,
      "n_parallel" : 1
    },
    {
      "pad_r" : 0,
      "fused_relu" : 1,
      "fused_tanh" : 0,
      "debug_info" : "Block17_8_Branch_1_Conv2d_0b_1x7",
      "pad_fill_mode" : 0,
      "pad_b" : 0,
      "pad_l" : 0,
      "top" : "Block17_8_Branch_1_Conv2d_0b_1x7_Activation_output",
      "blob_weights" : 375,
      "K" : 128,
      "blob_biases" : 373,
      "name" : "Block17_8_Branch_1_Conv2d_0b_1x7",
      "has_batch_norm" : 0,
      "type" : "convolution",
      "n_groups" : 1,
      "pad_t" : 0,
      "has_biases" : 1,
      "C" : 128,
      "bottom" : "Block17_8_Branch_1_Conv2d_0a_1x1_Activation_output",
      "weights" : {

      },
      "Nx" : 7,
      "pad_mode" : 1,
      "pad_value" : 0,
      "Ny" : 1,
      "n_parallel" : 1
    },
    {
      "pad_r" : 0,
      "fused_relu" : 1,
      "fused_tanh" : 0,
      "debug_info" : "Block17_8_Branch_0_Conv2d_1x1",
      "pad_fill_mode" : 0,
      "pad_b" : 0,
      "pad_l" : 0,
      "top" : "Block17_8_Branch_0_Conv2d_1x1_Activation_output",
      "blob_weights" : 379,
      "K" : 896,
      "blob_biases" : 377,
      "name" : "Block17_8_Branch_0_Conv2d_1x1",
      "has_batch_norm" : 0,
      "type" : "convolution",
      "n_groups" : 1,
      "pad_t" : 0,
      "has_biases" : 1,
      "C" : 128,
      "bottom" : "Block17_7_Activation_output",
      "weights" : {

      },
      "Nx" : 1,
      "pad_mode" : 1,
      "pad_value" : 0,
      "Ny" : 1,
      "n_parallel" : 1
    },
    {
      "pad_r" : 0,
      "fused_relu" : 1,
      "fused_tanh" : 0,
      "debug_info" : "Block17_8_Branch_1_Conv2d_0c_7x1",
      "pad_fill_mode" : 0,
      "pad_b" : 0,
      "pad_l" : 0,
      "top" : "Block17_8_Branch_1_Conv2d_0c_7x1_Activation_output",
      "blob_weights" : 383,
      "K" : 128,
      "blob_biases" : 381,
      "name" : "Block17_8_Branch_1_Conv2d_0c_7x1",
      "has_batch_norm" : 0,
      "type" : "convolution",
      "n_groups" : 1,
      "pad_t" : 0,
      "has_biases" : 1,
      "C" : 128,
      "bottom" : "Block17_8_Branch_1_Conv2d_0b_1x7_Activation_output",
      "weights" : {

      },
      "Nx" : 1,
      "pad_mode" : 1,
      "pad_value" : 0,
      "Ny" : 7,
      "n_parallel" : 1
    },
    {
      "weights" : {

      },
      "debug_info" : "Block17_8_Concatenate",
      "top" : "Block17_8_Concatenate_output",
      "type" : "concat",
      "name" : "Block17_8_Concatenate",
      "bottom" : "Block17_8_Branch_0_Conv2d_1x1_Activation_output,Block17_8_Branch_1_Conv2d_0c_7x1_Activation_output"
    },
    {
      "pad_r" : 0,
      "fused_relu" : 0,
      "fused_tanh" : 0,
      "debug_info" : "Block17_8_Conv2d_1x1",
      "pad_fill_mode" : 0,
      "pad_b" : 0,
      "pad_l" : 0,
      "top" : "Block17_8_Conv2d_1x1_output",
      "blob_weights" : 387,
      "K" : 256,
      "blob_biases" : 385,
      "name" : "Block17_8_Conv2d_1x1",
      "has_batch_norm" : 0,
      "type" : "convolution",
      "n_groups" : 1,
      "pad_t" : 0,
      "has_biases" : 1,
      "C" : 896,
      "bottom" : "Block17_8_Concatenate_output",
      "weights" : {

      },
      "Nx" : 1,
      "pad_mode" : 1,
      "pad_value" : 0,
      "Ny" : 1,
      "n_parallel" : 1
    },
    {
      "bottom" : "Block17_8_Conv2d_1x1_output",
      "MLCustomLayerWeights" : 389,
      "weights" : {
        "MLCustomLayerWeights" : 391
      },
      "parameters_json" : "{\"engineName\":\"scaling\"}",
      "class_name" : "MLCustomLayerWrapper",
      "debug_info" : "lambda_13",
      "top" : "lambda_13_output",
      "type" : "brick",
      "name" : "lambda_13"
    },
    {
      "bottom" : "Block17_7_Activation_output,lambda_13_output",
      "alpha" : 1,
      "operation" : 0,
      "weights" : {

      },
      "fused_relu" : 0,
      "debug_info" : "add_13",
      "top" : "add_13_output",
      "type" : "elementwise",
      "name" : "add_13",
      "beta" : 0
    },
    {
      "bottom" : "add_13_output",
      "weights" : {

      },
      "mode" : 0,
      "debug_info" : "Block17_8_Activation",
      "top" : "Block17_8_Activation_output",
      "type" : "activation",
      "name" : "Block17_8_Activation"
    },
    {
      "pad_r" : 0,
      "fused_relu" : 1,
      "fused_tanh" : 0,
      "debug_info" : "Block17_9_Branch_1_Conv2d_0a_1x1",
      "pad_fill_mode" : 0,
      "pad_b" : 0,
      "pad_l" : 0,
      "top" : "Block17_9_Branch_1_Conv2d_0a_1x1_Activation_output",
      "blob_weights" : 395,
      "K" : 896,
      "blob_biases" : 393,
      "name" : "Block17_9_Branch_1_Conv2d_0a_1x1",
      "has_batch_norm" : 0,
      "type" : "convolution",
      "n_groups" : 1,
      "pad_t" : 0,
      "has_biases" : 1,
      "C" : 128,
      "bottom" : "Block17_8_Activation_output",
      "weights" : {

      },
      "Nx" : 1,
      "pad_mode" : 1,
      "pad_value" : 0,
      "Ny" : 1,
      "n_parallel" : 1
    },
    {
      "pad_r" : 0,
      "fused_relu" : 1,
      "fused_tanh" : 0,
      "debug_info" : "Block17_9_Branch_1_Conv2d_0b_1x7",
      "pad_fill_mode" : 0,
      "pad_b" : 0,
      "pad_l" : 0,
      "top" : "Block17_9_Branch_1_Conv2d_0b_1x7_Activation_output",
      "blob_weights" : 399,
      "K" : 128,
      "blob_biases" : 397,
      "name" : "Block17_9_Branch_1_Conv2d_0b_1x7",
      "has_batch_norm" : 0,
      "type" : "convolution",
      "n_groups" : 1,
      "pad_t" : 0,
      "has_biases" : 1,
      "C" : 128,
      "bottom" : "Block17_9_Branch_1_Conv2d_0a_1x1_Activation_output",
      "weights" : {

      },
      "Nx" : 7,
      "pad_mode" : 1,
      "pad_value" : 0,
      "Ny" : 1,
      "n_parallel" : 1
    },
    {
      "pad_r" : 0,
      "fused_relu" : 1,
      "fused_tanh" : 0,
      "debug_info" : "Block17_9_Branch_0_Conv2d_1x1",
      "pad_fill_mode" : 0,
      "pad_b" : 0,
      "pad_l" : 0,
      "top" : "Block17_9_Branch_0_Conv2d_1x1_Activation_output",
      "blob_weights" : 403,
      "K" : 896,
      "blob_biases" : 401,
      "name" : "Block17_9_Branch_0_Conv2d_1x1",
      "has_batch_norm" : 0,
      "type" : "convolution",
      "n_groups" : 1,
      "pad_t" : 0,
      "has_biases" : 1,
      "C" : 128,
      "bottom" : "Block17_8_Activation_output",
      "weights" : {

      },
      "Nx" : 1,
      "pad_mode" : 1,
      "pad_value" : 0,
      "Ny" : 1,
      "n_parallel" : 1
    },
    {
      "pad_r" : 0,
      "fused_relu" : 1,
      "fused_tanh" : 0,
      "debug_info" : "Block17_9_Branch_1_Conv2d_0c_7x1",
      "pad_fill_mode" : 0,
      "pad_b" : 0,
      "pad_l" : 0,
      "top" : "Block17_9_Branch_1_Conv2d_0c_7x1_Activation_output",
      "blob_weights" : 407,
      "K" : 128,
      "blob_biases" : 405,
      "name" : "Block17_9_Branch_1_Conv2d_0c_7x1",
      "has_batch_norm" : 0,
      "type" : "convolution",
      "n_groups" : 1,
      "pad_t" : 0,
      "has_biases" : 1,
      "C" : 128,
      "bottom" : "Block17_9_Branch_1_Conv2d_0b_1x7_Activation_output",
      "weights" : {

      },
      "Nx" : 1,
      "pad_mode" : 1,
      "pad_value" : 0,
      "Ny" : 7,
      "n_parallel" : 1
    },
    {
      "weights" : {

      },
      "debug_info" : "Block17_9_Concatenate",
      "top" : "Block17_9_Concatenate_output",
      "type" : "concat",
      "name" : "Block17_9_Concatenate",
      "bottom" : "Block17_9_Branch_0_Conv2d_1x1_Activation_output,Block17_9_Branch_1_Conv2d_0c_7x1_Activation_output"
    },
    {
      "pad_r" : 0,
      "fused_relu" : 0,
      "fused_tanh" : 0,
      "debug_info" : "Block17_9_Conv2d_1x1",
      "pad_fill_mode" : 0,
      "pad_b" : 0,
      "pad_l" : 0,
      "top" : "Block17_9_Conv2d_1x1_output",
      "blob_weights" : 411,
      "K" : 256,
      "blob_biases" : 409,
      "name" : "Block17_9_Conv2d_1x1",
      "has_batch_norm" : 0,
      "type" : "convolution",
      "n_groups" : 1,
      "pad_t" : 0,
      "has_biases" : 1,
      "C" : 896,
      "bottom" : "Block17_9_Concatenate_output",
      "weights" : {

      },
      "Nx" : 1,
      "pad_mode" : 1,
      "pad_value" : 0,
      "Ny" : 1,
      "n_parallel" : 1
    },
    {
      "bottom" : "Block17_9_Conv2d_1x1_output",
      "MLCustomLayerWeights" : 413,
      "weights" : {
        "MLCustomLayerWeights" : 415
      },
      "parameters_json" : "{\"engineName\":\"scaling\"}",
      "class_name" : "MLCustomLayerWrapper",
      "debug_info" : "lambda_14",
      "top" : "lambda_14_output",
      "type" : "brick",
      "name" : "lambda_14"
    },
    {
      "bottom" : "Block17_8_Activation_output,lambda_14_output",
      "alpha" : 1,
      "operation" : 0,
      "weights" : {

      },
      "fused_relu" : 0,
      "debug_info" : "add_14",
      "top" : "add_14_output",
      "type" : "elementwise",
      "name" : "add_14",
      "beta" : 0
    },
    {
      "bottom" : "add_14_output",
      "weights" : {

      },
      "mode" : 0,
      "debug_info" : "Block17_9_Activation",
      "top" : "Block17_9_Activation_output",
      "type" : "activation",
      "name" : "Block17_9_Activation"
    },
    {
      "pad_r" : 0,
      "fused_relu" : 1,
      "fused_tanh" : 0,
      "debug_info" : "Block17_10_Branch_1_Conv2d_0a_1x1",
      "pad_fill_mode" : 0,
      "pad_b" : 0,
      "pad_l" : 0,
      "top" : "Block17_10_Branch_1_Conv2d_0a_1x1_Activation_output",
      "blob_weights" : 419,
      "K" : 896,
      "blob_biases" : 417,
      "name" : "Block17_10_Branch_1_Conv2d_0a_1x1",
      "has_batch_norm" : 0,
      "type" : "convolution",
      "n_groups" : 1,
      "pad_t" : 0,
      "has_biases" : 1,
      "C" : 128,
      "bottom" : "Block17_9_Activation_output",
      "weights" : {

      },
      "Nx" : 1,
      "pad_mode" : 1,
      "pad_value" : 0,
      "Ny" : 1,
      "n_parallel" : 1
    },
    {
      "pad_r" : 0,
      "fused_relu" : 1,
      "fused_tanh" : 0,
      "debug_info" : "Block17_10_Branch_1_Conv2d_0b_1x7",
      "pad_fill_mode" : 0,
      "pad_b" : 0,
      "pad_l" : 0,
      "top" : "Block17_10_Branch_1_Conv2d_0b_1x7_Activation_output",
      "blob_weights" : 423,
      "K" : 128,
      "blob_biases" : 421,
      "name" : "Block17_10_Branch_1_Conv2d_0b_1x7",
      "has_batch_norm" : 0,
      "type" : "convolution",
      "n_groups" : 1,
      "pad_t" : 0,
      "has_biases" : 1,
      "C" : 128,
      "bottom" : "Block17_10_Branch_1_Conv2d_0a_1x1_Activation_output",
      "weights" : {

      },
      "Nx" : 7,
      "pad_mode" : 1,
      "pad_value" : 0,
      "Ny" : 1,
      "n_parallel" : 1
    },
    {
      "pad_r" : 0,
      "fused_relu" : 1,
      "fused_tanh" : 0,
      "debug_info" : "Block17_10_Branch_0_Conv2d_1x1",
      "pad_fill_mode" : 0,
      "pad_b" : 0,
      "pad_l" : 0,
      "top" : "Block17_10_Branch_0_Conv2d_1x1_Activation_output",
      "blob_weights" : 427,
      "K" : 896,
      "blob_biases" : 425,
      "name" : "Block17_10_Branch_0_Conv2d_1x1",
      "has_batch_norm" : 0,
      "type" : "convolution",
      "n_groups" : 1,
      "pad_t" : 0,
      "has_biases" : 1,
      "C" : 128,
      "bottom" : "Block17_9_Activation_output",
      "weights" : {

      },
      "Nx" : 1,
      "pad_mode" : 1,
      "pad_value" : 0,
      "Ny" : 1,
      "n_parallel" : 1
    },
    {
      "pad_r" : 0,
      "fused_relu" : 1,
      "fused_tanh" : 0,
      "debug_info" : "Block17_10_Branch_1_Conv2d_0c_7x1",
      "pad_fill_mode" : 0,
      "pad_b" : 0,
      "pad_l" : 0,
      "top" : "Block17_10_Branch_1_Conv2d_0c_7x1_Activation_output",
      "blob_weights" : 431,
      "K" : 128,
      "blob_biases" : 429,
      "name" : "Block17_10_Branch_1_Conv2d_0c_7x1",
      "has_batch_norm" : 0,
      "type" : "convolution",
      "n_groups" : 1,
      "pad_t" : 0,
      "has_biases" : 1,
      "C" : 128,
      "bottom" : "Block17_10_Branch_1_Conv2d_0b_1x7_Activation_output",
      "weights" : {

      },
      "Nx" : 1,
      "pad_mode" : 1,
      "pad_value" : 0,
      "Ny" : 7,
      "n_parallel" : 1
    },
    {
      "weights" : {

      },
      "debug_info" : "Block17_10_Concatenate",
      "top" : "Block17_10_Concatenate_output",
      "type" : "concat",
      "name" : "Block17_10_Concatenate",
      "bottom" : "Block17_10_Branch_0_Conv2d_1x1_Activation_output,Block17_10_Branch_1_Conv2d_0c_7x1_Activation_output"
    },
    {
      "pad_r" : 0,
      "fused_relu" : 0,
      "fused_tanh" : 0,
      "debug_info" : "Block17_10_Conv2d_1x1",
      "pad_fill_mode" : 0,
      "pad_b" : 0,
      "pad_l" : 0,
      "top" : "Block17_10_Conv2d_1x1_output",
      "blob_weights" : 435,
      "K" : 256,
      "blob_biases" : 433,
      "name" : "Block17_10_Conv2d_1x1",
      "has_batch_norm" : 0,
      "type" : "convolution",
      "n_groups" : 1,
      "pad_t" : 0,
      "has_biases" : 1,
      "C" : 896,
      "bottom" : "Block17_10_Concatenate_output",
      "weights" : {

      },
      "Nx" : 1,
      "pad_mode" : 1,
      "pad_value" : 0,
      "Ny" : 1,
      "n_parallel" : 1
    },
    {
      "bottom" : "Block17_10_Conv2d_1x1_output",
      "MLCustomLayerWeights" : 437,
      "weights" : {
        "MLCustomLayerWeights" : 439
      },
      "parameters_json" : "{\"engineName\":\"scaling\"}",
      "class_name" : "MLCustomLayerWrapper",
      "debug_info" : "lambda_15",
      "top" : "lambda_15_output",
      "type" : "brick",
      "name" : "lambda_15"
    },
    {
      "bottom" : "Block17_9_Activation_output,lambda_15_output",
      "alpha" : 1,
      "operation" : 0,
      "weights" : {

      },
      "fused_relu" : 0,
      "debug_info" : "add_15",
      "top" : "add_15_output",
      "type" : "elementwise",
      "name" : "add_15",
      "beta" : 0
    },
    {
      "bottom" : "add_15_output",
      "weights" : {

      },
      "mode" : 0,
      "debug_info" : "Block17_10_Activation",
      "top" : "Block17_10_Activation_output",
      "type" : "activation",
      "name" : "Block17_10_Activation"
    },
    {
      "pad_r" : 0,
      "fused_relu" : 1,
      "fused_tanh" : 0,
      "debug_info" : "Mixed_7a_Branch_2_Conv2d_0a_1x1",
      "pad_fill_mode" : 0,
      "pad_b" : 0,
      "pad_l" : 0,
      "top" : "Mixed_7a_Branch_2_Conv2d_0a_1x1_Activation_output",
      "blob_weights" : 443,
      "K" : 896,
      "blob_biases" : 441,
      "name" : "Mixed_7a_Branch_2_Conv2d_0a_1x1",
      "has_batch_norm" : 0,
      "type" : "convolution",
      "n_groups" : 1,
      "pad_t" : 0,
      "has_biases" : 1,
      "C" : 256,
      "bottom" : "Block17_10_Activation_output",
      "weights" : {

      },
      "Nx" : 1,
      "pad_mode" : 1,
      "pad_value" : 0,
      "Ny" : 1,
      "n_parallel" : 1
    },
    {
      "pad_r" : 0,
      "fused_relu" : 1,
      "fused_tanh" : 0,
      "debug_info" : "Mixed_7a_Branch_0_Conv2d_0a_1x1",
      "pad_fill_mode" : 0,
      "pad_b" : 0,
      "pad_l" : 0,
      "top" : "Mixed_7a_Branch_0_Conv2d_0a_1x1_Activation_output",
      "blob_weights" : 447,
      "K" : 896,
      "blob_biases" : 445,
      "name" : "Mixed_7a_Branch_0_Conv2d_0a_1x1",
      "has_batch_norm" : 0,
      "type" : "convolution",
      "n_groups" : 1,
      "pad_t" : 0,
      "has_biases" : 1,
      "C" : 256,
      "bottom" : "Block17_10_Activation_output",
      "weights" : {

      },
      "Nx" : 1,
      "pad_mode" : 1,
      "pad_value" : 0,
      "Ny" : 1,
      "n_parallel" : 1
    },
    {
      "pad_r" : 0,
      "fused_relu" : 1,
      "fused_tanh" : 0,
      "debug_info" : "Mixed_7a_Branch_1_Conv2d_0a_1x1",
      "pad_fill_mode" : 0,
      "pad_b" : 0,
      "pad_l" : 0,
      "top" : "Mixed_7a_Branch_1_Conv2d_0a_1x1_Activation_output",
      "blob_weights" : 451,
      "K" : 896,
      "blob_biases" : 449,
      "name" : "Mixed_7a_Branch_1_Conv2d_0a_1x1",
      "has_batch_norm" : 0,
      "type" : "convolution",
      "n_groups" : 1,
      "pad_t" : 0,
      "has_biases" : 1,
      "C" : 256,
      "bottom" : "Block17_10_Activation_output",
      "weights" : {

      },
      "Nx" : 1,
      "pad_mode" : 1,
      "pad_value" : 0,
      "Ny" : 1,
      "n_parallel" : 1
    },
    {
      "pad_r" : 0,
      "fused_relu" : 1,
      "fused_tanh" : 0,
      "debug_info" : "Mixed_7a_Branch_2_Conv2d_0b_3x3",
      "pad_fill_mode" : 0,
      "pad_b" : 0,
      "pad_l" : 0,
      "top" : "Mixed_7a_Branch_2_Conv2d_0b_3x3_Activation_output",
      "blob_weights" : 455,
      "K" : 256,
      "blob_biases" : 453,
      "name" : "Mixed_7a_Branch_2_Conv2d_0b_3x3",
      "has_batch_norm" : 0,
      "type" : "convolution",
      "n_groups" : 1,
      "pad_t" : 0,
      "has_biases" : 1,
      "C" : 256,
      "bottom" : "Mixed_7a_Branch_2_Conv2d_0a_1x1_Activation_output",
      "weights" : {

      },
      "Nx" : 3,
      "pad_mode" : 1,
      "pad_value" : 0,
      "Ny" : 3,
      "n_parallel" : 1
    },
    {
      "pad_r" : 0,
      "fused_relu" : 1,
      "fused_tanh" : 0,
      "debug_info" : "Mixed_7a_Branch_0_Conv2d_1a_3x3",
      "pad_fill_mode" : 0,
      "pad_b" : 0,
      "pad_l" : 0,
      "top" : "Mixed_7a_Branch_0_Conv2d_1a_3x3_Activation_output",
      "blob_weights" : 459,
      "K" : 256,
      "blob_biases" : 457,
      "stride_x" : 2,
      "name" : "Mixed_7a_Branch_0_Conv2d_1a_3x3",
      "has_batch_norm" : 0,
      "type" : "convolution",
      "n_groups" : 1,
      "pad_t" : 0,
      "stride_y" : 2,
      "has_biases" : 1,
      "C" : 384,
      "bottom" : "Mixed_7a_Branch_0_Conv2d_0a_1x1_Activation_output",
      "weights" : {

      },
      "Nx" : 3,
      "pad_mode" : 0,
      "pad_value" : 0,
      "Ny" : 3,
      "n_parallel" : 1
    },
    {
      "pad_r" : 0,
      "fused_relu" : 1,
      "fused_tanh" : 0,
      "debug_info" : "Mixed_7a_Branch_1_Conv2d_1a_3x3",
      "pad_fill_mode" : 0,
      "pad_b" : 0,
      "pad_l" : 0,
      "top" : "Mixed_7a_Branch_1_Conv2d_1a_3x3_Activation_output",
      "blob_weights" : 463,
      "K" : 256,
      "blob_biases" : 461,
      "stride_x" : 2,
      "name" : "Mixed_7a_Branch_1_Conv2d_1a_3x3",
      "has_batch_norm" : 0,
      "type" : "convolution",
      "n_groups" : 1,
      "pad_t" : 0,
      "stride_y" : 2,
      "has_biases" : 1,
      "C" : 256,
      "bottom" : "Mixed_7a_Branch_1_Conv2d_0a_1x1_Activation_output",
      "weights" : {

      },
      "Nx" : 3,
      "pad_mode" : 0,
      "pad_value" : 0,
      "Ny" : 3,
      "n_parallel" : 1
    },
    {
      "pad_r" : 0,
      "fused_relu" : 1,
      "fused_tanh" : 0,
      "debug_info" : "Mixed_7a_Branch_2_Conv2d_1a_3x3",
      "pad_fill_mode" : 0,
      "pad_b" : 0,
      "pad_l" : 0,
      "top" : "Mixed_7a_Branch_2_Conv2d_1a_3x3_Activation_output",
      "blob_weights" : 467,
      "K" : 256,
      "blob_biases" : 465,
      "stride_x" : 2,
      "name" : "Mixed_7a_Branch_2_Conv2d_1a_3x3",
      "has_batch_norm" : 0,
      "type" : "convolution",
      "n_groups" : 1,
      "pad_t" : 0,
      "stride_y" : 2,
      "has_biases" : 1,
      "C" : 256,
      "bottom" : "Mixed_7a_Branch_2_Conv2d_0b_3x3_Activation_output",
      "weights" : {

      },
      "Nx" : 3,
      "pad_mode" : 0,
      "pad_value" : 0,
      "Ny" : 3,
      "n_parallel" : 1
    },
    {
      "pad_r" : 0,
      "debug_info" : "Mixed_7a_Branch_3_MaxPool_1a_3x3",
      "pad_fill_mode" : 0,
      "pad_b" : 0,
      "pad_l" : 0,
      "size_x" : 3,
      "top" : "Mixed_7a_Branch_3_MaxPool_1a_3x3_output",
      "top_shape_style" : 0,
      "stride_x" : 2,
      "avg_or_max" : 1,
      "average_count_exclude_padding" : 1,
      "type" : "pool",
      "name" : "Mixed_7a_Branch_3_MaxPool_1a_3x3",
      "pad_t" : 0,
      "stride_y" : 2,
      "bottom" : "Block17_10_Activation_output",
      "weights" : {

      },
      "pad_mode" : 2,
      "size_y" : 3,
      "pad_value" : 0
    },
    {
      "weights" : {

      },
      "debug_info" : "Mixed_7a",
      "top" : "Mixed_7a_output",
      "type" : "concat",
      "name" : "Mixed_7a",
      "bottom" : "Mixed_7a_Branch_0_Conv2d_1a_3x3_Activation_output,Mixed_7a_Branch_1_Conv2d_1a_3x3_Activation_output,Mixed_7a_Branch_2_Conv2d_1a_3x3_Activation_output,Mixed_7a_Branch_3_MaxPool_1a_3x3_output"
    },
    {
      "pad_r" : 0,
      "fused_relu" : 1,
      "fused_tanh" : 0,
      "debug_info" : "Block8_1_Branch_1_Conv2d_0a_1x1",
      "pad_fill_mode" : 0,
      "pad_b" : 0,
      "pad_l" : 0,
      "top" : "Block8_1_Branch_1_Conv2d_0a_1x1_Activation_output",
      "blob_weights" : 471,
      "K" : 1792,
      "blob_biases" : 469,
      "name" : "Block8_1_Branch_1_Conv2d_0a_1x1",
      "has_batch_norm" : 0,
      "type" : "convolution",
      "n_groups" : 1,
      "pad_t" : 0,
      "has_biases" : 1,
      "C" : 192,
      "bottom" : "Mixed_7a_output",
      "weights" : {

      },
      "Nx" : 1,
      "pad_mode" : 1,
      "pad_value" : 0,
      "Ny" : 1,
      "n_parallel" : 1
    },
    {
      "pad_r" : 0,
      "fused_relu" : 1,
      "fused_tanh" : 0,
      "debug_info" : "Block8_1_Branch_1_Conv2d_0b_1x3",
      "pad_fill_mode" : 0,
      "pad_b" : 0,
      "pad_l" : 0,
      "top" : "Block8_1_Branch_1_Conv2d_0b_1x3_Activation_output",
      "blob_weights" : 475,
      "K" : 192,
      "blob_biases" : 473,
      "name" : "Block8_1_Branch_1_Conv2d_0b_1x3",
      "has_batch_norm" : 0,
      "type" : "convolution",
      "n_groups" : 1,
      "pad_t" : 0,
      "has_biases" : 1,
      "C" : 192,
      "bottom" : "Block8_1_Branch_1_Conv2d_0a_1x1_Activation_output",
      "weights" : {

      },
      "Nx" : 3,
      "pad_mode" : 1,
      "pad_value" : 0,
      "Ny" : 1,
      "n_parallel" : 1
    },
    {
      "pad_r" : 0,
      "fused_relu" : 1,
      "fused_tanh" : 0,
      "debug_info" : "Block8_1_Branch_0_Conv2d_1x1",
      "pad_fill_mode" : 0,
      "pad_b" : 0,
      "pad_l" : 0,
      "top" : "Block8_1_Branch_0_Conv2d_1x1_Activation_output",
      "blob_weights" : 479,
      "K" : 1792,
      "blob_biases" : 477,
      "name" : "Block8_1_Branch_0_Conv2d_1x1",
      "has_batch_norm" : 0,
      "type" : "convolution",
      "n_groups" : 1,
      "pad_t" : 0,
      "has_biases" : 1,
      "C" : 192,
      "bottom" : "Mixed_7a_output",
      "weights" : {

      },
      "Nx" : 1,
      "pad_mode" : 1,
      "pad_value" : 0,
      "Ny" : 1,
      "n_parallel" : 1
    },
    {
      "pad_r" : 0,
      "fused_relu" : 1,
      "fused_tanh" : 0,
      "debug_info" : "Block8_1_Branch_1_Conv2d_0c_3x1",
      "pad_fill_mode" : 0,
      "pad_b" : 0,
      "pad_l" : 0,
      "top" : "Block8_1_Branch_1_Conv2d_0c_3x1_Activation_output",
      "blob_weights" : 483,
      "K" : 192,
      "blob_biases" : 481,
      "name" : "Block8_1_Branch_1_Conv2d_0c_3x1",
      "has_batch_norm" : 0,
      "type" : "convolution",
      "n_groups" : 1,
      "pad_t" : 0,
      "has_biases" : 1,
      "C" : 192,
      "bottom" : "Block8_1_Branch_1_Conv2d_0b_1x3_Activation_output",
      "weights" : {

      },
      "Nx" : 1,
      "pad_mode" : 1,
      "pad_value" : 0,
      "Ny" : 3,
      "n_parallel" : 1
    },
    {
      "weights" : {

      },
      "debug_info" : "Block8_1_Concatenate",
      "top" : "Block8_1_Concatenate_output",
      "type" : "concat",
      "name" : "Block8_1_Concatenate",
      "bottom" : "Block8_1_Branch_0_Conv2d_1x1_Activation_output,Block8_1_Branch_1_Conv2d_0c_3x1_Activation_output"
    },
    {
      "pad_r" : 0,
      "fused_relu" : 0,
      "fused_tanh" : 0,
      "debug_info" : "Block8_1_Conv2d_1x1",
      "pad_fill_mode" : 0,
      "pad_b" : 0,
      "pad_l" : 0,
      "top" : "Block8_1_Conv2d_1x1_output",
      "blob_weights" : 487,
      "K" : 384,
      "blob_biases" : 485,
      "name" : "Block8_1_Conv2d_1x1",
      "has_batch_norm" : 0,
      "type" : "convolution",
      "n_groups" : 1,
      "pad_t" : 0,
      "has_biases" : 1,
      "C" : 1792,
      "bottom" : "Block8_1_Concatenate_output",
      "weights" : {

      },
      "Nx" : 1,
      "pad_mode" : 1,
      "pad_value" : 0,
      "Ny" : 1,
      "n_parallel" : 1
    },
    {
      "bottom" : "Block8_1_Conv2d_1x1_output",
      "MLCustomLayerWeights" : 489,
      "weights" : {
        "MLCustomLayerWeights" : 491
      },
      "parameters_json" : "{\"engineName\":\"scaling\"}",
      "class_name" : "MLCustomLayerWrapper",
      "debug_info" : "lambda_16",
      "top" : "lambda_16_output",
      "type" : "brick",
      "name" : "lambda_16"
    },
    {
      "bottom" : "Mixed_7a_output,lambda_16_output",
      "alpha" : 1,
      "operation" : 0,
      "weights" : {

      },
      "fused_relu" : 0,
      "debug_info" : "add_16",
      "top" : "add_16_output",
      "type" : "elementwise",
      "name" : "add_16",
      "beta" : 0
    },
    {
      "bottom" : "add_16_output",
      "weights" : {

      },
      "mode" : 0,
      "debug_info" : "Block8_1_Activation",
      "top" : "Block8_1_Activation_output",
      "type" : "activation",
      "name" : "Block8_1_Activation"
    },
    {
      "pad_r" : 0,
      "fused_relu" : 1,
      "fused_tanh" : 0,
      "debug_info" : "Block8_2_Branch_1_Conv2d_0a_1x1",
      "pad_fill_mode" : 0,
      "pad_b" : 0,
      "pad_l" : 0,
      "top" : "Block8_2_Branch_1_Conv2d_0a_1x1_Activation_output",
      "blob_weights" : 495,
      "K" : 1792,
      "blob_biases" : 493,
      "name" : "Block8_2_Branch_1_Conv2d_0a_1x1",
      "has_batch_norm" : 0,
      "type" : "convolution",
      "n_groups" : 1,
      "pad_t" : 0,
      "has_biases" : 1,
      "C" : 192,
      "bottom" : "Block8_1_Activation_output",
      "weights" : {

      },
      "Nx" : 1,
      "pad_mode" : 1,
      "pad_value" : 0,
      "Ny" : 1,
      "n_parallel" : 1
    },
    {
      "pad_r" : 0,
      "fused_relu" : 1,
      "fused_tanh" : 0,
      "debug_info" : "Block8_2_Branch_1_Conv2d_0b_1x3",
      "pad_fill_mode" : 0,
      "pad_b" : 0,
      "pad_l" : 0,
      "top" : "Block8_2_Branch_1_Conv2d_0b_1x3_Activation_output",
      "blob_weights" : 499,
      "K" : 192,
      "blob_biases" : 497,
      "name" : "Block8_2_Branch_1_Conv2d_0b_1x3",
      "has_batch_norm" : 0,
      "type" : "convolution",
      "n_groups" : 1,
      "pad_t" : 0,
      "has_biases" : 1,
      "C" : 192,
      "bottom" : "Block8_2_Branch_1_Conv2d_0a_1x1_Activation_output",
      "weights" : {

      },
      "Nx" : 3,
      "pad_mode" : 1,
      "pad_value" : 0,
      "Ny" : 1,
      "n_parallel" : 1
    },
    {
      "pad_r" : 0,
      "fused_relu" : 1,
      "fused_tanh" : 0,
      "debug_info" : "Block8_2_Branch_0_Conv2d_1x1",
      "pad_fill_mode" : 0,
      "pad_b" : 0,
      "pad_l" : 0,
      "top" : "Block8_2_Branch_0_Conv2d_1x1_Activation_output",
      "blob_weights" : 503,
      "K" : 1792,
      "blob_biases" : 501,
      "name" : "Block8_2_Branch_0_Conv2d_1x1",
      "has_batch_norm" : 0,
      "type" : "convolution",
      "n_groups" : 1,
      "pad_t" : 0,
      "has_biases" : 1,
      "C" : 192,
      "bottom" : "Block8_1_Activation_output",
      "weights" : {

      },
      "Nx" : 1,
      "pad_mode" : 1,
      "pad_value" : 0,
      "Ny" : 1,
      "n_parallel" : 1
    },
    {
      "pad_r" : 0,
      "fused_relu" : 1,
      "fused_tanh" : 0,
      "debug_info" : "Block8_2_Branch_1_Conv2d_0c_3x1",
      "pad_fill_mode" : 0,
      "pad_b" : 0,
      "pad_l" : 0,
      "top" : "Block8_2_Branch_1_Conv2d_0c_3x1_Activation_output",
      "blob_weights" : 507,
      "K" : 192,
      "blob_biases" : 505,
      "name" : "Block8_2_Branch_1_Conv2d_0c_3x1",
      "has_batch_norm" : 0,
      "type" : "convolution",
      "n_groups" : 1,
      "pad_t" : 0,
      "has_biases" : 1,
      "C" : 192,
      "bottom" : "Block8_2_Branch_1_Conv2d_0b_1x3_Activation_output",
      "weights" : {

      },
      "Nx" : 1,
      "pad_mode" : 1,
      "pad_value" : 0,
      "Ny" : 3,
      "n_parallel" : 1
    },
    {
      "weights" : {

      },
      "debug_info" : "Block8_2_Concatenate",
      "top" : "Block8_2_Concatenate_output",
      "type" : "concat",
      "name" : "Block8_2_Concatenate",
      "bottom" : "Block8_2_Branch_0_Conv2d_1x1_Activation_output,Block8_2_Branch_1_Conv2d_0c_3x1_Activation_output"
    },
    {
      "pad_r" : 0,
      "fused_relu" : 0,
      "fused_tanh" : 0,
      "debug_info" : "Block8_2_Conv2d_1x1",
      "pad_fill_mode" : 0,
      "pad_b" : 0,
      "pad_l" : 0,
      "top" : "Block8_2_Conv2d_1x1_output",
      "blob_weights" : 511,
      "K" : 384,
      "blob_biases" : 509,
      "name" : "Block8_2_Conv2d_1x1",
      "has_batch_norm" : 0,
      "type" : "convolution",
      "n_groups" : 1,
      "pad_t" : 0,
      "has_biases" : 1,
      "C" : 1792,
      "bottom" : "Block8_2_Concatenate_output",
      "weights" : {

      },
      "Nx" : 1,
      "pad_mode" : 1,
      "pad_value" : 0,
      "Ny" : 1,
      "n_parallel" : 1
    },
    {
      "bottom" : "Block8_2_Conv2d_1x1_output",
      "MLCustomLayerWeights" : 513,
      "weights" : {
        "MLCustomLayerWeights" : 515
      },
      "parameters_json" : "{\"engineName\":\"scaling\"}",
      "class_name" : "MLCustomLayerWrapper",
      "debug_info" : "lambda_17",
      "top" : "lambda_17_output",
      "type" : "brick",
      "name" : "lambda_17"
    },
    {
      "bottom" : "Block8_1_Activation_output,lambda_17_output",
      "alpha" : 1,
      "operation" : 0,
      "weights" : {

      },
      "fused_relu" : 0,
      "debug_info" : "add_17",
      "top" : "add_17_output",
      "type" : "elementwise",
      "name" : "add_17",
      "beta" : 0
    },
    {
      "bottom" : "add_17_output",
      "weights" : {

      },
      "mode" : 0,
      "debug_info" : "Block8_2_Activation",
      "top" : "Block8_2_Activation_output",
      "type" : "activation",
      "name" : "Block8_2_Activation"
    },
    {
      "pad_r" : 0,
      "fused_relu" : 1,
      "fused_tanh" : 0,
      "debug_info" : "Block8_3_Branch_1_Conv2d_0a_1x1",
      "pad_fill_mode" : 0,
      "pad_b" : 0,
      "pad_l" : 0,
      "top" : "Block8_3_Branch_1_Conv2d_0a_1x1_Activation_output",
      "blob_weights" : 519,
      "K" : 1792,
      "blob_biases" : 517,
      "name" : "Block8_3_Branch_1_Conv2d_0a_1x1",
      "has_batch_norm" : 0,
      "type" : "convolution",
      "n_groups" : 1,
      "pad_t" : 0,
      "has_biases" : 1,
      "C" : 192,
      "bottom" : "Block8_2_Activation_output",
      "weights" : {

      },
      "Nx" : 1,
      "pad_mode" : 1,
      "pad_value" : 0,
      "Ny" : 1,
      "n_parallel" : 1
    },
    {
      "pad_r" : 0,
      "fused_relu" : 1,
      "fused_tanh" : 0,
      "debug_info" : "Block8_3_Branch_1_Conv2d_0b_1x3",
      "pad_fill_mode" : 0,
      "pad_b" : 0,
      "pad_l" : 0,
      "top" : "Block8_3_Branch_1_Conv2d_0b_1x3_Activation_output",
      "blob_weights" : 523,
      "K" : 192,
      "blob_biases" : 521,
      "name" : "Block8_3_Branch_1_Conv2d_0b_1x3",
      "has_batch_norm" : 0,
      "type" : "convolution",
      "n_groups" : 1,
      "pad_t" : 0,
      "has_biases" : 1,
      "C" : 192,
      "bottom" : "Block8_3_Branch_1_Conv2d_0a_1x1_Activation_output",
      "weights" : {

      },
      "Nx" : 3,
      "pad_mode" : 1,
      "pad_value" : 0,
      "Ny" : 1,
      "n_parallel" : 1
    },
    {
      "pad_r" : 0,
      "fused_relu" : 1,
      "fused_tanh" : 0,
      "debug_info" : "Block8_3_Branch_0_Conv2d_1x1",
      "pad_fill_mode" : 0,
      "pad_b" : 0,
      "pad_l" : 0,
      "top" : "Block8_3_Branch_0_Conv2d_1x1_Activation_output",
      "blob_weights" : 527,
      "K" : 1792,
      "blob_biases" : 525,
      "name" : "Block8_3_Branch_0_Conv2d_1x1",
      "has_batch_norm" : 0,
      "type" : "convolution",
      "n_groups" : 1,
      "pad_t" : 0,
      "has_biases" : 1,
      "C" : 192,
      "bottom" : "Block8_2_Activation_output",
      "weights" : {

      },
      "Nx" : 1,
      "pad_mode" : 1,
      "pad_value" : 0,
      "Ny" : 1,
      "n_parallel" : 1
    },
    {
      "pad_r" : 0,
      "fused_relu" : 1,
      "fused_tanh" : 0,
      "debug_info" : "Block8_3_Branch_1_Conv2d_0c_3x1",
      "pad_fill_mode" : 0,
      "pad_b" : 0,
      "pad_l" : 0,
      "top" : "Block8_3_Branch_1_Conv2d_0c_3x1_Activation_output",
      "blob_weights" : 531,
      "K" : 192,
      "blob_biases" : 529,
      "name" : "Block8_3_Branch_1_Conv2d_0c_3x1",
      "has_batch_norm" : 0,
      "type" : "convolution",
      "n_groups" : 1,
      "pad_t" : 0,
      "has_biases" : 1,
      "C" : 192,
      "bottom" : "Block8_3_Branch_1_Conv2d_0b_1x3_Activation_output",
      "weights" : {

      },
      "Nx" : 1,
      "pad_mode" : 1,
      "pad_value" : 0,
      "Ny" : 3,
      "n_parallel" : 1
    },
    {
      "weights" : {

      },
      "debug_info" : "Block8_3_Concatenate",
      "top" : "Block8_3_Concatenate_output",
      "type" : "concat",
      "name" : "Block8_3_Concatenate",
      "bottom" : "Block8_3_Branch_0_Conv2d_1x1_Activation_output,Block8_3_Branch_1_Conv2d_0c_3x1_Activation_output"
    },
    {
      "pad_r" : 0,
      "fused_relu" : 0,
      "fused_tanh" : 0,
      "debug_info" : "Block8_3_Conv2d_1x1",
      "pad_fill_mode" : 0,
      "pad_b" : 0,
      "pad_l" : 0,
      "top" : "Block8_3_Conv2d_1x1_output",
      "blob_weights" : 535,
      "K" : 384,
      "blob_biases" : 533,
      "name" : "Block8_3_Conv2d_1x1",
      "has_batch_norm" : 0,
      "type" : "convolution",
      "n_groups" : 1,
      "pad_t" : 0,
      "has_biases" : 1,
      "C" : 1792,
      "bottom" : "Block8_3_Concatenate_output",
      "weights" : {

      },
      "Nx" : 1,
      "pad_mode" : 1,
      "pad_value" : 0,
      "Ny" : 1,
      "n_parallel" : 1
    },
    {
      "bottom" : "Block8_3_Conv2d_1x1_output",
      "MLCustomLayerWeights" : 537,
      "weights" : {
        "MLCustomLayerWeights" : 539
      },
      "parameters_json" : "{\"engineName\":\"scaling\"}",
      "class_name" : "MLCustomLayerWrapper",
      "debug_info" : "lambda_18",
      "top" : "lambda_18_output",
      "type" : "brick",
      "name" : "lambda_18"
    },
    {
      "bottom" : "Block8_2_Activation_output,lambda_18_output",
      "alpha" : 1,
      "operation" : 0,
      "weights" : {

      },
      "fused_relu" : 0,
      "debug_info" : "add_18",
      "top" : "add_18_output",
      "type" : "elementwise",
      "name" : "add_18",
      "beta" : 0
    },
    {
      "bottom" : "add_18_output",
      "weights" : {

      },
      "mode" : 0,
      "debug_info" : "Block8_3_Activation",
      "top" : "Block8_3_Activation_output",
      "type" : "activation",
      "name" : "Block8_3_Activation"
    },
    {
      "pad_r" : 0,
      "fused_relu" : 1,
      "fused_tanh" : 0,
      "debug_info" : "Block8_4_Branch_1_Conv2d_0a_1x1",
      "pad_fill_mode" : 0,
      "pad_b" : 0,
      "pad_l" : 0,
      "top" : "Block8_4_Branch_1_Conv2d_0a_1x1_Activation_output",
      "blob_weights" : 543,
      "K" : 1792,
      "blob_biases" : 541,
      "name" : "Block8_4_Branch_1_Conv2d_0a_1x1",
      "has_batch_norm" : 0,
      "type" : "convolution",
      "n_groups" : 1,
      "pad_t" : 0,
      "has_biases" : 1,
      "C" : 192,
      "bottom" : "Block8_3_Activation_output",
      "weights" : {

      },
      "Nx" : 1,
      "pad_mode" : 1,
      "pad_value" : 0,
      "Ny" : 1,
      "n_parallel" : 1
    },
    {
      "pad_r" : 0,
      "fused_relu" : 1,
      "fused_tanh" : 0,
      "debug_info" : "Block8_4_Branch_1_Conv2d_0b_1x3",
      "pad_fill_mode" : 0,
      "pad_b" : 0,
      "pad_l" : 0,
      "top" : "Block8_4_Branch_1_Conv2d_0b_1x3_Activation_output",
      "blob_weights" : 547,
      "K" : 192,
      "blob_biases" : 545,
      "name" : "Block8_4_Branch_1_Conv2d_0b_1x3",
      "has_batch_norm" : 0,
      "type" : "convolution",
      "n_groups" : 1,
      "pad_t" : 0,
      "has_biases" : 1,
      "C" : 192,
      "bottom" : "Block8_4_Branch_1_Conv2d_0a_1x1_Activation_output",
      "weights" : {

      },
      "Nx" : 3,
      "pad_mode" : 1,
      "pad_value" : 0,
      "Ny" : 1,
      "n_parallel" : 1
    },
    {
      "pad_r" : 0,
      "fused_relu" : 1,
      "fused_tanh" : 0,
      "debug_info" : "Block8_4_Branch_0_Conv2d_1x1",
      "pad_fill_mode" : 0,
      "pad_b" : 0,
      "pad_l" : 0,
      "top" : "Block8_4_Branch_0_Conv2d_1x1_Activation_output",
      "blob_weights" : 551,
      "K" : 1792,
      "blob_biases" : 549,
      "name" : "Block8_4_Branch_0_Conv2d_1x1",
      "has_batch_norm" : 0,
      "type" : "convolution",
      "n_groups" : 1,
      "pad_t" : 0,
      "has_biases" : 1,
      "C" : 192,
      "bottom" : "Block8_3_Activation_output",
      "weights" : {

      },
      "Nx" : 1,
      "pad_mode" : 1,
      "pad_value" : 0,
      "Ny" : 1,
      "n_parallel" : 1
    },
    {
      "pad_r" : 0,
      "fused_relu" : 1,
      "fused_tanh" : 0,
      "debug_info" : "Block8_4_Branch_1_Conv2d_0c_3x1",
      "pad_fill_mode" : 0,
      "pad_b" : 0,
      "pad_l" : 0,
      "top" : "Block8_4_Branch_1_Conv2d_0c_3x1_Activation_output",
      "blob_weights" : 555,
      "K" : 192,
      "blob_biases" : 553,
      "name" : "Block8_4_Branch_1_Conv2d_0c_3x1",
      "has_batch_norm" : 0,
      "type" : "convolution",
      "n_groups" : 1,
      "pad_t" : 0,
      "has_biases" : 1,
      "C" : 192,
      "bottom" : "Block8_4_Branch_1_Conv2d_0b_1x3_Activation_output",
      "weights" : {

      },
      "Nx" : 1,
      "pad_mode" : 1,
      "pad_value" : 0,
      "Ny" : 3,
      "n_parallel" : 1
    },
    {
      "weights" : {

      },
      "debug_info" : "Block8_4_Concatenate",
      "top" : "Block8_4_Concatenate_output",
      "type" : "concat",
      "name" : "Block8_4_Concatenate",
      "bottom" : "Block8_4_Branch_0_Conv2d_1x1_Activation_output,Block8_4_Branch_1_Conv2d_0c_3x1_Activation_output"
    },
    {
      "pad_r" : 0,
      "fused_relu" : 0,
      "fused_tanh" : 0,
      "debug_info" : "Block8_4_Conv2d_1x1",
      "pad_fill_mode" : 0,
      "pad_b" : 0,
      "pad_l" : 0,
      "top" : "Block8_4_Conv2d_1x1_output",
      "blob_weights" : 559,
      "K" : 384,
      "blob_biases" : 557,
      "name" : "Block8_4_Conv2d_1x1",
      "has_batch_norm" : 0,
      "type" : "convolution",
      "n_groups" : 1,
      "pad_t" : 0,
      "has_biases" : 1,
      "C" : 1792,
      "bottom" : "Block8_4_Concatenate_output",
      "weights" : {

      },
      "Nx" : 1,
      "pad_mode" : 1,
      "pad_value" : 0,
      "Ny" : 1,
      "n_parallel" : 1
    },
    {
      "bottom" : "Block8_4_Conv2d_1x1_output",
      "MLCustomLayerWeights" : 561,
      "weights" : {
        "MLCustomLayerWeights" : 563
      },
      "parameters_json" : "{\"engineName\":\"scaling\"}",
      "class_name" : "MLCustomLayerWrapper",
      "debug_info" : "lambda_19",
      "top" : "lambda_19_output",
      "type" : "brick",
      "name" : "lambda_19"
    },
    {
      "bottom" : "Block8_3_Activation_output,lambda_19_output",
      "alpha" : 1,
      "operation" : 0,
      "weights" : {

      },
      "fused_relu" : 0,
      "debug_info" : "add_19",
      "top" : "add_19_output",
      "type" : "elementwise",
      "name" : "add_19",
      "beta" : 0
    },
    {
      "bottom" : "add_19_output",
      "weights" : {

      },
      "mode" : 0,
      "debug_info" : "Block8_4_Activation",
      "top" : "Block8_4_Activation_output",
      "type" : "activation",
      "name" : "Block8_4_Activation"
    },
    {
      "pad_r" : 0,
      "fused_relu" : 1,
      "fused_tanh" : 0,
      "debug_info" : "Block8_5_Branch_1_Conv2d_0a_1x1",
      "pad_fill_mode" : 0,
      "pad_b" : 0,
      "pad_l" : 0,
      "top" : "Block8_5_Branch_1_Conv2d_0a_1x1_Activation_output",
      "blob_weights" : 567,
      "K" : 1792,
      "blob_biases" : 565,
      "name" : "Block8_5_Branch_1_Conv2d_0a_1x1",
      "has_batch_norm" : 0,
      "type" : "convolution",
      "n_groups" : 1,
      "pad_t" : 0,
      "has_biases" : 1,
      "C" : 192,
      "bottom" : "Block8_4_Activation_output",
      "weights" : {

      },
      "Nx" : 1,
      "pad_mode" : 1,
      "pad_value" : 0,
      "Ny" : 1,
      "n_parallel" : 1
    },
    {
      "pad_r" : 0,
      "fused_relu" : 1,
      "fused_tanh" : 0,
      "debug_info" : "Block8_5_Branch_1_Conv2d_0b_1x3",
      "pad_fill_mode" : 0,
      "pad_b" : 0,
      "pad_l" : 0,
      "top" : "Block8_5_Branch_1_Conv2d_0b_1x3_Activation_output",
      "blob_weights" : 571,
      "K" : 192,
      "blob_biases" : 569,
      "name" : "Block8_5_Branch_1_Conv2d_0b_1x3",
      "has_batch_norm" : 0,
      "type" : "convolution",
      "n_groups" : 1,
      "pad_t" : 0,
      "has_biases" : 1,
      "C" : 192,
      "bottom" : "Block8_5_Branch_1_Conv2d_0a_1x1_Activation_output",
      "weights" : {

      },
      "Nx" : 3,
      "pad_mode" : 1,
      "pad_value" : 0,
      "Ny" : 1,
      "n_parallel" : 1
    },
    {
      "pad_r" : 0,
      "fused_relu" : 1,
      "fused_tanh" : 0,
      "debug_info" : "Block8_5_Branch_0_Conv2d_1x1",
      "pad_fill_mode" : 0,
      "pad_b" : 0,
      "pad_l" : 0,
      "top" : "Block8_5_Branch_0_Conv2d_1x1_Activation_output",
      "blob_weights" : 575,
      "K" : 1792,
      "blob_biases" : 573,
      "name" : "Block8_5_Branch_0_Conv2d_1x1",
      "has_batch_norm" : 0,
      "type" : "convolution",
      "n_groups" : 1,
      "pad_t" : 0,
      "has_biases" : 1,
      "C" : 192,
      "bottom" : "Block8_4_Activation_output",
      "weights" : {

      },
      "Nx" : 1,
      "pad_mode" : 1,
      "pad_value" : 0,
      "Ny" : 1,
      "n_parallel" : 1
    },
    {
      "pad_r" : 0,
      "fused_relu" : 1,
      "fused_tanh" : 0,
      "debug_info" : "Block8_5_Branch_1_Conv2d_0c_3x1",
      "pad_fill_mode" : 0,
      "pad_b" : 0,
      "pad_l" : 0,
      "top" : "Block8_5_Branch_1_Conv2d_0c_3x1_Activation_output",
      "blob_weights" : 579,
      "K" : 192,
      "blob_biases" : 577,
      "name" : "Block8_5_Branch_1_Conv2d_0c_3x1",
      "has_batch_norm" : 0,
      "type" : "convolution",
      "n_groups" : 1,
      "pad_t" : 0,
      "has_biases" : 1,
      "C" : 192,
      "bottom" : "Block8_5_Branch_1_Conv2d_0b_1x3_Activation_output",
      "weights" : {

      },
      "Nx" : 1,
      "pad_mode" : 1,
      "pad_value" : 0,
      "Ny" : 3,
      "n_parallel" : 1
    },
    {
      "weights" : {

      },
      "debug_info" : "Block8_5_Concatenate",
      "top" : "Block8_5_Concatenate_output",
      "type" : "concat",
      "name" : "Block8_5_Concatenate",
      "bottom" : "Block8_5_Branch_0_Conv2d_1x1_Activation_output,Block8_5_Branch_1_Conv2d_0c_3x1_Activation_output"
    },
    {
      "pad_r" : 0,
      "fused_relu" : 0,
      "fused_tanh" : 0,
      "debug_info" : "Block8_5_Conv2d_1x1",
      "pad_fill_mode" : 0,
      "pad_b" : 0,
      "pad_l" : 0,
      "top" : "Block8_5_Conv2d_1x1_output",
      "blob_weights" : 583,
      "K" : 384,
      "blob_biases" : 581,
      "name" : "Block8_5_Conv2d_1x1",
      "has_batch_norm" : 0,
      "type" : "convolution",
      "n_groups" : 1,
      "pad_t" : 0,
      "has_biases" : 1,
      "C" : 1792,
      "bottom" : "Block8_5_Concatenate_output",
      "weights" : {

      },
      "Nx" : 1,
      "pad_mode" : 1,
      "pad_value" : 0,
      "Ny" : 1,
      "n_parallel" : 1
    },
    {
      "bottom" : "Block8_5_Conv2d_1x1_output",
      "MLCustomLayerWeights" : 585,
      "weights" : {
        "MLCustomLayerWeights" : 587
      },
      "parameters_json" : "{\"engineName\":\"scaling\"}",
      "class_name" : "MLCustomLayerWrapper",
      "debug_info" : "lambda_20",
      "top" : "lambda_20_output",
      "type" : "brick",
      "name" : "lambda_20"
    },
    {
      "bottom" : "Block8_4_Activation_output,lambda_20_output",
      "alpha" : 1,
      "operation" : 0,
      "weights" : {

      },
      "fused_relu" : 0,
      "debug_info" : "add_20",
      "top" : "add_20_output",
      "type" : "elementwise",
      "name" : "add_20",
      "beta" : 0
    },
    {
      "bottom" : "add_20_output",
      "weights" : {

      },
      "mode" : 0,
      "debug_info" : "Block8_5_Activation",
      "top" : "Block8_5_Activation_output",
      "type" : "activation",
      "name" : "Block8_5_Activation"
    },
    {
      "pad_r" : 0,
      "fused_relu" : 1,
      "fused_tanh" : 0,
      "debug_info" : "Block8_6_Branch_1_Conv2d_0a_1x1",
      "pad_fill_mode" : 0,
      "pad_b" : 0,
      "pad_l" : 0,
      "top" : "Block8_6_Branch_1_Conv2d_0a_1x1_Activation_output",
      "blob_weights" : 591,
      "K" : 1792,
      "blob_biases" : 589,
      "name" : "Block8_6_Branch_1_Conv2d_0a_1x1",
      "has_batch_norm" : 0,
      "type" : "convolution",
      "n_groups" : 1,
      "pad_t" : 0,
      "has_biases" : 1,
      "C" : 192,
      "bottom" : "Block8_5_Activation_output",
      "weights" : {

      },
      "Nx" : 1,
      "pad_mode" : 1,
      "pad_value" : 0,
      "Ny" : 1,
      "n_parallel" : 1
    },
    {
      "pad_r" : 0,
      "fused_relu" : 1,
      "fused_tanh" : 0,
      "debug_info" : "Block8_6_Branch_1_Conv2d_0b_1x3",
      "pad_fill_mode" : 0,
      "pad_b" : 0,
      "pad_l" : 0,
      "top" : "Block8_6_Branch_1_Conv2d_0b_1x3_Activation_output",
      "blob_weights" : 595,
      "K" : 192,
      "blob_biases" : 593,
      "name" : "Block8_6_Branch_1_Conv2d_0b_1x3",
      "has_batch_norm" : 0,
      "type" : "convolution",
      "n_groups" : 1,
      "pad_t" : 0,
      "has_biases" : 1,
      "C" : 192,
      "bottom" : "Block8_6_Branch_1_Conv2d_0a_1x1_Activation_output",
      "weights" : {

      },
      "Nx" : 3,
      "pad_mode" : 1,
      "pad_value" : 0,
      "Ny" : 1,
      "n_parallel" : 1
    },
    {
      "pad_r" : 0,
      "fused_relu" : 1,
      "fused_tanh" : 0,
      "debug_info" : "Block8_6_Branch_0_Conv2d_1x1",
      "pad_fill_mode" : 0,
      "pad_b" : 0,
      "pad_l" : 0,
      "top" : "Block8_6_Branch_0_Conv2d_1x1_Activation_output",
      "blob_weights" : 599,
      "K" : 1792,
      "blob_biases" : 597,
      "name" : "Block8_6_Branch_0_Conv2d_1x1",
      "has_batch_norm" : 0,
      "type" : "convolution",
      "n_groups" : 1,
      "pad_t" : 0,
      "has_biases" : 1,
      "C" : 192,
      "bottom" : "Block8_5_Activation_output",
      "weights" : {

      },
      "Nx" : 1,
      "pad_mode" : 1,
      "pad_value" : 0,
      "Ny" : 1,
      "n_parallel" : 1
    },
    {
      "pad_r" : 0,
      "fused_relu" : 1,
      "fused_tanh" : 0,
      "debug_info" : "Block8_6_Branch_1_Conv2d_0c_3x1",
      "pad_fill_mode" : 0,
      "pad_b" : 0,
      "pad_l" : 0,
      "top" : "Block8_6_Branch_1_Conv2d_0c_3x1_Activation_output",
      "blob_weights" : 603,
      "K" : 192,
      "blob_biases" : 601,
      "name" : "Block8_6_Branch_1_Conv2d_0c_3x1",
      "has_batch_norm" : 0,
      "type" : "convolution",
      "n_groups" : 1,
      "pad_t" : 0,
      "has_biases" : 1,
      "C" : 192,
      "bottom" : "Block8_6_Branch_1_Conv2d_0b_1x3_Activation_output",
      "weights" : {

      },
      "Nx" : 1,
      "pad_mode" : 1,
      "pad_value" : 0,
      "Ny" : 3,
      "n_parallel" : 1
    },
    {
      "weights" : {

      },
      "debug_info" : "Block8_6_Concatenate",
      "top" : "Block8_6_Concatenate_output",
      "type" : "concat",
      "name" : "Block8_6_Concatenate",
      "bottom" : "Block8_6_Branch_0_Conv2d_1x1_Activation_output,Block8_6_Branch_1_Conv2d_0c_3x1_Activation_output"
    },
    {
      "pad_r" : 0,
      "fused_relu" : 0,
      "fused_tanh" : 0,
      "debug_info" : "Block8_6_Conv2d_1x1",
      "pad_fill_mode" : 0,
      "pad_b" : 0,
      "pad_l" : 0,
      "top" : "Block8_6_Conv2d_1x1_output",
      "blob_weights" : 607,
      "K" : 384,
      "blob_biases" : 605,
      "name" : "Block8_6_Conv2d_1x1",
      "has_batch_norm" : 0,
      "type" : "convolution",
      "n_groups" : 1,
      "pad_t" : 0,
      "has_biases" : 1,
      "C" : 1792,
      "bottom" : "Block8_6_Concatenate_output",
      "weights" : {

      },
      "Nx" : 1,
      "pad_mode" : 1,
      "pad_value" : 0,
      "Ny" : 1,
      "n_parallel" : 1
    },
    {
      "bottom" : "Block8_6_Conv2d_1x1_output",
      "MLCustomLayerWeights" : 609,
      "weights" : {
        "MLCustomLayerWeights" : 611
      },
      "parameters_json" : "{\"engineName\":\"scaling\"}",
      "class_name" : "MLCustomLayerWrapper",
      "debug_info" : "lambda_21",
      "top" : "lambda_21_output",
      "type" : "brick",
      "name" : "lambda_21"
    },
    {
      "bottom" : "Block8_5_Activation_output,lambda_21_output",
      "alpha" : 1,
      "operation" : 0,
      "weights" : {

      },
      "fused_relu" : 0,
      "debug_info" : "add_21",
      "top" : "add_21_output",
      "type" : "elementwise",
      "name" : "add_21",
      "beta" : 0
    },
    {
      "pad_r" : 0,
      "debug_info" : "AvgPool",
      "pad_fill_mode" : 0,
      "pad_b" : 0,
      "pad_l" : 0,
      "size_x" : 3,
      "is_global" : 1,
      "top" : "AvgPool_output",
      "top_shape_style" : 0,
      "stride_x" : 1,
      "avg_or_max" : 0,
      "average_count_exclude_padding" : 1,
      "type" : "pool",
      "name" : "AvgPool",
      "pad_t" : 0,
      "stride_y" : 1,
      "bottom" : "add_21_output",
      "weights" : {

      },
      "pad_mode" : 2,
      "size_y" : 3,
      "pad_value" : 0
    },
    {
      "nB" : 1792,
      "top" : "Bottleneck_output",
      "has_biases" : 0,
      "weights" : {

      },
      "nC" : 128,
      "blob_weights" : 613,
      "type" : "inner_product",
      "has_relu" : 0,
      "bottom" : "AvgPool_output",
      "debug_info" : "Bottleneck",
      "has_tanh" : 0,
      "name" : "Bottleneck",
      "has_prelu" : 0
    },
    {
      "bottom" : "Bottleneck_output",
      "attributes" : {
        "is_output" : 1
      },
      "blob_batchnorm_params" : 615,
      "weights" : {

      },
      "debug_info" : "Bottleneck_BatchNorm",
      "top" : "output",
      "C" : 128,
      "type" : "batchnorm",
      "name" : "Bottleneck_BatchNorm"
    }
  ],
  "transform_params" : {
    "image" : {
      "bias_a" : 0,
      "bias_g" : 0,
      "bias_r" : 0,
      "bias_b" : 0,
      "center_mean" : 0,
      "is_network_bgr" : 0,
      "scale" : 1
    }
  },
  "storage" : "model.espresso.weights",
  "metadata_in_weights" : [

  ],
  "properties" : {

  },
  "analyses" : {

  },
  "format_version" : 200
}